assets/fsanet-var.onnx (onnx, 965912 bytes, 92 tensors)

msms.s0_conv0.conv.depthwise.weight f4 [3, 1, 3, 3]
00000000: be52 a53d 8042 be3e 8371 8d3d 98c5 16be
00000010: 7f7e b2bd 675e a0bc f48e 8c3c dcdf 36be
00000020: 3ff5 e0bd 6a59 18be 6eb6 bfbd 1f2b 303d
00000030: b4ba d83e 4b31 463e 1f73 e1bd e2b3 20be
00000040: a540 fcbd 89b4 fcbc 3e40 c4bc c0a3 71be
00000050: 6792 17bd b5eb b5bb 1c76 21be f76a 07be
00000060: 6a10 8c3d 483b d23e 32e3 df3d
0.080724224 0.3716011 0.06906416 -0.14723814 -0.087155335 -0.019576265 0.01715801 -0.17858833
-0.10984277 -0.14877859 -0.093609676 0.043009873 0.42329943 0.19354741 -0.11008286 -0.1569362
-0.123170175 -0.030847805 -0.023956414 -0.23597622 -0.037004855 -0.00555178 -0.15767711 -0.13224398
0.06839068 0.41060853 0.10932006

msms.s0_conv0.conv.depthwise.bias f4 [3]
00000000: 5bd4 a6be 310b b4bd 4ce7 99be
-0.3258389 -0.08791197 -0.30059278

msms.s1_conv0.conv.depthwise.weight f4 [3, 1, 3, 3]
00000000: 9f4d 6a3e 6010 8ebe 4896 d6bd 2ae1 f23b
00000010: 2b39 cdbe cd41 4c3e 19c1 b4bd 5876 85bd
00000020: d326 153d b8df 7dbd 700b 983e 0c28 bd3d
00000030: 8934 2e3d e4e2 a23e f42a 9b3d 7b4e aa3d
00000040: 28ac 903e 5191 aebd 916c d5bd b6b4 923e
00000050: 2631 023e 2bcf 073d 3546 ba3e a8c0 e73b
00000060: 26ab f93d 5f84 533e 90f1 96bd
0.22881173 -0.27746868 -0.104778826 0.0074120956 -0.40082678 0.19946976 -0.08825893 -0.06516713
0.03641398 -0.061980933 0.29696226 0.09236154 0.04253057 0.3181373 0.07576552 0.0831575
0.28256345 -0.08523811 -0.10421098 0.28653497 0.12714061 0.033156555 0.3638169 0.007072527
0.12190847 0.20655964 -0.07370293

msms.s1_conv0.conv.depthwise.bias f4 [3]
00000000: 5b52 08be 7705 f63d d6da 05bf
-0.13312666 0.12012761 -0.5228704

658 f4 [16, 3, 1, 1]
00000000: 795a ad3f 56af 27c0 ebe8 4abf c2c0 57bd
00000010: b9a4 a33f 2775 0a40 3330 803f cd7b 1bbe
00000020: 0e45 18bf e0c1 5cbe 1ce0 5640 1daf c53f
00000030: 62b3 3a3e 3288 af3e 32da e9bf bc39 9a3e
00000040: d672 43c0 c702 52bf 11ac ea3e d085 5140
00000050: cf2c 38bf e6fb 04c0 de96 d23f fc0b 1ec0
00000060: 8809 23c0 a2a6 b33f c839 04c0 778a 31bf
00000070: 2eee c3bf 8152 0240 a26b 90bf ce9d c6bf
00000080: 17cd 33c0 d807 1e3f 9c58 2140 8e96 82be
00000090: 273d 253f 7c00 0ec0 af7d d13f a67f d23e
000000a0: 24da 853f 8210 dabf 0693 303f 73b6 47c0
000000b0: eb87 66bf e75f 4b40 f931 8ebb 5836 4a40
1.3543235 -2.6200767 -0.79261655 -0.052674063 1.2784644 2.1634004 1.0014709 -0.15183945
-0.5948037 -0.21558332 3.3574286 1.5444065 0.18232492 0.34283596 -1.8269713 0.30122173
-3.053884 -0.8203549 0.458344 3.2737923 -0.7194337 -2.0778747 1.6452291 -2.4694815
-2.5474567 1.4035227 -2.0660267 -0.69351906 -1.5307062 2.0362856 -1.1282847 -1.5516908
-2.8093927 0.6173072 2.5210333 -0.2550549 0.64546436 -2.2187796 1.636648 0.41113013
1.0457196 -1.7036288 0.6897434 -3.1205108 -0.90051144 3.1777284 -0.0043394533 3.1595669

664 f4 [16]
00000000: f565 953c 08d6 423f d573 ab3e d03f 4d3f
00000010: 4ce7 acbe f5fc 56be 236f 773e 04a2 a5bf
00000020: 5e40 a9bf b23e d43e 06ac 9cbf a641 913e
00000030: cf10 053f 352d 81be e583 9dbe 0261 0240
0.018237093 0.76107836 0.3348681 0.80175495 -0.33770216 -0.20994933 0.24163489 -1.2940068
-1.3222768 0.41454083 -1.2239997 0.28370398 0.5197877 -0.25229803 -0.3076469 2.037171

682 f4 [16, 3, 1, 1]
00000000: 4ae3 383e dcb2 84bf 51ad a33f 5083 5dbf
00000010: 4af2 21bf 534c a73e d9c0 9abe c092 003f
00000020: 0c0c 23bf 407d e6be be74 00bf 065d 093d
00000030: d840 5ebf 9832 023e 52f7 ccbe 0a7d 1f3f
00000040: 8f86 cbbe d777 163f 6a4a 313e 8b46 413f
00000050: 57e6 0abf c515 c53e ec99 c73e da0f 37bc
00000060: 71a6 70be 9b63 d6bd eb0e 873e 7825 21bf
00000070: 2c71 83bf 714c a63e 6d0e 40bd f510 39bd
00000080: 1744 9a3e 42f1 ed3d 4fec 7cbe 4cf4 d2bd
00000090: 033c 9f3f 9535 533f d189 c8be d793 53be
000000a0: 691f 883e 516d 1bbf e6ba c53d 1f2c 74be
000000b0: 410f 0f3f 0ded 80bf a041 d3be 9d6b 833b
0.18055454 -1.0367084 1.2787267 -0.8652849 -0.6326033 0.32675418 -0.30225256 0.5022392
-0.6369026 -0.45017433 -0.50178134 0.03353598 -0.86817694 0.12714612 -0.4003244 0.6230017
-0.39751098 0.5877661 0.17313543 0.75498265 -0.5425772 0.3849317 0.3898462 -0.011173213
-0.23500992 -0.10468217 0.2637857 -0.629478 -1.0268912 0.32480195 -0.046888757 -0.045182187
0.30130073 0.11618282 -0.2469952 -0.10300502 1.2440189 0.82503635 -0.39167646 -0.20661865
0.26586464 -0.6071368 0.09654789 -0.23844956 0.5588265 -1.0072342 -0.41261005 0.0040106312

688 f4 [16]
00000000: 865a 753f 3722 473e 5613 50be 850c 5f3e
00000010: 3a66 ccbe 3650 3e3e d404 f93d d04f 3f3e
00000020: 0fbb ac3d 5802 82bc 40c3 85bb 0268 b5be
00000030: 0872 333d 626d 003e 849b 563e a629 b63e
0.9584125 0.19446646 -0.20319876 0.2178212 -0.39921743 0.18585286 0.12159124 0.1868279
0.08434116 -0.015870258 -0.0040821135 -0.35430914 0.04380992 0.12541726 0.20957762 0.3557865

msms.s0_conv1_0.conv.depthwise.weight f4 [16, 1, 3, 3]
00000000: 00bb 37be a99a bc3d ff0b d03d a3ea e3bd
00000010: 9fd1 03be 9ebf 9b3e 13ef ebbd e6ce bcbe
00000020: 673b dfbc 4660 033e 2d67 8b3d 6ecb c8bc
00000030: 347e 2cbe f421 ccbe 6087 db3d a8ca a1bd
00000040: 150b 90be 55a8 263c c80f b93d c383 cd3d
00000050: 89ce 143c 6840 763e 0cfb ab3e 1819 123c
00000060: fc66 16be fd1a 99be f8d1 173e d4e7 1d3e
00000070: 2111 5abe 8c9e 11bd 6b32 9f3e ba84 bdbe
00000080: 9073 ffbd a1eb c2bc acc4 b73d d76c bebd
00000090: 4b2e 6a3d ba9b 9a3e 1c8d b4bd ba87 cb3c
000000a0: 25b9 c9be 87df fa3d dadd 563d 2d80 3d3e
000000b0: 6ec3 313d 11b4 adbd 4fe8 dcbc b75e 293e
000000c0: 8cd6 ad3d 4369 663e fadf 9dbe af04 21be
000000d0: 838a 53be 8557 853e 6f30 08bd 6b00 26be
000000e0: b47c 6f3e 8214 acbe 3c52 7abe 2cb3 743e
000000f0: f46b a4bd 8378 1bbe d16f c53c 0bce 36be
00000100: 68a7 ea3e 2043 aa3d 0101 1abe 97d4 4b3e
00000110: 28dd 6a3d f5c5 1bbd a0ce d7bd 97f2 5dbd
00000120: 16a7 b73d 82da 03bd 17d3 e63c 9106 21bd
00000130: 2e60 d7be d9db eb3d 91b3 61bc 2697 9fbe
00000140: 1dfd 13bd 8dd6 25bd 3e8f c63b 11ee d2bb
00000150: e7f6 a7be d67b 023f 8f27 a8bd d526 dbbd
00000160: 5bb3 233e 33da 913c 4885 ab3e 1196 96be
00000170: 29db 343e fc72 933e 94ff 23bd e032 23bc
00000180: 2873 aebd 712d ffbd 0cd0 1cbd 2c72 64be
00000190: 04ea 25bd f361 6cbd 825d 5e3d e73d 8fbe
000001a0: 095b 3cbe 2fe3 3b3e 4735 12be e64c 16be
000001b0: 721f 0dbd 6105 8c3e 39fe 0a3e 1654 92bd
000001c0: 243e 9f3e 1ad8 813e 7cf6 9cbd 657a 0e3e
000001d0: 8de9 e9bc 132b b03d 60d8 013e 3fd9 763e
000001e0: 3942 3fbb 47ce d83e 6786 043e 9f12 693d
000001f0: d48d 153e 9f7a e0bd 17ba 83be e39c 9ebe
00000200: c67f a73c 35f5 23be a94b 9cbd bda5 a73d
00000210: c358 c03c e588 983e 4370 88bd e29d 7d3d
00000220: 4633 a4be 9728 083e 0b86 9b3e 75ae 5ebe
00000230: a3a6 593c 570d 613e a49b 85bc 780e c8bd
-0.17942429 0.092091866 0.10158538 -0.11128738 -0.12872933 0.3041963 -0.11520209 -0.368766
-0.027250005 0.12829694 0.068067886 -0.024511065 -0.16845018 -0.39869654 0.1071918 -0.07899982
-0.28133455 0.010171969 0.09036213 0.10034897 0.009082445 0.24048007 0.3358997 0.008917116
-0.14687723 -0.29903403 0.1482619 0.15420467 -0.21295597 -0.035551593 0.31093153 -0.37015325
-0.12473214 -0.023793997 0.08973059 -0.09298103 0.057173055 0.30196935 -0.08815977 0.024844993
-0.39399067 0.12249666 0.052457668 0.18505926 0.043399267 -0.084816106 -0.026966242 0.16540037
0.08488187 0.22501092 -0.30834943 -0.15724443 -0.20658307 0.26043335 -0.033249315 -0.16211097
0.23387414 -0.33609396 -0.24445432 0.23896474 -0.08028403 -0.1518269 0.02410117 -0.17852037
0.45830846 0.08313584 -0.15039445 0.19905315 0.057339817 -0.038030583 -0.105374575 -0.05418643
0.08967416 -0.032190807 0.028176827 -0.039312903 -0.42065567 0.11516542 -0.013775722 -0.31170005
-0.03613006 -0.040487815 0.0060595563 -0.006437071 -0.3280556 0.5097021 -0.0821067 -0.10700766
0.15986387 0.01780424 0.33500123 -0.29411367 0.17661728 0.28798664 -0.04003866 -0.00996086
-0.08518058 -0.12459839 -0.038284346 -0.22309178 -0.040506378 -0.0577106 0.054288395 -0.27976915
-0.18394102 0.18348382 -0.14278136 -0.14677772 -0.034453817 0.27347854 0.13573541 -0.07144944
0.31102097 0.25360185 -0.07664201 0.13913877 -0.028553749 0.08601966 0.12680197 0.2410631
-0.002918376 0.42344877 0.12941895 0.056902524 0.14604884 -0.10960888 -0.25727913 -0.3097907
0.02044667 -0.16011508 -0.076316185 0.08185909 0.023479825 0.29791942 -0.06662037 0.061918147
-0.3207037 0.13296734 0.30375704 -0.21746238 0.013284358 0.21977745 -0.016309567 -0.09768385

msms.s0_conv1_0.conv.depthwise.bias f4 [16]
00000000: b9fc 10be 6d02 5abe 556d bd3e edbc 09be
00000010: c333 42be 13d1 f73d e88d 17be bbd0 83bd
00000020: fc46 99bd da04 b6bd 8da4 a1bd 6b7c 003e
00000030: 14d2 853d 6254 3dbe ead8 b13e ca42 ef3b
-0.14158906 -0.21289988 0.36997476 -0.13450976 -0.18965058 0.121004246 -0.14800227 -0.064362966
-0.07484242 -0.08887644 -0.07892714 0.12547462 0.0653421 -0.1848922 0.34735805 0.007301663

msms.s1_conv1_0.conv.depthwise.weight f4 [16, 1, 3, 3]
00000000: 0058 69bc 59af 2c3e bfba 1fbd 1469 79be
00000010: 9f0b 0b3f ffc7 c5bd 26ed 133b d7b1 203d
00000020: debb c1bc c374 c03d 942f 3c3e b63f 003e
00000030: fa87 cb3d 0f83 033e 8ca6 573e e8ca 7abc
00000040: 29cf 1e3e 9248 173d 04e2 813d dea1 32be
00000050: 163e 2ebd eb5f c1be 5d37 08bd f6b9 3dbe
00000060: 9055 dc3c 632e 0b3e 5687 27bd df0e a0bd
00000070: 278f 97be c174 803d 6514 d9bd fb27 c1be
00000080: 4192 aebd 35ab 473e f36b 363e 2c8e c53d
00000090: 3231 8abd 8ac7 f7bd dd5d d1bd fc28 ebbd
000000a0: b01e b8be 8df6 3bbd f8b0 513d 01b7 0ebd
000000b0: 80fd 1ebe 65f0 293e 469e 5e3e fdac c93d
000000c0: 9c48 12be a311 513e 7edd 15bd c63c d8bd
000000d0: 31c0 1c3e c961 5b39 fe8b 3fbe c093 9b3e
000000e0: 8d9d c93b da11 22be c3a4 e33e 7024 10be
000000f0: 6e28 19bd fcb2 3c3d 8e99 ebbd e782 403e
00000100: 08f0 b9bd f958 5fbc ba85 993d 4838 fb3c
00000110: b9e1 513e fb6b 3ebe 9dc8 8dbe fa1b 2cbe
00000120: f1ea 16be c935 5abe 9aed 28be fe7d a83c
00000130: e615 39be 3781 0e3b f373 c93d 9205 04bc
00000140: 1ea8 7ebd 530a 2c3e 4505 9cbc d9f4 a4bd
00000150: ab17 cfbd cc84 57be 2cb3 f33c 2ba7 6ebe
00000160: 0a92 c5be d211 3fbd 41e5 d03d 7670 8e3b
00000170: 06ad 32be bd93 da3d f82d 04bf 55e7 833d
00000180: 13f7 b8bd 5b04 efbd b69a 63bd 47ff b03e
00000190: 61d9 c3be db0e ce3d 81bf 8d3e 35ce 58bf
000001a0: 069c 4a3e 9c4d b13d c3f5 02bf b891 043e
000001b0: 14fb d3bc 05f1 c13d 551e 293d a42b 803e
000001c0: 9f06 a23e c1d1 a43e 3b2b 0cbc 1098 943c
000001d0: e12e 033d 8270 cbbd f20f c43d 47c3 253d
000001e0: 4c71 bebe e20d fa3e 20b4 48be 8769 483d
000001f0: bc84 ee3d a3c5 84bd 3abf bb3d 7c1d 3e3c
00000200: 3309 413e 8f5c 883e 8f89 c1be f3b4 293e
00000210: c425 15bd f1de a4bd 4b3c 3dbd 8536 87bc
00000220: e1be b93c 0e65 1bbc 26e8 b83c 5565 083f
00000230: 4aab bd3d f8c7 1cbd 733f 933d c72f 133d
-0.014242172 0.16863765 -0.038996454 -0.2435649 0.5431461 -0.09657287 0.0022571771 0.0392321
-0.023649152 0.093972705 0.18377525 0.12524304 0.09938045 0.12842964 0.21059626 -0.015307166
0.15508713 0.036934443 0.06341937 -0.1744456 -0.04253968 -0.37768492 -0.033255924 -0.1852797
0.026896268 0.13591914 -0.04090055 -0.078153364 -0.29601404 0.06272269 -0.10599593 -0.37725815
-0.085239895 0.19498904 0.17814617 0.09646258 -0.067476645 -0.12098606 -0.10222981 -0.114824265
-0.35960913 -0.045889426 0.05119416 -0.034842495 -0.1552639 0.1659561 0.21740064 0.09847448
-0.14285511 0.20416884 -0.036588185 -0.105584666 0.1530769 0.00020921895 -0.18705747 0.30386162
0.0061528147 -0.15827122 0.4446164 -0.140764 -0.037392072 0.04606913 -0.115038976 0.18799935
-0.090789855 -0.013632053 0.074962094 0.030666485 0.20496263 -0.18595879 -0.27692118 -0.16807547
-0.1473806 -0.2130958 -0.16496888 0.02056789 -0.1807476 0.0021744499 0.09836569 -0.008057969
-0.062172048 0.16800813 -0.019045481 -0.080545135 -0.10111936 -0.21046752 0.029748522 -0.23305957
-0.3858798 -0.046647854 0.10199977 0.0043469025 -0.17448816 0.1067271 -0.5163264 0.064406075
-0.09031501 -0.116707526 -0.055567466 0.3456976 -0.38251784 0.10061427 0.27685168 -0.84689647
0.1978608 0.08657381 -0.5115625 0.12946212 -0.02587656 0.09469799 0.041288693 0.25033295
0.31645676 0.3219128 -0.008555229 0.018138915 0.03202713 -0.099335685 0.09573354 0.040469434
-0.37195814 0.48838717 -0.19599962 0.048928764 0.11646411 -0.06483009 0.09167333 0.011603709
0.18851165 0.26633117 -0.3780026 0.16572933 -0.03641297 -0.08050335 -0.046200078 -0.01650549
0.022674026 -0.0094845425 0.022571635 0.5327962 0.092611864 -0.038276643 0.07189836 0.035934236

msms.s1_conv1_0.conv.depthwise.bias f4 [16]
00000000: 89d2 073e a49c aabd 8fae bb38 32e0 87bb
00000010: 9896 4ebe 9ac0 1cbe 007c 943e 224e b33d
00000020: 1dd3 aa3e 5d4f a33d 4e4a 11be 2810 b53e
00000030: 969b 9c3d 1f1a 4ebd f945 49be 628c e53d
0.13263907 -0.08330658 8.949369e-05 -0.004146599 -0.20174634 -0.15307847 0.29000854 0.08755137
0.33364192 0.07974122 -0.14188501 0.3536389 0.07646863 -0.05031788 -0.19655599 0.112084165

706 f4 [32, 16, 1, 1]
00000000: a650 45bf 136c 66bf e2db 123f 88e2 0bbf
00000010: ba4b 6bbf fee0 cb3c 020c a23d 9934 e8be
00000020: b532 853f 16cf d0be 18b3 d9be 8e63 35bf
00000030: 96eb 6dbf 9bab 1bc0 daa6 8b3f 114f 52bf
00000040: 8723 bbbe 2253 b53f 3f90 27bf 8299 613e
00000050: 2895 72bd fc0d 9dbe 5322 cd3e 5621 82bf
00000060: 9a6c 4c3f 01bd b0bf 6b26 3bbe fcff 303e
00000070: b79d a5bf b79b c33e 8a41 9abe 039e 47bf
00000080: 0177 e33f 73f8 d03d 9bc0 5ebf b265 5fbf
00000090: f8a4 4abf 6c63 fa3e 6d99 d4bf b50c a03f
000000a0: bebb 48be dd68 b83e 1de4 bfbf 9651 76bf
000000b0: f135 7dbf c173 68bf 1400 9cbf 7de5 703f
000000c0: 7ef2 c03f 4e45 9e3f 8a55 0f3f 675e b4bf
000000d0: 5939 6f3d a830 82be ab49 a6bf e8cd c93e
000000e0: b0a8 243f cf99 a1bf df90 07bf 88a4 7f3f
000000f0: 8204 15c0 f2c9 95bf 69f3 37bf 9d60 973e
00000100: addf 03bf 1d57 08bf d447 59bd af32 bfbf
00000110: 16b1 783e 9790 13bf b531 2f3f 17b0 ebbe
00000120: 864a d23e b2d4 10bf 05b9 aa3f a63c c2bc
00000130: 7a62 4ebf 7d84 193c 8ead 97be 4228 a3bf
00000140: 0816 623f e4b0 333d fa16 4e3f 02ff 023f
00000150: 12b1 373f eaf3 ac3e e70c 183f c177 ef3e
00000160: a358 66bf 0db4 70be 11e0 abbf 6888 433f
00000170: 2ecf dabf 6ce4 113f 257e dbbe c75f d2bd
00000180: 5189 933f 1064 893f bd16 fdbf e34e 713f
00000190: 2607 b03f 54fa a53e d59b febe 514d da3d
000001a0: 92e7 363f 475c 12bf 8b58 0c40 6ea0 6abe
000001b0: 2643 b1bf 98e4 0dc0 95f8 b8bf 4164 8d3f
000001c0: d85c b23e aed9 a73e b391 afbe 0f16 e43f
000001d0: a9b2 3abe bd57 77bf 3f34 a73f 111f 44be
000001e0: 605d 5fbf 4889 4b3f 1429 2f3f 8b98 5dbf
000001f0: 740f 5f3d 1188 123f b761 5c3d 73cd a4bd
00000200: 3fc8 aa3e 44bd 1e3f 119c 173f 754d f53e
00000210: f565 b83d 91b5 4a3f 34ac 14be e6d2 ef3e
00000220: cefd 9ebe e2f3 81bf 25ae 18c0 2a48 12bf
00000230: 0c9d e1bd 8820 e23c db2a a43e 86b8 71be
00000240: f936 afbe 8e07 dbbe d467 54be de9c 513f
00000250: a2c3 813d 9007 0c3f 6c31 003f 0897 0abf
00000260: 89b3 4b3f 6931 32c0 c7d8 bbbe 9560 3c3e
00000270: 3702 a73d e873 8e3b 44ba 5abd 75ce 0d3e
00000280: 4cf7 ccbe 589e debe 6fd6 16be 364a 96bf
00000290: 76df 713f 70a4 103f 7e9f bc3e fb7e 843e
000002a0: 7121 00bf 1ec0 bf3e 2bd7 1b3f 8a4a ef3e
000002b0: 22f7 a3be 0ee2 65bf d911 26be a69e 953f
000002c0: f2bd 66bf 9795 513d 6579 a7be 4ba9 003f
000002d0: 816a 6bbf fd92 88be d0e5 4a3f d80e 53bf
000002e0: 8dde 57be 9712 3dbe 8332 92bf 0de7 b8bf
000002f0: 9637 7d3d 69d3 11c0 8dc9 803d da60 aebe
00000300: 08d6 243e 54e2 c33e 0343 00bf 075f 3abf
00000310: 5e79 d03e ed4c a6bd 686e db3f 1c9c ee3e
00000320: dd1b 39be 3e05 5c3f 8529 9b3e 55c2 0c3f
00000330: b5ab ab3e b84d bfbf ec1c 073e 3d6e aabf
00000340: 4927 d23f f02a 9e3d bfcd 6a3f c879 d33e
00000350: 79b4 863c 1fff 97be a561 fd3e f41c f3bf
00000360: 634c 373f af93 213f 6c25 953f dd63 043f
00000370: 5307 17be 603a b1bf ffe5 6ebf 20a2 d43f
00000380: 4b5e bd3f c710 d03e 5a8b 7ebf 5177 f1be
00000390: c0f6 18bf 1915 31bf 80e9 823f 8be6 f6be
000003a0: f6c8 0140 4c72 02bf 39a5 0dbf 4625 57bf
000003b0: c7f9 14bf da64 73be 9a1b 14bf 836c dcbe
000003c0: 21fa 7ebf 10f0 ecbc 7071 86bf 7978 1e3f
000003d0: 1227 cf3d 168e e03d f166 8f3f a53f 0abf
000003e0: 61a9 833f ea9c c7be 7046 febe aed9 753c
000003f0: d657 f4bf ed1b 6ebe 81f2 d0bf 882a b1bf
-0.77076185 -0.9000866 0.57366765 -0.54642534 -0.91912425 0.024887558 0.079124466 -0.4535263
1.04061 -0.40782994 -0.4251945 -0.70855033 -0.929376 -2.432349 1.0910294 -0.82151896
-0.36550543 1.4165995 -0.6545448 0.22031215 -0.059224278 -0.30674732 0.4006525 -1.0166423
0.7985321 -1.380768 -0.18276374 0.1728515 -1.2938756 0.38204738 -0.30128127 -0.7797548
1.7770692 0.10203638 -0.8701264 -0.8726455 -0.7915797 0.48903978 -1.6609322 1.2503878
-0.19602868 0.36017504 -1.499149 -0.9621824 -0.98910433 -0.90801626 -1.2187524 0.9410017
1.5074003 1.23649 0.559899 -1.4091309 0.0584043 -0.25427747 -1.2991232 0.39414907
0.64319897 -1.2625064 -0.5295543 0.9986043 -2.3284001 -1.1702254 -0.7185579 0.29565898
-0.5151318 -0.53257924 -0.053047016 -1.4937342 0.24286303 -0.576425 0.6843522 -0.46032783
0.41072482 -0.5657455 1.3337713 -0.02371056 -0.80619013 0.009369967 -0.296246 -1.2746661
0.88314867 0.043869868 0.8050381 0.5117036 0.7175456 0.33779842 0.5939469 0.46771052
-0.89979 -0.23506184 -1.3427755 0.76380014 -1.7094476 0.5698917 -0.42869678 -0.10272174
1.1526281 1.0733662 -1.9772564 0.94260997 1.3752182 0.32417548 -0.49728265 0.10659278
0.714471 -0.57172054 2.1929042 -0.22912762 -1.3848617 -2.2170773 -1.4450861 1.104622
0.3483646 0.32783264 -0.34290847 1.7819232 -0.18232216 -0.96618253 1.3062819 -0.19152476
-0.87251854 0.7950635 0.68422055 -0.8656089 0.054458097 0.5723887 0.053804126 -0.08046999
0.333559 0.62007546 0.59222513 0.47910658 0.09003822 0.791833 -0.14518815 0.4684059
-0.31053013 -1.0152552 -2.385629 -0.57141364 -0.110162824 0.027603403 0.32063946 -0.23605546
-0.34221628 -0.427792 -0.20742732 0.81879985 0.06336142 0.5469904 0.5007541 -0.54136705
0.79570824 -2.7842658 -0.36688825 0.18396218 0.08154719 0.004347313 -0.053400293 0.13848288
-0.40032423 -0.43480182 -0.14730237 -1.1741397 0.944816 0.5650091 0.36840433 0.25878128
-0.5005103 0.3745126 0.60875195 0.46736556 -0.32024485 -0.8979806 -0.16217746 1.1689041
-0.90133584 0.05116805 -0.32709804 0.5025832 -0.9195939 -0.26674643 0.79256916 -0.82444525
-0.2108099 -0.18464123 -1.1421665 -1.4445511 0.06182059 -2.2785285 0.06288443 -0.34058267
0.16097271 0.38258612 -0.5010225 -0.7280125 0.40717596 -0.08120141 1.7143068 0.46603477
-0.18077035 0.859455 0.30305114 0.5498403 0.3352944 -1.4945593 0.13194627 -1.3314892
1.6418239 0.077230334 0.91720194 0.4130385 0.016443478 -0.2968683 0.4948856 -1.8993211
0.7160093 0.6311597 1.1652045 0.5171488 -0.14748888 -1.384594 -0.93319696 1.6611977
1.4794401 0.406378 -0.99431384 -0.47161344 -0.5975151 -0.6917282 1.0227509 -0.48222765
2.0278907 -0.50955653 -0.55330235 -0.8404125 -0.5819363 -0.2376894 -0.57854617 -0.43051538
-0.99600416 -0.028923064 -1.0503368 0.61902577 0.10114874 0.10964601 1.120329 -0.54003364
1.0286065 -0.38986903 -0.49663115 0.015005512 -1.9089305 -0.2325284 -1.6324006 -1.3841105

712 f4 [32]
00000000: 8828 a0bf a0fe 7d3f 832b 233f c594 5d3e
00000010: 8793 973e 8ba4 4b3e c350 1a40 cc24 a83f
00000020: a04e babc 7507 46bd 5087 5f3d b0cb b13c
00000030: d430 f83e 70b8 9d3e bea4 d83f 9529 c83f
00000040: 94ae 9bbf fdbf 0dbd 1e6d 97be 0512 1d3f
00000050: 03fd 403f 59a8 80be 0ce5 a9be fe6f 593f
00000060: c05a a5bf 008a a9bd 302d 0ebd 1a16 c03e
00000070: 2203 42bf db8e 96be 7731 143e b637 e7bf
-1.2512369 0.9921665 0.6373827 0.21638782 0.29604742 0.19886987 2.4111793 1.313623
-0.02274257 -0.048346955 0.054572403 0.021703571 0.48474753 0.30804777 1.6925275 1.563769
-1.2162652 -0.034606922 -0.29575437 0.6135562 0.75386065 -0.2512844 -0.3318256 0.8493651
-1.291832 -0.082782745 -0.034711063 0.37516862 -0.7578603 -0.29405865 0.14471994 -1.8063877

754 f4 [32, 16, 1, 1]
00000000: ec4f 0740 9747 c13f d3ac c1bf 3871 c0bd
00000010: 0332 0cc0 b909 963f fd91 c93f e693 4ebf
00000020: 7342 a1bf 8e6c 55bf 0f62 15bf d6d6 383e
00000030: 8574 76bf 3098 073f 3095 903e 4de9 f5be
00000040: 7676 04c0 2f49 843e f216 f33f 7649 fbbf
00000050: d757 dd3f 63b4 c03e edc3 e13f 9fa9 14c0
00000060: 49a6 b83f a2a6 173f 580c cdbf 4c82 d33f
00000070: b11d 77bf 1c7b 0940 5597 553f 4504 b4be
00000080: b1d1 91be d8ca 8f3e 7ca9 653d 1f4e 46bf
00000090: ab5a 2a3f 41b9 fb3e f8a8 a73e a82c 5a3e
000000a0: 028b 81be 9bf8 25c0 3e88 6cbe eb4f bf3e
000000b0: bdee c93e aa20 edbd ba30 883e af88 1dbd
000000c0: 678e 37bf aedf d2be f440 073f 8146 e5be
000000d0: 6ea6 7ebd 030a 8f3c 8d38 74bf e5a5 503e
000000e0: 9b42 9cbf 2b20 26bf e533 1a3e 8684 40c1
000000f0: 01a1 d8bd 2826 0c3e 9f2c 81be c8f0 e73d
00000100: 85b7 2940 5c8a cfbe 25d1 8d3f ea22 1540
00000110: b80b b3bf 316d 14be 85a5 4840 07a5 8c3f
00000120: 33ad 82bf 557e 30bf 2a26 01bf 34de 2f40
00000130: fc08 2540 a067 f73f 40df 81c0 fefb a540
00000140: bf19 c440 b476 1ec0 ac36 0640 0b0f 9dc0
00000150: d242 0c3e 6adc 23c0 b3e1 6740 939a fec0
00000160: 8e8c 0c40 3eba bfbf bfe4 5ac0 035c 2e41
00000170: ae1e bc3f d310 78c0 28b1 efc0 1917 e340
00000180: 7e2d 5240 e7c5 613f 54d3 1cbf 1926 143e
00000190: e08a b83f 722c d8bf ad76 623f 84c3 b1bf
000001a0: 5e3a 2f3f a722 af3f 42f5 adbf d33b afbf
000001b0: a9b1 b33e 04af dc3f be7b 9ac0 03d4 b03e
000001c0: 6f7b 0940 cfc7 7740 2398 aebf 89ce 9fbf
000001d0: 97a3 99bf 42e4 26bf 474e 443f 6b68 2b40
000001e0: 4800 82bf 137d fe3e 31ba 45be c315 dabe
000001f0: 82e4 8f40 cc44 083f 9d86 74c0 df8e aa40
00000200: 4563 3440 548d bcbe 137c 5dbf 6fb9 42be
00000210: af14 74bf c13f a03e dbd3 8f40 470a 2f40
00000220: ca90 5fbf 3e27 f2bf af47 02c0 c470 d940
00000230: 45bb 0840 eb65 9cbe 67b7 5a3f 052f 9e40
00000240: e805 44c0 f518 6dbd 5810 963f 3b6d 0b3e
00000250: 31d2 cdbe aae0 203e 8a3e 823e 3da3 30be
00000260: b6e7 01bf 5553 3f3e 8576 a7be 23e9 edbc
00000270: 7576 843e b962 ecbd 86fb d9bd 0e0f 62bf
00000280: 059d 2abf 130d a0c0 8b2d 3b40 13ad 2c40
00000290: ac90 8c3b f364 25bf 3d1f 013f 9637 8840
000002a0: 7949 0140 d6ab 4fbf b9ca a53f 74bd ac3f
000002b0: 7386 f1c0 cfeb 963f f8a7 6dbc 3399 44c0
000002c0: 4162 6740 6272 4c40 520f 33c0 3aef 53c0
000002d0: 8245 16bf ba86 a3bf d2fc b93f b4ef 1240
000002e0: 58cb 8cbe 6db4 3ac0 e56d 9b3f 5d33 2840
000002f0: a8d5 3d40 b497 a33f fc83 05bf b23e 4c40
00000300: e960 8bbe 9a16 52bf 32b0 a13e a27c 9ebd
00000310: bc24 8ebe 6d97 29bf 4e08 953f 8b90 44bc
00000320: d98f 7b3e 6606 bcbe 8d45 c4bd 450a 133f
00000330: 9db5 4dbe d820 413e 7be2 2b3f aca9 673f
00000340: 0370 1a3f eda4 18bd 46ec 8dbf cbdb 77bf
00000350: 7c8b 033d 6039 e2bf eab0 9ebf 4cbf a83f
00000360: a8a6 ce3f 5c66 55bf 3adb 683f 96cf 89be
00000370: 1186 abbf 080b f93b 6c7c b3bf e082 ef3d
00000380: b9f2 6c40 3a02 cf3d c3dd 18bf 1af4 55bf
00000390: e5ee d53f 2bde 03c0 31df b23f 92db 79be
000003a0: 83a0 86bf 3bf8 a73f 5ae5 36c0 adfc 863e
000003b0: 1ec7 a83f 23bb 1bbf 93f0 3ac0 6f31 ec3f
000003c0: 7925 43bf 344b 9cbf d1cc 1bc0 e52f 95bf
000003d0: b849 fabf 51d8 0240 2ee6 6fbf 029d 4d3f
000003e0: 8a95 bc3f 1c7d 763f 3fb9 103e e8ee 1abf
000003f0: c1cb 833f 1b50 28c0 b3ec c73e 0d22 833e
2.114253 1.5099972 -1.5130867 -0.09396595 -2.1905525 1.1721717 1.5747677 -0.80694425
-1.2598404 -0.83368766 -0.5835275 0.18050703 -0.96271545 0.52966595 0.2823882 -0.48029557
-2.0697303 0.25837085 1.8991377 -1.9631793 1.7292432 0.37637624 1.7637917 -2.3228528
1.4425746 0.59238636 -1.6019392 1.6524138 -0.9652968 2.148139 0.8343404 -0.35159507
-0.28480294 0.28084445 0.056069836 -0.77462953 0.665446 0.49164775 0.327461 0.21306098
-0.25301367 -2.5932987 -0.23098847 0.3736566 0.39439955 -0.11578496 0.26599675 -0.03846043
-0.71701664 -0.4118628 0.52833486 -0.44780353 -0.06217044 0.017460829 -0.9539879 0.20375784
-1.2207826 -0.64892834 0.15058859 -12.032354 -0.10577584 0.1368643 -0.25229356 0.11325222
2.6518261 -0.40535247 1.1079451 2.330256 -1.3987951 -0.14494778 3.1351025 1.0987862
-1.0209106 -0.6894277 -0.5044886 2.7479372 2.5786734 1.9328499 -4.058502 5.187011
6.128143 -2.475995 2.097087 -4.9080863 0.13697365 -2.560328 3.6231506 -7.956369
2.1960788 -1.4978712 -3.4202116 10.897464 1.4696863 -3.8760269 -7.4903755 7.0965695
3.2840266 0.881926 -0.6125996 0.14467658 1.4417381 -1.6888564 0.88462335 -1.3887792
0.68448436 1.368245 -1.3590472 -1.3690132 0.3509648 1.724091 -4.8276052 0.34536752
2.1481588 3.8715703 -1.3640178 -1.2484905 -1.2003049 -0.65192044 0.7668194 2.6782482
-1.0156336 0.497048 -0.19309308 -0.42594728 4.496644 0.53229976 -3.8207161 5.3299403
2.818559 -0.36826575 -0.8651745 -0.1901605 -0.9534406 0.3129864 4.4946113 2.7350023
-0.87330306 -1.8918226 -2.0356252 6.7950153 2.13643 -0.30546507 0.854361 4.9432397
-3.0628605 -0.05788513 1.1723738 0.13615887 -0.40199426 0.15710703 0.2543834 -0.1724977
-0.5074419 0.18684132 -0.3270761 -0.029041832 0.25871626 -0.11542267 -0.106436774 -0.8830422
-0.6664584 -5.001596 2.9246547 2.6980636 0.004289707 -0.6460716 0.5043829 4.2567854
2.0201094 -0.81121576 1.2952491 1.3495317 -7.5476623 1.1790713 -0.014505379 -3.0718505
3.615372 3.1944814 -2.79781 -3.3114762 -0.5869981 -1.277549 1.453028 2.2958803
-0.2749889 -2.9172623 1.2142912 2.628135 2.9661655 1.2780671 -0.5215452 3.1913266
-0.27222374 -0.8206574 0.3157974 -0.077386156 -0.277624 -0.6624668 1.1643159 -0.011997352
0.24566592 -0.36723632 -0.09583578 0.57437545 -0.20088811 0.18860185 0.67142457 0.90493274
0.60327166 -0.03726666 -1.108773 -0.9681975 0.032115445 -1.767376 -1.239774 1.3183379
1.614461 -0.83359313 0.90959513 -0.26916188 -1.3400289 0.007600192 -1.4022346 0.11694884
3.7023146 0.101078466 -0.5971338 -0.83575594 1.671353 -2.060435 1.3974363 -0.24400166
-1.0517734 1.3122629 -2.8577485 0.2636465 1.3185766 -0.6083242 -2.9209335 1.8452586
-0.76229054 -1.221045 -2.434376 -1.1655241 -1.9553747 2.044453 -0.937106 0.803177
1.4733136 0.9628465 0.14133166 -0.6052079 1.0296556 -2.6298892 0.39047775 0.25611916

760 f4 [32]
00000000: 6197 b0be 1454 23bd 0b29 b9be 98b8 8740
00000010: a419 bec0 c025 4bc1 6436 22c0 2d04 a0c0
00000020: 8cdf ebc0 5240 f13f 6e15 1240 758c 9ac0
00000030: 8558 a4bf 2ed2 00bf f2cd 5fc0 9862 e3be
00000040: 60a6 f93f 39dd 0040 e7d3 57bf e561 b7c0
00000050: 58da 37be 8e20 ad3f c12c 1fbe 74e4 0641
00000060: 06e8 2ec0 bd03 a9be 65db 21bf d283 4ec0
00000070: f089 0e3d c4e0 d3bf 9a7c 10c0 d946 c03f
-0.34490493 -0.039875105 -0.36164126 4.2412834 -5.94063 -12.696716 -2.5345697 -5.0005097
-7.3710384 1.8847754 2.282558 -4.8296456 -1.2839514 -0.5032071 -3.496945 -0.4441116
1.9503899 2.0135024 -0.8430771 -5.7307 -0.17954385 1.352556 -0.15544416 8.430775
-2.7329116 -0.33010665 -0.63225394 -3.2267957 0.034799516 -1.6552968 -2.257605 1.5021621

msms.s0_conv1_1.conv.depthwise.weight f4 [32, 1, 3, 3]
00000000: f5aa a53e a917 ac3d 05c2 8dbe 0f22 893e
00000010: bb4a 5c3d d1a3 3abe b772 46bd 3561 513e
00000020: 6ca7 e33d f74b 0abd ecdc fb3d b7a9 fdbc
00000030: 2913 6f3e 9c93 463e b743 803d fe28 e83d
00000040: 0ed8 db3e 27c3 183e aa10 fbbd 7995 c3bd
00000050: b120 b3ba 6455 27bd 488a 46be f18f a4be
00000060: e38c 783e 4850 8b3c 8077 1cbe 6b6d 7ebd
00000070: fc7d 973c 892a 473e f835 82be 30bd 343e
00000080: 0b8d 2e3e 05da c0be c1a3 343e 7094 ec3d
00000090: ba1e 463e de15 cfbe 1a2b d93d f1ba b33d
000000a0: f9ba 29be 52ea e63d cb84 4fbe 614f 2dbe
000000b0: d0f1 403e 67da b7bd 534f 55bd 9091 23be
000000c0: aeaa 96be 39f2 86be 4abc ffbd a199 b33d
000000d0: 9fe6 babd 7c6b ea3a 045d edbd 4566 57be
000000e0: d5ce a6bd 25a3 973d c603 a03e f11b b13e
000000f0: f638 18bd 4622 88be a2e1 30be 3149 063d
00000100: 085c 3d3d 5adf 9c3d e0f0 cdbc 7719 043e
00000110: 19dc 5c3e bcb7 373e c627 a0be 4fd8 9ebe
00000120: 6b30 eabc d702 e2bd 5080 01bd b560 cf3d
00000130: e879 8dbe 657f 803d 0f80 443e 5b5a cebe
00000140: 01ab 4e3e 9e99 c83d cfc4 bebd c65e 7cbd
00000150: ce1e e7bd 619f 05be 2b43 5cbe 7814 77bd
00000160: af85 47be 0e18 a5be 7699 893b 7df4 4e3d
00000170: de15 ab3d f806 8b3d 1de9 d73e 39e4 af3d
00000180: 0173 9a3e ecaf 20bd 9d6a 6bbe 82d3 b2be
00000190: a8c4 95bd badd 38bd dcae 17bc db46 b63c
000001a0: 47c8 a5bd 5789 1a3e 7c14 bc3e 690e 7b3e
000001b0: ce5a 97bd dd0b 973e c58d 86bd 15ed 90bd
000001c0: 1d7f 8e3e b530 4e3e 5a9b 60be 45ba 8abe
000001d0: 9caf 963d ec6a c23e a414 073b 3cdc 0fbe
000001e0: 0da2 213e c0ba a7bd e796 75be 0463 19bd
000001f0: e058 98be a42c 11bc 8070 2e3e 7689 b23d
00000200: 775d c0bd cb4c 16be c5a6 593e a8cf da3d
00000210: 3b88 c8be a441 72be a83c 113e 97f4 d0bd
00000220: 385e a53e bb9d 023d fcca a13e ca2a 3d3d
00000230: 1ded 09be 8d24 7dbe 98af 3bbe a568 42bd
00000240: d497 223e 5ceb 8d3d da97 2ebe 3f51 6b3e
00000250: 200e 19be 6a0b 26be 32b0 163e b1af acbe
00000260: 9adc 37bd f67d 84bd 7b39 48be 0261 d5bd
00000270: 6357 5abe c02b 11be a6ff 16be e0f7 b5be
00000280: e28b 35bd d6c4 8abd 331d 2fbe e76d e93d
00000290: 34f8 4e3e 7dac 8bbe 747a 383c 8a66 6d3e
000002a0: 9694 1cbe a9fd 1dbd 71c9 3a3e 5ab2 1dbe
000002b0: 5fae b1be 4801 193e e53f 28be c32a 3ebe
000002c0: 7cda 323e ccc2 b83d feb6 873e 6c82 453e
000002d0: 1511 903e 9261 ad3e cc05 ffbd 0499 053e
000002e0: fbb1 193e d064 85bd 87f8 dabd 44d1 ccbd
000002f0: aafe 23be e922 24bd 27fc b03e 734d e73d
00000300: 507a cbbd 5e85 263e a98a 4c3e 371b 0d3e
00000310: 2605 81be bbb5 bb3d 95f3 1c3e be73 6b3e
00000320: 3ffa 2a3e 5de8 0b3e 92fa 2f3e 2714 1f3e
00000330: 29e8 aa3d b573 323e 811d a63d c24b b93c
00000340: 3f0f 2c3e 3d2f 2e3d f260 debb dee8 b03d
00000350: af57 c83e 8bfa e2bd 6516 3c3e 8bed 063e
00000360: 1ae6 a8be 7584 1dbe c0a5 e4bd 6515 62be
00000370: 4e58 ddbe bcfe ac3d 4e2d 16be 805e 53be
00000380: 12cd f6bd 9293 bfbd f947 473c 01a7 06bd
00000390: 375f f63c b81c 393e dcfc 5bbe 86ac 523e
000003a0: 979d c5be afea 4c3e d82c 97be 3a5a 833e
000003b0: dd35 3f3d 076e a03d 7117 97be 7e6b 513e
000003c0: 2ef8 ee3d ae61 6cbe 86db 283d 7312 013e
000003d0: ae57 403e e9e5 f03c e78b a3bc ec64 a1be
000003e0: 60da 143d 21b4 55be 8f25 a9be 1ec4 d03d
000003f0: 0d85 91bd aae4 cdbd e4d1 e93d a007 d8bd
0.32356992 0.0840295 -0.27687088 0.26783797 0.053782206 -0.18226553 -0.048449244 0.20447238
0.111159176 -0.033763852 0.12297997 -0.030964715 0.23347153 0.19392246 0.062629156 0.11335944
0.42938274 0.14918195 -0.12259038 -0.09549994 -0.0013666359 -0.04085292 -0.19388688 -0.3214107
0.24272494 0.017006055 -0.1527996 -0.062116068 0.018492691 0.1944982 -0.254318 0.17650294
0.17045991 -0.37666336 0.17640592 0.1155175 0.19347659 -0.4044637 0.10603924 0.087758906
-0.1657523 0.11275162 -0.202655 -0.16924812 0.18842244 -0.08977204 -0.052077603 -0.15973496
-0.29427093 -0.26356676 -0.12487085 0.08769537 -0.09126019 0.0017884816 -0.11590007 -0.21035106
-0.08144919 0.07404164 0.3125288 0.3459163 -0.037163697 -0.2658865 -0.17273572 0.032784645
0.046230346 0.076597884 -0.025139272 0.12900339 0.21568336 0.17941183 -0.31280345 -0.31024405
-0.02858754 -0.11035698 -0.03161651 0.10125867 -0.2763207 0.062742986 0.19189475 -0.4030331
0.2018242 0.09794925 -0.09314882 -0.06161382 -0.112851724 -0.1304908 -0.21509998 -0.060322255
-0.1948459 -0.32244915 0.004199202 0.05052613 0.0835378 0.067884386 0.4217004 0.08588452
0.30165866 -0.039230272 -0.22989888 -0.34926993 -0.073129 -0.04513333 -0.009257998 0.022250583
-0.080948405 0.15091453 0.36734378 0.24517216 -0.073903665 0.29501238 -0.06570009 -0.0707647
0.27831355 0.20135768 -0.21934262 -0.27095237 0.073577136 0.379722 0.0020611668 -0.14048856
0.15784474 -0.081899166 -0.23983346 -0.037447944 -0.29755306 -0.008860741 0.17035103 0.08717625
-0.09392827 -0.14677732 0.21255024 0.106841385 -0.39166436 -0.23657852 0.14183295 -0.10202902
0.32298446 0.031888705 0.31600177 0.046183385 -0.13469358 -0.24720974 -0.18328702 -0.047463078
0.1587823 0.06929657 -0.17050114 0.22980212 -0.14946795 -0.16215292 0.1471565 -0.33727792
-0.044888116 -0.06469338 -0.19553177 -0.104188934 -0.21322398 -0.14176846 -0.1474596 -0.35540676
-0.044322856 -0.06775825 -0.17100982 0.11397915 0.2021187 -0.27280036 0.011259664 0.23183647
-0.15291056 -0.038571987 0.18240906 -0.15400067 -0.34703347 0.14941895 -0.16430624 -0.18571
0.17466158 0.090215296 0.265068 0.19288033 0.28138033 0.33863503 -0.124522775 0.13046652
0.150093 -0.06513369 -0.10691934 -0.10000852 -0.16015115 -0.040072355 0.34567377 0.11294069
-0.09935439 0.16261813 0.1997477 0.13779913 -0.2519924 0.09165522 0.15327294 0.22993371
0.16697024 0.13662858 0.17185429 0.15535031 0.08345062 0.17426951 0.08111096 0.022619132
0.16802691 0.04252552 -0.006786459 0.08638166 0.39129397 -0.110829435 0.18367918 0.13176553
-0.32988054 -0.1538256 -0.11164427 -0.22078474 -0.43231434 0.08447024 -0.1466572 -0.20641518
-0.12050833 -0.09354319 0.012163156 -0.03287411 0.030074699 0.18077362 -0.21483177 0.20573625
-0.38596794 0.200114 -0.295264 0.25654775 0.046682227 0.07833486 -0.29510072 0.20451161
0.1166843 -0.23084137 0.04122498 0.12604694 0.18783447 0.029406505 -0.019964172 -0.3152231
0.03634107 -0.20869495 -0.33036467 0.101936564 -0.071054555 -0.1005338 0.114169866 -0.10548329

msms.s0_conv1_1.conv.depthwise.bias f4 [32]
00000000: f4ff 1c3d 0789 f63b 8a71 a5bd 81f4 833d
00000010: 31b2 353d a897 32be 0740 333c fa33 64bd
00000020: 4ccb e23d f153 9e3d 455e 493e e40f 153e
00000030: ae8e 0f3e 0769 e6bd d01f 6f3e 42af 40be
00000040: 7d50 223e 4169 59bd da87 2abe c7a9 9dbd
00000050: 1f5f 8bbe b083 6f3d 549f ed3c 726d 95bd
00000060: c975 40be 5894 ad3a 28f7 ce3d a811 2ebd
00000070: 51e4 89bd 5bf1 8b3d 909f 28be 8210 29bd
0.038330033 0.007523659 -0.080782965 0.0644312 0.04435939 -0.17440665 0.010940558 -0.05571363
0.11073932 0.07730854 0.19664867 0.14556843 0.14019272 -0.11250501 0.2335198 -0.18816856
0.15851016 -0.053078894 -0.16653386 -0.07698398 -0.2722101 0.058475196 0.029006638 -0.07296266
-0.18794931 0.0013243062 0.10105735 -0.042497307 -0.06733001 0.06833144 -0.16467118 -0.04127551

msms.s1_conv1_1.conv.depthwise.weight f4 [32, 1, 3, 3]
00000000: 07b4 133e 7c96 6c3e 8e21 8d3d 3702 273e
00000010: ebed 433e 6b4a a0bc 9f49 b03d 028e 483e
00000020: 801f 01bd 81ad c4be bfcc 933e 036e 973d
00000030: 1e0a 053d 66df 3dbe 0304 6e3e 896d 813e
00000040: 1f3d dc3c 069d 07be eed5 47be ab5b 88be
00000050: 31bc 11be 2f03 7fbe ef47 9cbe 2730 3cbd
00000060: 22ad 53be 7738 3abe 70e2 04bd 4d98 c7bd
00000070: 9d29 1ebe 781d 64be c0da 1abe 9969 9bbe
00000080: df5f 9bbe 9a40 61be e757 8abe 0ccc 18be
00000090: e81e ffbd 3adb 023e 351d d1bd e963 07be
000000a0: 1b39 993e ae5e 11be 17ae 663e 469c 6cbe
000000b0: 30dd 913d 0904 5abe db3f 873e bc63 debd
000000c0: ed2b 2d3e e471 59bd 918c ffbd b42b e23d
000000d0: 6fb5 b4be 4a99 663e f87e c8bd afc0 593e
000000e0: dfea eabd e385 fb3e e45f 9abe b257 d0bd
000000f0: ab40 833d 1f11 eabd e452 58bd a1bc 803e
00000100: f676 f13d 1798 233d f30c c53c 8810 3c3e
00000110: 074c 053d 8f93 a73d 78fb a13e fe3d d4bd
00000120: 95db b73c 64bb 29be 5771 2b3d ca0e cbbd
00000130: a568 91bd 5198 a43d 268a 7abe 84bd 9c3e
00000140: 1f67 4cbe 355f 72be ad4f 88be 96aa ddbd
00000150: a444 a4be ebcd 5fbe 6b27 d1bd 84e1 5dbe
00000160: 0fcc 68bc 93d9 ac3d 92a9 783e f0b1 283e
00000170: 0a9f 68be b72f a43e 5d3c 78bd 506d 24be
00000180: e200 7f3e 105b b2bd d3ad 5e3c 2f27 8a3e
00000190: bf7f 8fbe febb 293d fe30 873e d10e 5bbe
000001a0: 884e 123c bca5 9f3d ba8b 2ebe 886c 6fbc
000001b0: 5997 9ebd 3b99 91bd ea31 7f3e 2437 d6bc
000001c0: 9e73 9e3c cbc9 523e c1f9 ecbb b7b2 3ebe
000001d0: 78aa 363e fe3b 1c3e 6640 0c3e 159b 033c
000001e0: 9f63 ad3e 156e 193e 5311 3cbd 8bab 453e
000001f0: 696e d23d 4e2b db3d 3098 fe3d 5fd5 98be
00000200: d616 743b b233 03be 7648 39bd 1cc0 a53e
00000210: 3ac5 be3e 5d34 85be de35 a93d d352 003f
00000220: bff8 ffbc 329d 71bd e11e 8fbd 728c a2bd
00000230: 6cc8 72be b861 20be bcce 6d3e f4ac 88bd
00000240: 7d6a 163e aa5b e4bd b84f 8b3e 4b96 31be
00000250: 0435 edbd f6cf c03d bc92 ccbe 7025 ed3d
00000260: 042d 833d e713 9dbe d09c e03e 249d 38bd
00000270: 9c52 7d3e 3390 c4bd 9644 f9bd 2dbb 113e
00000280: f5f7 9bbe 1304 eb3d 1d6c 4f3e a333 85bd
00000290: a347 dbbe 97ce 4dbe 474c a6bd 3b38 ef3d
000002a0: b5f9 3bbd a2f7 c83e 5674 093e 1993 27be
000002b0: be7e 973e e2d4 97bd d3da 2d3e 8042 263e
000002c0: a5fe 73bd 253c 1cbe 9fc2 2abe 281b 753e
000002d0: 174c 123e 1a68 bb3d 3b66 b23d 2f0e a53e
000002e0: 312e 31be ca06 55be 6f48 acbd c39d 25be
000002f0: e375 b3bd 70fd 8bbd b381 45be 00c7 e1bd
00000300: 655a 4ebe 4c2a 7ebe 7c13 3ebd 829e 49be
00000310: 0f57 3fbe 0cbe 42bd 3529 3abe 2131 82be
00000320: eb11 5c3e d10b c8bd 4076 18be 4180 513e
00000330: 2025 413e aa1c 25bc f4fe eb3c 78a6 ad3e
00000340: 6e2f d1bd 3c87 03ba ba9c cd3a 723e 97bd
00000350: b3d6 01be ba81 97be 1dc5 6cbd a8b9 8cbc
00000360: 3ddb c53d 04e7 9bbe 9c84 073e c368 cebd
00000370: 6a63 5ebe 7528 c43e 69f9 d1bd 6bd2 fe3d
00000380: 010c 2f3e 75e1 b63e a7ce 65be 8ef7 d73d
00000390: 7789 d43d 3574 53be 4cc8 113e ad43 6dbe
000003a0: ac8a 1fbe 6c6d 04be bf22 3fbd 4597 84be
000003b0: c5e6 933d 2d7a 10be a2b8 a4be 78cb 453d
000003c0: 8082 efbd 2947 edbd 45c2 06bd 80cd b8bd
000003d0: 1670 ec3d 5d7c 493e 45dc 2bbe 9233 bcbe
000003e0: 1c25 05bb 5836 653e 4446 e4ba c299 05be
000003f0: f344 1c3d 17e4 e03e 7e79 2f3d 0727 d1bd
0.14424144 0.2310428 0.06891166 0.16309439 0.19133727 -0.019566735 0.08607792 0.19585422
-0.03152418 -0.38413623 0.28867146 0.0739403 0.03248035 -0.18542251 0.23243718 0.2527888
0.026884614 -0.13243493 -0.19515201 -0.26632437 -0.14231946 -0.24903558 -0.3052363 -0.04594436
-0.20671514 -0.18185602 -0.03244251 -0.09745846 -0.15445562 -0.22276866 -0.15122509 -0.30354002
-0.3034658 -0.219973 -0.2702019 -0.14921588 -0.12457067 0.12778941 -0.10210649 -0.13221706
0.2992638 -0.14196274 0.22527348 -0.23106489 0.07122266 -0.21290602 0.26415905 -0.108588666
0.16911288 -0.05308713 -0.12477983 0.11043492 -0.35294673 0.22519413 -0.09789842 0.21264909
-0.11470579 0.49125585 -0.30151284 -0.101729766 0.06408819 -0.11429047 -0.052813426 0.25143912
0.11790268 0.039939966 0.024054026 0.18365681 0.03254321 0.081824414 0.31637168 -0.103633866
0.022443572 -0.1657539 0.041856136 -0.0991493 -0.071000375 0.080368645 -0.24466762 0.3061334
-0.19961213 -0.23669131 -0.26623288 -0.10823552 -0.3208362 -0.21855895 -0.102125965 -0.21668059
-0.014208808 0.084399365 0.24283436 0.16474128 -0.22716919 0.32067654 -0.060604442 -0.16057324
0.2490268 -0.08708775 0.013591248 0.2698302 -0.2802715 0.04143905 0.26404566 -0.21392371
0.008929856 0.07795283 -0.17045489 -0.014613278 -0.07743711 -0.071093045 0.24921384 -0.02614934
0.01934224 0.2058479 -0.0072319214 -0.18622862 0.17838466 0.1525726 0.13696441 0.00803258
0.33865067 0.14983399 -0.04591496 0.1930372 0.10274965 0.10701619 0.12431371 -0.2985029
0.0037245057 -0.12812689 -0.04523512 0.3237313 0.37259847 -0.26016513 0.082622275 0.5012638
-0.031246541 -0.058987804 -0.069883116 -0.07936944 -0.23709267 -0.15662277 0.23223394 -0.06673613
0.1468906 -0.11150296 0.27209258 -0.17342488 -0.115823776 0.094146654 -0.399557 0.11579406
0.064050704 -0.30679247 0.43869638 -0.045071736 0.24738544 -0.09597816 -0.12171285 0.14231558
-0.30462614 0.114753865 0.20256086 -0.065039895 -0.42828092 -0.20098339 -0.081200175 0.11680647
-0.045892436 0.3925143 0.13423285 -0.16364707 0.29588884 -0.07413651 0.16978006 0.16236305
-0.05956902 -0.15257318 -0.16675805 0.2393614 0.14286838 0.09150715 0.08710905 0.32237384
-0.17302777 -0.20803371 -0.08412253 -0.16173463 -0.087627195 -0.06835449 -0.19287758 -0.11024284
-0.2015167 -0.24820822 -0.0464053 -0.19689372 -0.18685554 -0.047544524 -0.18179782 -0.25428107
0.2149121 -0.09767879 -0.14888859 0.20459081 0.18861818 -0.010077635 0.028808095 0.33916068
-0.102141246 -0.0005017405 0.0015686967 -0.073849574 -0.12679558 -0.2959116 -0.05780517 -0.017178372
0.09660957 -0.30449688 0.1323418 -0.100785755 -0.21717611 0.38312116 -0.10252649 0.12442478
0.17094423 0.35718885 -0.22442113 0.10545264 0.10377782 -0.20649798 0.14236563 -0.23170348
-0.15580243 -0.12932366 -0.046663996 -0.2589666 0.0722175 -0.14109106 -0.32172114 0.048289746
-0.11694813 -0.11585838 -0.032900114 -0.09023571 0.11544816 0.19676347 -0.16783245 -0.36758095
-0.0020316308 0.22384012 -0.001741596 -0.13046935 0.038151693 0.4392402 0.042840473 -0.10212522

msms.s1_conv1_1.conv.depthwise.bias f4 [32]
00000000: 6231 73be 22f5 20bd 8fc8 213e dbfd 5fbe
00000010: d357 723c 2bfb b23d fdda 1f3e 9fb7 62bd
00000020: c2c5 b63d 1274 49bd 717b 5ebe 36c3 8b3e
00000030: f35e ee3d dafa f5bc 78bc 9cbc 7374 063e
00000040: 69e1 af3d 6e39 d7bc 9872 e73c ca50 5cbe
00000050: 9219 573e 1b49 133e e286 c73d d97a b83d
00000060: 63ad 54be ee89 fc3d cb4b fabd 864c b83d
00000070: e8d6 39be 9387 ae3e c1f7 83be f2ca 873e
-0.23749307 -0.039296277 0.15799163 -0.21874182 0.014791447 0.08739313 0.15610881 -0.055350896
0.08924438 -0.04918296 -0.21726777 0.27297372 0.11639204 -0.030026842 -0.019132838 0.1313036
0.085879155 -0.026272502 0.028252885 -0.21515194 0.21005848 0.14383356 0.09742524 0.09007806
-0.20769267 0.123309955 -0.122214876 0.08998971 -0.18148386 0.3408781 -0.2577496 0.26522022

730 f4 [32, 32, 1, 1]
00000000: d554 75be b79a e1be a8c1 c33e 8c13 70be
00000010: a981 9b3e d26d 783e bba7 79be 691f 42be
00000020: f542 a8bd 35fd 533f 42ac 47bf bd2d 2b3f
00000030: e77e 06bf 992b de3e 3c14 78be bad8 f6be
00000040: 5ff0 f03d 4dfe 823c 12cc 54be 02eb aabb
00000050: ed30 d23d e07c 70bf 29ea 34be f91d e2be
00000060: 8797 733e ad37 42be f757 e5bc 3fb9 823f
00000070: 0dad 8a3f 5ac6 fdbe e037 44be 3d3c 08bf
00000080: 7cca 10bf 7924 87bf bfd0 273f 1d1f 9bbe
00000090: d724 70be 5924 013e 0273 e0bf d6bd 54be
000000a0: 8e23 a13d 4167 2d3f b923 75bf 8287 10bf
000000b0: fa26 1cbf abf7 d33c c045 f1be 4bbc b93d
000000c0: 6e6d 02be 1811 b93b f864 cfbe 9477 b03d
000000d0: ffab 03bf 1a14 df3e 666b 3b3f 9a73 db3e
000000e0: 6700 5f3f 7dc7 82be 38e1 f03e 732f 983f
000000f0: c3e4 963e a823 0dbf 736f ab3e 004d c9bc
00000100: 2630 993f 1e92 bd3e 19e3 f23e 0f6a adbf
00000110: b791 bfbe 6ec5 833c 46e6 b1be 54ce b53d
00000120: 658c 3a3e 68fa 573f 4be7 8d3d 0403 9039
00000130: aa62 6d3f 858b 973e 8298 a23e 94ec 22bf
00000140: 098b 80be bb36 ecbd c0e9 c5bd 8948 133f
00000150: 5ec0 95be 6bcc c2bf 3cf4 02bc 9a41 f4be
00000160: 38b1 203f d18c e73d 3bde 0bbe 76c1 fbbe
00000170: 2f4d 183f b2b5 503d 3f6b 163d e203 413e
00000180: 80a8 d73c 95ca 12be f14d c13c 8bb9 b0be
00000190: 1bed c83f b34f b73e 49a7 afbd 1d51 b4be
000001a0: 4f8a 7abe 4eaf 703d 1134 d8bd 7b57 593e
000001b0: 54d3 ac3e c258 b7bc 690b 173e 23f3 d23d
000001c0: 0321 c13e 840e 9d3d f9e2 883e 6396 c5bd
000001d0: 9f8c cd3e 8e2a 34bd d4a9 21bf 6183 183e
000001e0: 4867 353e 9f6d 39bc cef1 3f3d 55ac 93bd
000001f0: 0fa8 39be 0118 fe3c bcce 2a3e 9215 c2be
00000200: 4855 813e 5865 59bf d199 373f 25e9 453f
00000210: c93e 8ebe 1108 9fbe 9b10 8e3e def6 18be
00000220: 575d 0fbf b35c 2fbf 0012 bb3e 0f7d 803d
00000230: f97d 36bf 3dd7 15bf 6390 27bf 963e e93d
00000240: 8a7b 0b3f d1b1 6d3e e6f9 85be 2a00 d53d
00000250: 8e13 82be 0d41 863e 7432 8a3e f014 0b3d
00000260: 65c1 b3bd 6921 1dbf 767e 21bf 1a17 893e
00000270: 70c1 32be 8052 e73e 2874 273c c5e0 49bf
00000280: c130 083f 1bef 57bd 2a85 3a3e 4d4e 33be
00000290: 83a0 403e ae8f 883e 4523 5dbf e5ce 3c3f
000002a0: 0c96 013f 7740 51be ec89 aabf 64d6 29be
000002b0: 49dd c5be c897 3c3f f7f3 7fbe 9c25 da3f
000002c0: 71e5 a4bf e8c8 8f3f 09f5 95be 6533 0a3e
000002d0: a4cc 893d 9540 1abe 459b 823e 0074 1e3f
000002e0: 7cbe 0ebe c0d0 363f 503a 6e3e 6fde 453f
000002f0: ca57 d83e fedb 063f bda9 723e dd95 13bf
00000300: 8ccb 66bd df0b 26bf c313 06be d303 b9be
00000310: 3e19 9e3d c545 233f 8341 09bd 5b69 29bf
00000320: 926a 653f 10c0 2dbe 0e6a 183f 1048 a53f
00000330: 1adb 9c3e cdf6 84bf 2c06 cfbe 070d be3c
00000340: 0220 e63e 633f e33e d8eb 0dbf ccc0 60be
00000350: 3c41 40bf 3d48 5fbf b0ad fbbe 2b3d f4be
00000360: cf12 623f 754b 7d3e 8f5e 5b3d 961b 55bc
00000370: 4476 d9be cca9 82bf 584b a03d e11c 1bbd
00000380: 0fbb 193f 843b 4abf 8db1 2a3e 8767 bb3e
00000390: 3d39 83be 127e 88be f995 33be ecf8 8fbe
000003a0: 07cc 48bd 5eaf 5dbf 3e00 61bf 7ecd c83e
000003b0: 16ae 873d 231b 7c3e 3541 b43f 995a 83be
000003c0: 872f 873d 897e 19bc 1cc8 e6bf 9ff3 8ebe
000003d0: 6532 aa3f b559 5cbe 026a 89bf d1bb 45bf
000003e0: 66b0 203e eac1 9abd 916d dd3e bdb4 0abe
000003f0: 0067 82be b90b cb3e 638b a13e e702 ef3d
-0.23958142 -0.4406335 0.38233685 -0.23444957 0.3037236 0.24260643 -0.2438039 -0.18957295
-0.08215896 0.8280824 -0.7799722 0.66866666 -0.5253739 0.43392637 -0.24226469 -0.48212224
0.11764597 0.0159904 -0.20780972 -0.0052160034 0.10263238 -0.93940544 -0.1766745 -0.44163492
0.23788272 -0.18966551 -0.027996046 1.0212783 1.0834061 -0.49565393 -0.1916194 -0.53216916
-0.56558967 -1.0558006 0.65552896 -0.30297175 -0.23451553 0.12611522 -1.7535098 -0.20775542
0.0786811 0.6773568 -0.95757633 -0.5645677 -0.60996974 0.025874933 -0.47123528 0.09069117
-0.12737057 0.0056477897 -0.4050672 0.08616558 -0.5143432 0.43570024 0.7321075 0.42861634
0.8710999 -0.25542822 0.47046828 1.188948 0.29471406 -0.5513253 0.33483467 -0.02457285
1.1967819 0.3702554 0.47438887 -1.3547992 -0.3741586 0.016085353 -0.34745997 0.088772446
0.18217619 0.84366465 0.06928881 0.00027468067 0.92728674 0.29598632 0.3175698 -0.6364224
-0.25106075 -0.115338765 -0.09663725 0.57532555 -0.29248327 -1.5218633 -0.0079928 -0.477063
0.62770414 0.113061555 -0.13658993 -0.49171036 0.5949277 0.05095453 0.03672337 0.18849137
0.026325464 -0.14335091 0.023596736 -0.34516558 1.5697359 0.35802993 -0.08576829 -0.35218135
-0.24466823 0.058760934 -0.10556806 0.21224777 0.3375498 -0.02238119 0.14750446 0.10300281
0.37720498 0.07668784 0.26735666 -0.096478246 0.40146348 -0.043985896 -0.6314976 0.14893867
0.1771518 -0.01131764 0.046861462 -0.07210604 -0.18130516 0.031017305 0.16680425 -0.37907082
0.25260377 -0.84920263 0.7171908 0.77308875 -0.27782276 -0.31060842 0.27747044 -0.14937922
-0.560018 -0.6850082 0.3653717 0.06273853 -0.7128597 -0.5853155 -0.6545469 0.113888904
0.5448538 0.23212363 -0.2616722 0.10400422 -0.25405544 0.26221505 0.26991618 0.033955514
-0.087771215 -0.61379105 -0.6308359 0.26775438 -0.17456603 0.4518013 0.010220565 -0.78858596
0.5319939 -0.052718263 0.1821486 -0.17510338 0.1881123 0.2667212 -0.8638194 0.73753196
0.5061958 -0.20434748 -1.332334 -0.1658569 -0.3864539 0.736691 -0.24995409 1.7042727
-1.288252 1.1233187 -0.2928851 0.13496168 0.06728485 -0.15063699 0.25509086 0.6189575
-0.13939852 0.7141228 0.23264432 0.7729253 0.42254478 0.5267943 0.23697563 -0.5765055
-0.05634646 -0.64861864 -0.13093476 -0.3613573 0.07719658 0.63778335 -0.033509742 -0.66176385
0.8961574 -0.16967797 0.59536827 1.2912617 0.3063591 -1.0387818 -0.40434396 0.023199571
0.44946295 0.44384298 -0.55437994 -0.21948546 -0.7509954 -0.872196 -0.4915595 -0.47702917
0.8830995 0.24735816 0.053556975 -0.013007065 -0.42473042 -1.0208068 0.07826871 -0.037869338
0.60051054 -0.78997064 0.16669293 0.36602423 -0.25629607 -0.26658684 -0.17537679 -0.281196
-0.0490227 -0.86595714 -0.87890995 0.39219278 0.06625001 0.24619727 1.40824 -0.25655058
0.06600862 -0.009368547 -1.8029819 -0.27920243 1.3296629 -0.21518596 -1.0735476 -0.7723971
0.1569229 -0.075565174 0.43247655 -0.13545509 -0.25469208 0.3965738 0.31551656 0.116704755

736 f4 [32]
00000000: 8389 6a3f 1719 7f3f c0bd 46bb 1285 873e
00000010: e401 0abd fb0b bf3f 3162 b4be 2a3e ff3d
00000020: 1616 973f cc88 c7bd 52bd 643f 29c9 03bf
00000030: 66b4 853d 2a60 2f3e cd4b b23e 0fb6 2e3f
00000040: ee45 eabd 31d1 473f d51a 563f 7f0c 3e3f
00000050: 07ae 523f 9b99 6c3e 6b7a 08be 55f1 ab3e
00000060: 242a 153f 54d6 533f 2e20 bd3e d157 bc3f
00000070: 69bd 083f 8b06 a53e 07a2 d63e 059c e63e
0.91616076 0.9964766 -0.0030325502 0.26468712 -0.03369321 1.4925531 -0.35231164 0.12463029
1.1803615 -0.09742889 0.8935138 -0.5147882 0.06528549 0.17126527 0.34823456 0.6824655
-0.11439119 0.78053576 0.8363469 0.7423782 0.82296795 0.23105471 -0.13327949 0.3358256
0.58267426 0.82748914 0.36938614 1.47143 0.53414017 0.32231554 0.41920492 0.45040908
