assets/fsanet-var_float16.tflite (tflite, 527676 bytes, 84 tensors)

arith.constant1 f2 [1, 3, 3, 3]
00000000: 2b2d c3b0 22a6 f235 fead 8db3 6c2c 8129
00000010: bda8 b6b0 c636 af9d 94ad 3232 0cb1 03a5
00000020: 0caf 3bb0 6424 06b1 612c b7b1 e2af 9236
00000030: 08af e6a7 ff2e
0.08075 -0.1488 -0.02396 0.3716 -0.0936 -0.236 0.0691 0.043
-0.03702 -0.1472 0.4233 -0.00555 -0.08716 0.1936 -0.1577 -0.01958
-0.1101 -0.1322 0.01715 -0.157 0.0684 -0.1786 -0.12317 0.4106
-0.10986 -0.03085 0.1093

arith.constant5 f2 [9]
00000000: 9734 5537 7334 4c34 d930 c2a4 05aa c233
00000010: 9b2d
0.2869 0.4583 0.278 0.2686 0.1515 -0.01859 -0.04703 0.2424
0.0876

arith.constant8 f2 [9]
00000000: 55ab f710 cf31 4faa e1a9 1a24 03a9 9834
00000010: d02a
-0.05728 0.000606 0.1815 -0.0493 -0.04593 0.01602 -0.03915 0.287
0.05322

arith.constant11 f2 [35]
00000000: dbae 01b2 62af 47b5 d71b 4731 aba8 8ab2
00000010: 34b1 08aa 112f 6cb3 63b0 d7af 20a9 ff28
00000020: c0b5 7db0 70ae e0ad 0e35 26b0 bdb2 48ac
00000030: e8b3 7128 0cb3 ccb5 ceac a3ad 8d28 10b1
00000040: 16b6 8ab0 6bad
-0.1071 -0.1876 -0.11536 -0.3298 0.003828 0.1649 -0.03647 -0.2043
-0.1626 -0.04712 0.1104 -0.2319 -0.1371 -0.1225 -0.04004 0.03903
-0.3594 -0.1403 -0.1006 -0.0918 0.316 -0.1296 -0.2106 -0.0669
-0.2471 0.0347 -0.2202 -0.3623 -0.0751 -0.0881 0.03555 -0.1582
-0.3804 -0.1418 -0.08466

arith.constant12 f2 [9]
00000000: fe32 0a36 5c35 3234 00a8 6c30 2d34 982d
00000010: 442e
0.2185 0.3774 0.335 0.2622 -0.03125 0.1382 0.261 0.0874
0.0979

arith.constant15 f2 [960]
00000000: ceb7 1635 d4b6 7739 a838 e9b5 08b7 09bc
00000010: deb8 11b0 a3b7 74af 1baf c7bd adbc c732
00000020: 81aa 39b8 3db8 94b8 5b38 9f32 093c 05b8
00000030: 9336 7eb4 a537 9836 edba 4dbd 0c32 7eb7
00000040: 9cb7 e139 9fb9 ddb6 fa35 edbb b6ac 7633
00000050: a4bb b430 a8b2 e6b4 8b35 4938 a539 fc31
00000060: b7b6 6131 2339 c2bb a23c e938 ecbc bcb9
00000070: 1f2c 8dbc 6e37 2038 c22d dab0 133c 0eb4
00000080: e7bb 2cb5 12af 82bb 0db7 312b 0cb1 20b7
00000090: 1eba 1bb5 fb2d 4929 41bc d032 b034 c9b5
000000a0: f0b9 01b6 e4ba 54bd 73bd 58ba 32bd c532
000000b0: 7db0 06bd 98bb 67b7 1231 08bc 99bd 94b8
000000c0: b7b7 1db8 d1b8 a1aa 27b5 b52f 57b9 dd32
000000d0: 85bc e42d 11bc 0fbc 14b6 49b3 e9a9 94ba
000000e0: e1b1 07bc fabb c1bd 0dbc 79bb 01b8 a4bb
000000f0: 0538 b0b0 98b7 1db5 ffbb b8bc 51b4 6d35
00000100: 33bd 81bb 16b8 3dbb b9b3 bdb9 11b6 eab9
00000110: 6abd 4cb9 8bbd 7fba 77b4 36b8 37b1 94b8
00000120: 32bd e2b4 ffb9 24ba dbb9 14b8 a9bb 8eb8
00000130: f8bc 3dbc 52b8 f5b5 f0b7 72b9 06bc 64bb
00000140: 28b5 0bb4 a6b7 f3bb c7b9 debd 25b9 78bb
00000150: 35b9 eebb 08bd a7bc b4bc 0fb8 64bd 4bbb
00000160: 6ab9 efbc 6cb9 adbc 80bd 08bd 95ba c4bc
00000170: 54b7 40b2 86ae c7bb 1cbd 5fba 56b3 e9b8
00000180: 9bb7 9c38 e4b2 7636 0039 22ae 27b6 03bd
00000190: efb7 e4b3 272d 35b4 7130 00be 76bb 752f
000001a0: e731 e1b1 f0b8 2bba a13a 4625 fb39 8bb8
000001b0: 3834 4eb3 0534 aa39 bfba e1ba 922f 2eb8
000001c0: 31bb 1439 48bc 33b8 4a2c 88bc fcb0 3a2e
000001d0: a4b4 d330 46b1 abb9 3535 4d2f 4634 0236
000001e0: 9fb3 6735 fc39 1fbd 303c 9f38 03b9 92af
000001f0: 37b8 05bd 1036 ef38 7433 79b3 9b3a 011d
-0.4878 0.3179 -0.4268 0.683 0.582 -0.3694 -0.4395 -1.009
-0.6084 -0.1271 -0.4773 -0.11646 -0.111 -1.444 -1.169 0.2118
-0.0508 -0.528 -0.53 -0.5723 0.5444 0.2069 1.009 -0.5024
0.411 -0.2808 0.4778 0.412 -0.8657 -1.325 0.189 -0.4683
-0.4756 0.735 -0.7026 -0.429 0.3735 -0.9907 -0.0736 0.2332
-0.955 0.147 -0.208 -0.3062 0.3464 0.5356 0.7056 0.187
-0.4197 0.1681 0.642 -0.9697 1.158 0.614 -1.23 -0.717
0.0644 -1.138 0.4644 0.5156 0.08997 -0.1516 1.019 -0.2534
-0.988 -0.3232 -0.1105 -0.9385 -0.4407 0.05618 -0.1577 -0.4453
-0.7646 -0.319 0.09344 0.0413 -1.063 0.2129 0.293 -0.3616
-0.742 -0.3752 -0.8613 -1.332 -1.362 -0.793 -1.299 0.2115
-0.1403 -1.256 -0.949 -0.4626 0.1584 -1.008 -1.399 -0.5723
-0.4822 -0.514 -0.602 -0.0518 -0.322 0.1204 -0.6675 0.2145
-1.13 0.09204 -1.017 -1.015 -0.38 -0.2277 -0.04617 -0.8223
-0.1837 -1.007 -0.997 -1.438 -1.013 -0.934 -0.5005 -0.955
0.5024 -0.1465 -0.4746 -0.3196 -0.9995 -1.18 -0.2698 0.339
-1.3 -0.938 -0.5107 -0.905 -0.2413 -0.7173 -0.3792 -0.7393
-1.354 -0.662 -1.386 -0.812 -0.279 -0.5264 -0.163 -0.5723
-1.299 -0.3052 -0.7495 -0.7676 -0.732 -0.51 -0.9575 -0.5693
-1.242 -1.06 -0.54 -0.3723 -0.496 -0.6807 -1.006 -0.924
-0.3223 -0.2527 -0.478 -0.9937 -0.722 -1.467 -0.643 -0.9336
-0.651 -0.991 -1.258 -1.163 -1.176 -0.5073 -1.348 -0.9116
-0.677 -1.233 -0.6777 -1.169 -1.375 -1.258 -0.8228 -1.191
-0.458 -0.1953 -0.1019 -0.972 -1.277 -0.7964 -0.2292 -0.614
-0.4753 0.576 -0.2153 0.4038 0.625 -0.0958 -0.3845 -1.253
-0.4958 -0.2466 0.0805 -0.263 0.1388 -1.5 -0.9326 0.1165
0.1844 -0.1837 -0.617 -0.771 0.8286 0.0206 0.7476 -0.568
0.2637 -0.2283 0.2512 0.708 -0.8433 -0.86 0.1183 -0.5225
-0.899 0.635 -1.07 -0.525 0.067 -1.133 -0.1558 0.0973
-0.29 0.1508 -0.1648 -0.7085 0.3254 0.1141 0.267 0.3755
-0.2382 0.3376 0.748 -1.28 1.047 0.5776 -0.6265 -0.1183
-0.527 -1.255 0.379 0.6167 0.2329 -0.2335 0.8257 0.004887

arith.constant17 f2 [1, 3, 1, 21]
00000000: 5535 5535 5535 5535 5535 5535 5535 5535
00000010: 5535 5535 5535 5535 5535 5535 5535 5535
00000020: 5535 5535 5535 5535 5535 5535 5535 5535
00000030: 5535 5535 5535 5535 5535 5535 5535 5535
00000040: 5535 5535 5535 5535 5535 5535 5535 5535
00000050: 5535 5535 5535 5535 5535 5535 5535 5535
00000060: 5535 5535 5535 5535 5535 5535 5535 5535
00000070: 5535 5535 5535 5535 5535 5535 5535
0.3333 0.3333 0.3333 0.3333 0.3333 0.3333 0.3333 0.3333
0.3333 0.3333 0.3333 0.3333 0.3333 0.3333 0.3333 0.3333
0.3333 0.3333 0.3333 0.3333 0.3333 0.3333 0.3333 0.3333
0.3333 0.3333 0.3333 0.3333 0.3333 0.3333 0.3333 0.3333
0.3333 0.3333 0.3333 0.3333 0.3333 0.3333 0.3333 0.3333
0.3333 0.3333 0.3333 0.3333 0.3333 0.3333 0.3333 0.3333
0.3333 0.3333 0.3333 0.3333 0.3333 0.3333 0.3333 0.3333
0.3333 0.3333 0.3333 0.3333 0.3333 0.3333 0.3333

arith.constant20 f2 [3, 21, 64, 16]
00000000: ef2e fd9e 28a2 c931 a3ad 53ad 3734 ebb5
00000010: 17b2 602c 33b1 5da8 19b3 7631 13b7 5eb5
00000020: bda6 bb30 7731 7796 d70b 26a8 5d36 8eb0
00000030: abb5 e4ae 6e30 5330 07a8 5e34 f827 dfa9
00000040: d0b3 2736 d12e 8aaa 6ead 4930 7f31 0db0
00000050: 27af 772f 8f2e 3635 ff2e 55b0 f4a4 c62f
00000060: 24b0 a530 9230 c3b4 1d37 cb33 d330 86b0
00000070: dfb7 5eaa e52e e730 c425 9dab 96a3 9d2f
00000080: 96b3 4ea9 42a8 7130 3f34 3c25 7b30 90b3
00000090: 2e28 81b0 fe29 07b1 8533 9931 3b24 36b2
000000a0: 572b 0aa4 52a7 92a1 ae31 e328 95a9 0ab4
000000b0: 3933 0a2a 102c b0b1 1723 28ae dfae 6dac
000000c0: d931 5ea4 a42b 1f2f 77b4 6110 e62f 0134
000000d0: 3328 1032 b930 ccab 28ac b2ae 4ead 3bad
000000e0: 8b35 daa8 d32b a134 a3b5 78b0 e630 d331
000000f0: 652f 582e c51b 36aa ceb2 6fb0 c3b3 abad
00000100: 7236 28b4 4928 fb35 892b 542e 68b1 7d33
00000110: bd32 5631 a727 46b5 f42f 52ab 6129 d831
00000120: 6b35 e1b4 022e 0636 74ac be30 86a9 9a14
00000130: a433 6b26 31b1 f8b4 61ac 121f 6db0 44b2
00000140: 16b4 e228 7ab3 0431 3d2c ef2c 48b4 ee27
00000150: fe35 11ac c6b3 7526 f8b2 79b4 b6b6 59b0
00000160: c1b4 372b 5faf 75b9 aba0 b1b0 abb8 b52c
00000170: 76b4 5f37 06b1 75aa 70b4 fba0 cd30 7f35
00000180: 99aa 2b28 af2f 42b4 a02e 81aa 59b4 df31
00000190: 3b21 36b1 f01b adb0 c332 ad34 832f 9d2c
000001a0: 05b6 2030 bd2a 38ab a137 be34 31ae a4a5
000001b0: 1ba2 f4ac bc2a 9aa4 5430 882e b533 2130
000001c0: 28b1 2928 4d27 562c cd34 a934 87a1 23ac
000001d0: 5430 e8ad c42f 411e 7e30 a731 91a1 5db2
000001e0: f835 2ab5 eaae b429 28b0 f2b0 6f26 36ae
000001f0: cf2c caad 06ab 5dab 6bad ca29 aeb3 ebb2
0.10834 -0.006824 -0.012024 0.1808 -0.0881 -0.0832 0.2634 -0.3699
-0.1903 0.06836 -0.1625 -0.0341 -0.2218 0.1707 -0.4421 -0.3354
-0.02632 0.1478 0.1708 -0.001578 0.0002393 -0.0324 0.3977 -0.1423
-0.3542 -0.10767 0.1384 0.1351 -0.03146 0.273 0.03113 -0.04587
-0.2441 0.3845 0.1065 -0.0511 -0.08484 0.1339 0.1718 -0.1266
-0.11176 0.11664 0.1025 0.3257 0.1093 -0.1354 -0.01935 0.12146
-0.1294 0.1451 0.1428 -0.2976 0.4446 0.2435 0.1508 -0.1414
-0.492 -0.04974 0.1077 0.1532 0.02252 -0.05948 -0.01482 0.11896
-0.237 -0.04144 -0.03326 0.1388 0.2654 0.02045 0.14 -0.2363
0.03265 -0.1407 0.0468 -0.1571 0.235 0.1749 0.01653 -0.1941
0.05734 -0.01578 -0.0286 -0.01088 0.1775 0.03818 -0.0436 -0.2524
0.2257 0.04718 0.0635 -0.1777 0.01385 -0.0962 -0.10736 -0.06915
0.1827 -0.01706 0.0597 0.11127 -0.279 0.0005345 0.1234 0.2502
0.0328 0.1895 0.1476 -0.0609 -0.06494 -0.1046 -0.0829 -0.0817
0.3464 -0.0379 0.06113 0.2893 -0.3523 -0.1396 0.1531 0.182
0.11554 0.0991 0.003794 -0.04852 -0.2126 -0.1385 -0.2426 -0.08856
0.4028 -0.2598 0.03348 0.3738 0.05887 0.0989 -0.169 0.234
0.2106 0.1667 0.02989 -0.3296 0.12427 -0.0572 0.04202 0.1826
0.3386 -0.305 0.0939 0.3765 -0.0696 0.1482 -0.04315 0.001123
0.2388 0.02507 -0.1622 -0.3105 -0.0684 0.006905 -0.1383 -0.1958
-0.2554 0.03815 -0.2336 0.1567 0.0662 0.0771 -0.2676 0.03098
0.3745 -0.06354 -0.2429 0.02522 -0.2178 -0.2795 -0.4194 -0.1359
-0.297 0.05637 -0.1152 -0.682 -0.00912 -0.1466 -0.5835 0.07355
-0.2788 0.4607 -0.157 -0.05045 -0.2773 -0.00973 0.15 0.3435
-0.05154 0.03256 0.12006 -0.266 0.1035 -0.0508 -0.2717 0.1835
0.010216 -0.1628 0.003876 -0.1461 0.2113 0.2922 0.1174 0.0721
-0.3762 0.1289 0.05264 -0.0564 0.4768 0.2964 -0.09674 -0.02203
-0.011925 -0.0774 0.0526 -0.01797 0.1353 0.10205 0.2408 0.129
-0.1611 0.0325 0.02852 0.06775 0.3 0.2913 -0.010796 -0.06464
0.1353 -0.0923 0.12134 0.006107 0.1404 0.1766 -0.01087 -0.1989
0.373 -0.3228 -0.10803 0.04456 -0.1299 -0.1545 0.02513 -0.09705
0.07513 -0.09045 -0.05487 -0.05753 -0.08466 0.04523 -0.24 -0.2162

arith.constant35 f2 [960, 64]
00000000: 70ab e530 b0ae bdae 3e2c 422f 6834 e0ac
00000010: abb2 38b1 1ab2 e6af 5db2 9da4 eb2e d7b2
00000020: 4db0 39b3 0fb0 76ae 0bae 2323 4e33 4db3
00000030: 05b1 bcb5 04b1 e0b5 c5b0 6632 c427 bbb4
00000040: 8ab3 ad28 a1a6 27b1 a22a 1631 6927 07b2
00000050: 6f26 202b 81b0 81ac bb34 beb1 16b1 b6aa
00000060: 34b3 45b2 0aac 5cb2 00b4 b0a4 e02d 85b0
00000070: 0daa 6ba8 1db6 16a8 c999 eb34 0733 122e
00000080: 68af 7932 2bb1 b5b8 00b8 7bb3 ecb0 49b3
00000090: 9fa8 a22e e52c e1b0 71b2 8cb6 00ab 66b1
000000a0: 472f f634 5bb0 51b1 6182 b1ab c8a9 9b2f
000000b0: b430 ca36 5eb2 51a8 852f 432d 1fae 4231
000000c0: 5a9d 0530 64b6 bab7 cbaa 849f 3528 2cab
000000d0: 2ca6 c7a0 e1b5 48b9 37b7 ab2d 2da6 cdae
000000e0: 9f2f fd28 80b5 f2b1 fcb5 d12f cfb0 88b0
000000f0: 0eb1 deb1 44b7 91b4 05b8 d9b2 0fb6 26b7
00000100: f728 c12b 032c f2ad a4a9 a5ac 6926 262a
00000110: d826 ec2d ba30 b430 da30 1c2d 06a4 8c2d
00000120: d12c 7121 ad35 af37 5d2e 3d33 b82b 61ac
00000130: 44a4 c918 d835 b2ab 9430 8530 e1b2 8bb4
00000140: f5a6 ba33 5830 b92f 5330 feaf b3af 6db5
00000150: cb29 3330 b031 3d28 98a4 fdad 7dac cbb5
00000160: 6429 d5a9 3425 9fb1 e39a 5f32 7231 50b6
00000170: 81ad 192b dab2 7e2e 6433 092a 5332 9e25
00000180: 5834 932f 2c9d 77b2 e4b1 b8a9 b2a5 c0b3
00000190: f62f 8f30 4c2a 9fa9 0531 372d 6334 87ac
000001a0: 81b0 2cb0 4cb5 a8b5 bb2e 12b0 d431 d4b0
000001b0: beaa 57ae a4b1 79b1 69ad 3d25 2432 002a
000001c0: 3f32 abb1 efb0 8a28 6923 a626 aa31 8433
000001d0: 6730 c3a7 8cb8 4db4 a6ac cfad 3527 1232
000001e0: 442e 1a29 2ab7 e7b2 0d2c ef2c 3da5 8235
000001f0: cd35 70a9 aca7 3fb5 eab2 3e30 79ac 68ae
-0.0581 0.153 -0.1045 -0.1053 0.0663 0.1134 0.2754 -0.0762
-0.2084 -0.1631 -0.1907 -0.1234 -0.1989 -0.01802 0.1081 -0.2137
-0.1344 -0.2257 -0.1268 -0.10095 -0.0944 0.01394 0.2283 -0.2281
-0.1569 -0.3584 -0.1567 -0.3672 -0.149 0.2 0.03033 -0.2957
-0.2356 0.03653 -0.0259 -0.161 0.05182 0.1589 0.02895 -0.1884
0.02513 0.05566 -0.1407 -0.0704 0.2957 -0.1794 -0.1589 -0.05243
-0.2251 -0.1959 -0.0631 -0.1987 -0.25 -0.01831 0.0918 -0.1412
-0.04727 -0.03452 -0.382 -0.03192 -0.002825 0.3074 0.2196 0.09485
-0.1157 0.2023 -0.1615 -0.5884 -0.5 -0.2338 -0.1538 -0.2277
-0.0361 0.10364 0.0765 -0.1525 -0.2013 -0.4092 -0.0547 -0.1687
0.1137 0.31 -0.1361 -0.1661 -3.63e-05 -0.0601 -0.04517 0.11884
0.147 0.4243 -0.199 -0.03372 0.1175 0.0822 -0.09564 0.1643
-0.005226 0.1256 -0.3994 -0.483 -0.05307 -0.00734 0.03287 -0.05603
-0.02411 -0.00933 -0.3674 -0.66 -0.451 0.08856 -0.02412 -0.10626
0.1191 0.03897 -0.3438 -0.1858 -0.374 0.12213 -0.1503 -0.1416
-0.158 -0.1833 -0.454 -0.2854 -0.5024 -0.214 -0.3787 -0.4468
0.0388 0.06058 0.0627 -0.0929 -0.04407 -0.0726 0.02504 0.04803
0.02673 0.0925 0.1477 0.147 0.1516 0.07983 -0.01572 0.0867
0.07526 0.01063 0.3547 0.4802 0.0994 0.2262 0.0603 -0.0684
-0.01666 0.002337 0.3652 -0.06012 0.1431 0.1412 -0.215 -0.284
-0.02718 0.2415 0.1357 0.12067 0.1351 -0.1249 -0.1203 -0.339
0.04526 0.1312 0.1777 0.0331 -0.01794 -0.09357 -0.0701 -0.362
0.0421 -0.04556 0.02032 -0.1757 -0.003363 0.1991 0.1702 -0.3945
-0.086 0.05545 -0.2141 0.10144 0.231 0.04715 0.1976 0.02194
0.2715 0.11835 -0.00505 -0.202 -0.1841 -0.04468 -0.02225 -0.2422
0.1244 0.1425 0.0492 -0.0439 0.1569 0.0815 0.2742 -0.07074
-0.1407 -0.1304 -0.331 -0.3535 0.10516 -0.1272 0.1821 -0.1509
-0.05267 -0.09906 -0.1763 -0.171 -0.08453 0.02046 0.1919 0.04688
0.1952 -0.1771 -0.1542 0.03546 0.01447 0.02597 0.177 0.2349
0.1376 -0.03032 -0.5684 -0.2688 -0.07263 -0.09076 0.02815 0.1897
0.0979 0.03986 -0.4478 -0.2157 0.0633 0.0771 -0.02046 0.3442
0.3625 -0.04248 -0.02997 -0.328 -0.2161 0.1326 -0.0699 -0.1001

arith.constant36 f2 [35, 192]
00000000: 7cae 89ae 8bae 39b1 81b1 36ac 8630 7832
00000010: a2a8 3e31 ccb1 9db1 22a3 c126 6f28 89ae
00000020: 4c2c 9e31 f9ac 32a8 182e 2625 9029 192f
00000030: 931c d8ab f02a 27aa a3a9 ceb4 46b1 0f30
00000040: 4dad 45ab ca30 9d28 83a8 f7b4 8c28 5131
00000050: a1a8 0ea7 5faf 5db0 7eb2 a5b6 47ab d731
00000060: ffb0 6eb1 ba2b 062f 0429 d331 6e33 4c33
00000070: 6e21 582f b101 9e2b e130 892d cf23 66ac
00000080: c2af b3ac c9b2 f4b3 7fa1 882c 29b1 10b4
00000090: d622 cc2c 8caf 32ab 2435 42ad 5db3 97b2
000000a0: 9c2b 2ca6 05b3 d1b4 8fb0 4ab2 06b5 42b2
000000b0: e0a8 42aa 32b4 0ca9 3cab b5ad 0ea7 c4ab
000000c0: 91a4 db30 23af 81a8 bd2f 5033 ebb0 81b0
000000d0: dba5 0ba7 1a33 7c2a deaa e2ae 00ac dfaf
000000e0: 34ac 5729 1231 4dac 22ae aba0 44ad 8fa5
000000f0: 6ab0 8c25 42a5 ee15 b1af 942d cc2e 4faf
00000100: 9db2 b3b0 36ad ecb2 54b5 92ad 2029 b5b3
00000110: 22b4 85a1 4329 2828 31b0 da28 c930 242b
00000120: 1bb2 e2a7 baad 83ae 0db1 43ad eca9 de2d
00000130: fdaf 059f e22f bc28 402a f1ab 98b0 a027
00000140: 03b0 aca6 eaae d9b5 f525 372c 71b3 4419
00000150: b3ad d3a7 b233 5032 1032 17ae edb3 10b1
00000160: 91b1 0cb1 ab2f ef34 9da7 edae 9dab 6ea9
00000170: eeb0 69af 3b34 752b 5cb6 96b5 cab0 6024
00000180: d9b3 2cad d3b2 0bb1 a730 682f a330 372f
00000190: 432b f1ad 10a9 be33 7736 672d 86a9 e1b3
000001a0: 0f2b 492e ec2d 6a30 e831 9fae f4ad bc22
000001b0: 6a9d 0d23 c82a 66a6 b7b6 0db1 c4ae 0b30
000001c0: 4fb5 402b e325 88a7 f6b2 01b0 e89d b42b
000001d0: 03b5 8fae c42a 6ea9 c4ad 70a7 e532 d023
000001e0: bdb1 0f28 4e23 fb30 c12a 912b 1232 c7ad
000001f0: dfa5 83ab ceaf c428 4d34 672f 60ae f4b4
-0.1013 -0.1021 -0.10223 -0.1632 -0.172 -0.0658 0.1414 0.2021
-0.0362 0.1638 -0.1812 -0.1754 -0.01393 0.02638 0.03464 -0.1021
0.06714 0.1755 -0.0777 -0.03278 0.0952 0.02011 0.04346 0.1109
0.004467 -0.06128 0.0542 -0.04807 -0.04404 -0.3003 -0.1648 0.1268
-0.0828 -0.0568 0.1497 0.03604 -0.03525 -0.3103 0.03552 0.1661
-0.03616 -0.02756 -0.1152 -0.1364 -0.2029 -0.4153 -0.05685 0.1825
-0.1561 -0.1697 0.06036 0.10974 0.03918 0.182 0.2322 0.228
0.010605 0.11475 2.58e-05 0.0595 0.1525 0.0865 0.01525 -0.0687
-0.1212 -0.0734 -0.212 -0.2485 -0.010735 0.0708 -0.1613 -0.254
0.01335 0.07495 -0.1179 -0.0562 0.3213 -0.08215 -0.2301 -0.2059
0.05945 -0.02411 -0.2194 -0.301 -0.1425 -0.1965 -0.314 -0.1956
-0.0381 -0.0489 -0.2622 -0.03943 -0.05652 -0.0892 -0.02756 -0.06067
-0.01784 0.1517 -0.1115 -0.0352 0.1209 0.2285 -0.1537 -0.1407
-0.02287 -0.02751 0.2219 0.05066 -0.05365 -0.10754 -0.0625 -0.123
-0.0657 0.04172 0.1584 -0.0672 -0.0958 -0.00912 -0.0823 -0.02171
-0.138 0.02167 -0.02054 0.001448 -0.1202 0.08716 0.1062 -0.1142
-0.2067 -0.1469 -0.0814 -0.2163 -0.333 -0.08704 0.04004 -0.2408
-0.2583 -0.01078 0.0411 0.03247 -0.131 0.0379 0.1495 0.0558
-0.1908 -0.03079 -0.0895 -0.10175 -0.1578 -0.0822 -0.04626 0.0917
-0.1248 -0.006855 0.12317 0.037 0.04883 -0.06204 -0.1436 0.02979
-0.1254 -0.02606 -0.10803 -0.3655 0.02327 0.06586 -0.2325 0.002571
-0.08905 -0.03056 0.2405 0.1973 0.1895 -0.09515 -0.2477 -0.1582
-0.174 -0.1577 0.1198 0.3083 -0.02974 -0.1082 -0.05948 -0.04242
-0.154 -0.1158 0.2644 0.05826 -0.3975 -0.349 -0.1497 0.01709
-0.2452 -0.0808 -0.2133 -0.1576 0.1454 0.1157 0.1449 0.11273
0.05673 -0.09283 -0.03955 0.242 0.404 0.0844 -0.04315 -0.2462
0.05515 0.0982 0.0925 0.138 0.1846 -0.10345 -0.093 0.01315
-0.005287 0.01377 0.05298 -0.025 -0.4197 -0.1578 -0.1057 0.1263
-0.3318 0.05664 0.023 -0.02942 -0.2175 -0.1251 -0.005768 0.06018
-0.3132 -0.1025 0.05286 -0.04242 -0.0901 -0.02905 0.2155 0.01526
-0.1793 0.0317 0.01427 0.1556 0.05276 0.0591 0.1897 -0.0903
-0.02293 -0.0587 -0.12195 0.03723 0.2688 0.11566 -0.0996 -0.3096

arith.constant37 f2 [3, 4]
00000000: fcb7 2faf 0134 f1ba f039 75b2 05b7 90b9
00000010: 7d38 03b1 5a3c 4231
-0.499 -0.11224 0.2502 -0.8677 0.742 -0.2018 -0.4387 -0.6953
0.561 -0.1566 1.088 0.1643

arith.constant38 f2 [9, 8]
00000000: d2b1 722d beb5 8135 4837 8eb1 2535 b734
00000010: 0cb7 84ab 3a31 ee2d 7032 28b5 0fa4 ab27
00000020: d5b1 b4ad d036 ebb4 a7b8 eda8 c0b3 fbb7
00000030: b7a8 162e 95b8 4631 0ab8 5cac c933 5cb0
00000040: 6d9c e32d 4b37 2ab3 24a2 a729 5239 5ab8
00000050: f1b1 e934 9237 25ac 0339 ffaf d0a9 dfb2
00000060: bdb1 f4b6 6933 29aa bdb4 e7ad 0c35 fb2f
00000070: 7731 21b7 0cba 5334 72b3 d92c 4336 a0ae
00000080: 2234 bda3 60b8 0430 712e 03b1 6bb2 27b5
-0.1819 0.0851 -0.359 0.344 0.455 -0.1736 0.3215 0.2947
-0.4404 -0.05872 0.1633 0.09265 0.2012 -0.3223 -0.01585 0.02995
-0.1823 -0.0891 0.4258 -0.3074 -0.5815 -0.03848 -0.2422 -0.4988
-0.03683 0.0951 -0.5728 0.1648 -0.505 -0.0681 0.2433 -0.1362
-0.004322 0.092 0.4558 -0.2239 -0.01199 0.04416 0.665 -0.544
-0.1857 0.307 0.4731 -0.06476 0.6265 -0.12494 -0.0454 -0.2147
-0.1793 -0.4346 0.2316 -0.04813 -0.2961 -0.0922 0.3154 0.1247
0.1708 -0.4456 -0.756 0.2703 -0.2327 0.07574 0.3914 -0.1035
0.2583 -0.015114 -0.547 0.1255 0.10065 -0.1566 -0.2006 -0.322

arith.constant39 f2 [3, 4]
00000000: 9b36 33b6 9932 6331 d533 3024 1336 fbb2
00000010: a4b1 b13a 6f36 61b1
0.4128 -0.3875 0.2062 0.1683 0.2448 0.01636 0.3796 -0.2181
-0.1763 0.8364 0.402 -0.1681

arith.constant40 f2 [3, 4]
00000000: 2519 ac31 1132 f42e 941e 5b34 c833 9dba
00000010: a429 11b4 ad3b 1eb5
0.002512 0.1772 0.1896 0.10864 0.006424 0.2722 0.2432 -0.8267
0.04407 -0.2542 0.9595 -0.3198

arith.constant41 f2 [9, 8]
00000000: 99a6 9b21 ec29 82a8 3fa3 e19d 5ca4 cea0
00000010: 003a 41b7 8b31 3934 2138 f1b1 211a 74b4
00000020: e8ae 0e2a fab5 182e 26b0 fbab 38b5 dab0
00000030: 40a7 efb1 6b23 f2af 711a d033 dab4 9c36
00000040: 0c21 f2a1 07aa efa0 e326 230d ad28 0ba7
00000050: 9b36 1b28 58a5 2fb7 68ad abb4 142a a330
00000060: a41d 2ca8 131b b821 2fa0 ba25 9028 44a6
00000070: 1533 442d e6ac 49b8 bd33 5839 2423 85b0
00000080: d430 5b30 7fad fb35 8d30 db32 ca2f cb33
-0.02577 0.01095 0.04626 -0.03522 -0.01415 -0.00574 -0.01703 -0.009384
0.75 -0.4534 0.1732 0.264 0.516 -0.1857 0.002993 -0.2783
-0.1079 0.0473 -0.3735 0.0952 -0.1296 -0.06235 -0.3262 -0.1516
-0.02832 -0.1854 0.01449 -0.12415 0.003145 0.2441 -0.3032 0.413
0.00986 -0.01161 -0.0471 -0.009636 0.0269 0.0003135 0.03653 -0.02751
0.4128 0.03207 -0.02087 -0.449 -0.0845 -0.2917 0.0475 0.1449
0.00551 -0.0326 0.003454 0.01117 -0.00817 0.02237 0.03564 -0.02448
0.2213 0.0823 -0.07654 -0.5356 0.2418 0.668 0.01395 -0.1412
0.1509 0.1361 -0.0859 0.3738 0.1422 0.2142 0.1217 0.2435

arith.constant42 f2 [3, 4]
00000000: 5d39 5e39 dc39 6339 d2b5 12b3 f82f 63aa
00000010: ce39 6532 bf35 0db0
0.6704 0.671 0.7324 0.6733 -0.3638 -0.221 0.1245 -0.0499
0.7256 0.1998 0.3591 -0.1266

arith.constant43 f2 [3, 4]
00000000: 4b34 652a 4dab b334 48b2 69a0 16a8 1a34
00000010: c6b5 be31 f1b4 6b35
0.2683 0.04996 -0.05704 0.2937 -0.1963 -0.00861 -0.03192 0.2563
-0.3608 0.1794 -0.3088 0.3386

arith.constant44 f2 [9, 8]
00000000: b7b0 27b4 2729 ceb6 81b4 dab6 2baf 0a35
00000010: 9930 0d27 8bb4 55b8 4ab5 3ab6 6eaf d634
00000020: a634 5b37 2fb6 bbb1 7931 4e31 a724 40b2
00000030: e229 3db4 36b9 c834 47ad 9fb3 a02a 62ac
00000040: 4f33 b2b3 45b8 ba35 8035 53a4 a5b6 b9b0
00000050: ebb0 e831 3833 42b5 7e34 e735 1ab5 e233
00000060: d3a2 8c22 8c24 06a1 d8a3 0b0c a827 64a9
00000070: 3e32 862d f83a 63ad d0a1 4c31 2e38 5132
00000080: 7a32 c2b6 5b31 b8b3 a9af 9634 7833 2db1
-0.1473 -0.2595 0.04025 -0.4253 -0.2815 -0.4282 -0.112 0.315
0.1437 0.02754 -0.284 -0.5415 -0.3306 -0.3892 -0.1161 0.3022
0.2905 0.4597 -0.3865 -0.1791 0.171 0.1658 0.01817 -0.1953
0.04596 -0.265 -0.6514 0.2988 -0.08246 -0.2382 0.05176 -0.0685
0.2284 -0.2405 -0.5337 0.358 0.3438 -0.01689 -0.4153 -0.1476
-0.1537 0.1846 0.2256 -0.3286 0.2808 0.369 -0.3188 0.2463
-0.01333 0.01279 0.01776 -0.00981 -0.01532 0.0002468 0.0299 -0.0421
0.1951 0.0863 0.871 -0.08417 -0.01135 0.1655 0.5225 0.1974
0.2024 -0.4224 0.1674 -0.2412 -0.1197 0.2866 0.2334 -0.1617

arith.constant45 f2 [3, 4]
00000000: dcb7 84a7 2c37 e8b7 39b2 d6b9 7fb0 5ab2
00000010: f238 dd29 f1aa 5134
-0.4912 -0.02936 0.4482 -0.4941 -0.1945 -0.7295 -0.1405 -0.1985
0.618 0.0458 -0.05423 0.2698

arith.constant46 f2 [1, 3, 3, 3]
00000000: 5233 efab abae 71b4 c034 9634 b5ae e92d
00000010: 1230 971f 7229 3e28 6ab6 1735 d235 6232
00000020: d92c 3e1f a6ad 522d cd2f 2cac 8534 9c32
00000030: a928 75ad b8ac
0.2288 -0.06198 -0.1042 -0.2776 0.2969 0.2866 -0.1048 0.09235
0.1272 0.007412 0.04254 0.03314 -0.401 0.318 0.3638 0.1995
0.07574 0.007072 -0.08826 0.0831 0.1219 -0.0652 0.2825 0.2065
0.0364 -0.08527 -0.0737

arith.constant47 f2 [16, 1, 1, 3]
00000000: 6b3d 3dc1 57ba beaa 1d3d 5440 023c dcb0
00000010: c2b8 e6b2 b742 2d3e d631 7c35 4fbf d234
00000020: 1cc2 90ba 5537 8c42 c1b9 28c0 953e f0c0
00000030: 18c1 9d3d 22c0 8cb9 1fbe 1340 83bc 35be
00000040: 9ec1 f038 0b41 15b4 2a39 70c0 8c3e 9436
00000050: 2f3c d1be 8539 3ec2 34bb 5b42 729c 5242
1.3545 -2.62 -0.7925 -0.05267 1.278 2.164 1.002 -0.1519
-0.5947 -0.2156 3.357 1.544 0.1824 0.3428 -1.827 0.3013
-3.055 -0.8203 0.4583 3.273 -0.719 -2.078 1.6455 -2.469
-2.547 1.403 -2.066 -0.6934 -1.53 2.037 -1.128 -1.552
-2.809 0.617 2.521 -0.2551 0.6455 -2.219 1.637 0.4111
1.046 -1.704 0.69 -3.121 -0.9004 3.178 -0.00434 3.16

arith.constant48 f2 [1, 3, 3, 16]
00000000: beb1 1b30 c82d ef30 512b 6ead 42a8 b6b1
00000010: bd2d 2fa9 5c35 24b3 69a8 812d 1eb4 ed2b
00000020: e52d 5b2c 6c2e d1b2 d534 e7a6 30b1 5537
00000030: 1fa8 341e b5b4 2fa9 6034 0f30 f5b4 22b5
00000040: 802e 46a6 a620 8da8 a4ad 4b31 7c33 522d
00000050: 3727 979e a731 63ab 5830 b733 3c25 4130
00000060: 1faf 64b1 b233 fa34 5c26 6f2d 61b5 d0b0
00000070: 08a9 40b5 9c34 f32a 93ac fa99 20b1 dc34
00000080: 1fb0 61b6 6035 ecb5 4eb6 3333 d3b3 5f32
00000090: bbb6 1438 20a9 7ab4 fa34 c636 e2ac f5b2
000000a0: de34 dc2e 9120 fcaf d72f efb4 a633 572b
000000b0: 5f2f 41ad 1aa1 e3b1 0f34 2430 3d2d cd22
000000c0: 5faf 0ead b3b0 17a6 b72a 08b1 23ad dea8
000000d0: 0ea3 d9ae 74ad df31 e8ac 492b 0326 0833
000000e0: e6b5 80b4 c9b4 be2d ec31 9cb2 dcb0 beae
000000f0: fdb4 1e31 f9af 92b0 7430 ac30 c434 2da4
00000100: faa6 3521 bf30 f3ad 8e29 2b34 2b26 f0aa
00000110: a0a8 8f24 e7a8 b2b0 4fa7 04af 44ac 40ae
-0.1794 0.1283 0.09033 0.1542 0.05716 -0.08484 -0.03326 -0.1785
0.08966 -0.0405 0.335 -0.2231 -0.03445 0.086 -0.2573 0.06192
0.0921 0.06805 0.10034 -0.213 0.302 -0.02696 -0.1621 0.4583
-0.0322 0.006058 -0.2942 -0.0405 0.2734 0.1268 -0.3098 -0.3208
0.10156 -0.0245 0.00908 -0.03555 -0.08813 0.1654 0.2339 0.0831
0.02818 -0.006435 0.1766 -0.0577 0.1357 0.2411 0.02045 0.1329
-0.11127 -0.1685 0.2405 0.311 0.02484 0.0849 -0.3362 -0.1504
-0.0393 -0.3281 0.288 0.0543 -0.0715 -0.002918 -0.1602 0.3037
-0.1288 -0.3987 0.336 -0.37 -0.394 0.225 -0.2445 0.1991
-0.4207 0.51 -0.04004 -0.2798 0.311 0.4233 -0.0763 -0.2174
0.3042 0.1072 0.00892 -0.12476 0.1225 -0.3083 0.239 0.05734
0.1152 -0.0821 -0.009964 -0.184 0.2537 0.1294 0.08185 0.01328
-0.1152 -0.079 -0.1469 -0.02379 0.05246 -0.1572 -0.08026 -0.03802
-0.01378 -0.107 -0.0852 0.1835 -0.07666 0.05692 0.02348 0.2197
-0.3687 -0.2812 -0.299 0.0897 0.185 -0.2065 -0.1519 -0.10535
-0.3118 0.1599 -0.1246 -0.1428 0.1392 0.146 0.2979 -0.01631
-0.02725 0.01017 0.1483 -0.09296 0.0434 0.2605 0.0241 -0.0542
-0.03613 0.0178 -0.0383 -0.1467 -0.02855 -0.1096 -0.06665 -0.09766

arith.constant49 f2 [16, 1, 1, 3]
00000000: c731 26bc 1d3d ecba 10b9 3a35 d6b4 0538
00000010: 18b9 34b7 04b8 4b28 f2ba 1230 68b6 fc38
00000020: 5cb6 b438 8a31 0a3a 57b8 2936 3d36 b8a1
00000030: 85b3 b3ae 3834 09b9 1cbc 3235 00aa c9a9
00000040: d234 702f e7b3 98ae fa3c 9a3a 44b6 9db2
00000050: 4134 dbb8 2e2e a1b3 7838 07bc 9ab6 1b1c
0.1805 -1.037 1.278 -0.865 -0.633 0.3267 -0.3022 0.5024
-0.6367 -0.4502 -0.502 0.03354 -0.868 0.1272 -0.4004 0.623
-0.3975 0.588 0.1731 0.755 -0.5425 0.385 0.39 -0.01117
-0.235 -0.1047 0.2637 -0.6294 -1.027 0.3247 -0.04688 -0.0452
0.3013 0.1162 -0.247 -0.103 1.244 0.825 -0.3916 -0.2067
0.2659 -0.607 0.09656 -0.2384 0.5586 -1.007 -0.4126 0.00401

arith.constant50 f2 [1, 3, 3, 16]
00000000: 4ba3 042e 0f2c 00ad 52ac 5031 fcb1 0432
00000010: b7b0 6031 872e 8835 a0a6 5cae de2d 3aa4
00000020: 6531 e131 95b1 bcb4 beaf f532 dd34 d0ad
00000030: d2b2 e0a4 741c 1fb6 102e 202e f121 ce25
00000040: fea8 0230 72a9 042c 8bae 4d2e 4d1e fba2
00000050: 47b1 28ad 95b1 702e 4929 2e29 0832 dba0
00000060: cbb3 5c2e 0bb6 c9ae 59af 92b0 11b1 cc2c
00000070: 4425 79ae d52e 6e34 0134 f4b5 4334 c725
00000080: 5838 1c30 42a8 09b6 c1b5 8932 1d37 da27
00000090: c9b1 bcb2 21b8 c6ba 1035 d037 0cb6 4338
000000a0: 2eae bd32 eeb1 75ad e0a9 afa8 81b0 8f32
000000b0: 7418 9e27 1f2c 5532 2735 46b2 4e31 ed2d
000000c0: 9f18 d6a3 e326 3d32 8e2a c2ae c9a8 f3b1
000000d0: 4c2e 75b3 c8ad 8a2d 61a0 432a a9a8 e6a8
000000e0: 0629 f630 5930 b331 76a8 e630 e629 6eb4
000000f0: 20a0 2db6 78af 18b8 a524 742f 27ad 9a2c
00000100: 0ea6 ba28 3ca9 2c2e f8b0 db0a 5daf 61b1
00000110: f5ab f9a9 1dab 2530 1928 26ac eaa9 9928
-0.014244 0.094 0.0634 -0.0781 -0.0675 0.166 -0.187 0.188
-0.1473 0.168 0.102 0.3457 -0.02588 -0.09937 0.0917 -0.01651
0.1686 0.1837 -0.1744 -0.296 -0.121 0.2174 0.304 -0.0908
-0.2131 -0.01904 0.00435 -0.3826 0.0947 0.0957 0.011604 0.02267
-0.039 0.1252 -0.04254 0.06274 -0.10223 0.09845 0.006153 -0.01363
-0.1649 -0.08057 -0.1744 0.1006 0.0413 0.04047 0.1885 -0.00948
-0.2435 0.09937 -0.3777 -0.106 -0.1148 -0.1428 -0.1583 0.07495
0.02057 -0.10114 0.10675 0.2769 0.2502 -0.372 0.2664 0.02257
0.543 0.1284 -0.03326 -0.3772 -0.3596 0.2042 0.4446 0.03067
-0.1808 -0.2104 -0.516 -0.8467 0.3164 0.4883 -0.378 0.5327
-0.09656 0.2106 -0.1853 -0.08527 -0.0459 -0.0366 -0.1407 0.205
0.002174 0.02975 0.0644 0.1979 0.322 -0.196 0.1658 0.0926
0.002256 -0.015305 0.0269 0.195 0.0512 -0.1056 -0.03738 -0.1859
0.0984 -0.233 -0.09033 0.08655 -0.00855 0.04892 -0.0364 -0.03827
0.03925 0.155 0.1359 0.1781 -0.03485 0.1531 0.04608 -0.2769
-0.00806 -0.386 -0.1167 -0.5117 0.01814 0.11646 -0.0805 0.0719
-0.02365 0.03693 -0.0409 0.09644 -0.1553 0.0002092 -0.11505 -0.1681
-0.06216 -0.04666 -0.05557 0.1295 0.032 -0.0648 -0.0462 0.03592

arith.constant51 f2 [32, 1, 1, 16]
00000000: 2bba 33bb 9738 5fb8 5abb 5f26 102d 42b7
00000010: 2a3c 86b6 ceb6 abb9 6fbb ddc0 5d3c 92ba
00000020: d9b5 ab3d 3db9 0d33 95ab e8b4 6936 11bc
00000030: 633a 86bd d9b1 8831 2dbd 1d36 d2b4 3dba
00000040: 1c3f 882e f6ba fbba 55ba d337 a5be 003d
00000050: 46b2 c335 ffbd b3bb eabb 44bb e0bc 873b
00000060: 083e f23c 7b38 a3bd 7a2b 12b4 32bd 4e36
00000070: 2539 0dbd 3db8 fd3b a8c0 aebc c0b9 bb34
00000080: 1fb8 43b8 caaa fabd c633 9db8 7a39 5eb7
00000090: 9236 87b8 563d 12a6 73ba cc20 bdb4 19bd
000000a0: 113b 9e29 713a 1838 be39 6835 c038 7c37
000000b0: 33bb 86b3 5fbd 1c3a d6be 8f38 dcb6 93ae
000000c0: 9c3c 4b3c e9bf 8a3b 803d 3035 f5b7 d22e
000000d0: b739 93b8 6340 55b3 8abd 6fc0 c8bd 6b3c
000000e0: 9335 3f35 7db5 213f d6b1 bbbb 3a3d 21b2
000000f0: fbba 5c3a 7939 edba f82a 9438 e32a 26ad
00000100: 5635 f638 bd38 aa37 c32d 563a a5b0 7f37
00000110: f8b4 10bc c5c0 92b8 0daf 1127 2135 8eb3
00000120: 7ab5 d8b6 a3b2 8d3a 0e2c 6038 0238 55b8
00000130: 5e3a 92c1 dfb5 e331 382d 741c d6aa 6e30
00000140: 68b6 f5b6 b7b0 b2bc 8f3b 8538 e535 2434
00000150: 01b8 fe35 df38 7a37 20b5 2fbb 31b1 ad3c
00000160: 36bb 8d2a 3cb5 0538 5bbb 45b4 573a 98ba
00000170: bfb2 e9b1 92bc c7bd ea2b 8fc0 062c 73b5
00000180: 2731 1f36 02b8 d3b9 8436 32ad db3e 7537
00000190: c9b1 e03a d934 6638 5d35 fabd 3930 53bd
000001a0: 913e f12c 563b 9c36 3624 c0b4 eb37 99bf
000001b0: ba39 0d39 a93c 2338 b8b0 8abd 77bb a53e
000001c0: eb3d 8136 f4bb 8cb7 c8b8 89b9 173c b7b7
000001d0: 0e40 14b8 6db8 b9ba a8b8 9bb3 a1b8 e3b6
000001e0: f8bb 68a7 34bc f438 792e 042f 7b3c 52b8
000001f0: 1d3c 3db6 f2b7 af23 a3bf 71b3 88be 89bd
-0.771 -0.9 0.5737 -0.5464 -0.919 0.02489 0.0791 -0.4536
1.041 -0.4077 -0.4253 -0.7085 -0.929 -2.432 1.091 -0.8213
-0.3655 1.417 -0.655 0.2203 -0.05923 -0.3066 0.4006 -1.017
0.7983 -1.381 -0.1827 0.1729 -1.294 0.382 -0.3013 -0.78
1.777 0.10205 -0.87 -0.8726 -0.7915 0.489 -1.661 1.25
-0.196 0.36 -1.499 -0.9624 -0.9893 -0.908 -1.219 0.941
1.508 1.236 0.56 -1.409 0.0584 -0.2544 -1.299 0.394
0.643 -1.263 -0.53 0.9985 -2.328 -1.17 -0.7188 0.2957
-0.515 -0.5327 -0.05304 -1.494 0.2429 -0.5767 0.6846 -0.4604
0.4106 -0.566 1.334 -0.02371 -0.806 0.00937 -0.2961 -1.274
0.8833 0.04388 0.805 0.5117 0.718 0.338 0.5938 0.4678
-0.9 -0.2351 -1.343 0.7637 -1.709 0.57 -0.4287 -0.1027
1.152 1.073 -1.978 0.9424 1.375 0.3242 -0.4973 0.10657
0.7144 -0.572 2.193 -0.2291 -1.385 -2.217 -1.445 1.1045
0.3484 0.328 -0.343 1.782 -0.1824 -0.9663 1.307 -0.1915
-0.8726 0.795 0.684 -0.8657 0.05444 0.5723 0.0538 -0.08044
0.3335 0.62 0.5923 0.479 0.09 0.792 -0.1451 0.4685
-0.3105 -1.016 -2.385 -0.5713 -0.11017 0.0276 0.3206 -0.2361
-0.3423 -0.4277 -0.2074 0.819 0.06335 0.547 0.501 -0.5415
0.796 -2.785 -0.367 0.184 0.08154 0.00435 -0.0534 0.1384
-0.4004 -0.4348 -0.1473 -1.174 0.945 0.565 0.3684 0.2588
-0.5005 0.3745 0.609 0.4673 -0.3203 -0.898 -0.1622 1.169
-0.9014 0.05118 -0.3271 0.5024 -0.9194 -0.2668 0.7925 -0.824
-0.2108 -0.1847 -1.143 -1.444 0.06183 -2.28 0.06287 -0.3406
0.161 0.3826 -0.501 -0.728 0.4072 -0.0812 1.714 0.466
-0.1808 0.8594 0.303 0.55 0.3352 -1.494 0.132 -1.331
1.642 0.0772 0.917 0.413 0.01645 -0.2969 0.4949 -1.899
0.716 0.6313 1.165 0.517 -0.1475 -1.385 -0.933 1.661
1.4795 0.4065 -0.994 -0.4717 -0.5977 -0.692 1.022 -0.4822
2.027 -0.51 -0.553 -0.8403 -0.582 -0.2377 -0.5786 -0.4304
-0.996 -0.02893 -1.051 0.619 0.10114 0.1096 1.12 -0.54
1.028 -0.39 -0.4966 0.01501 -1.909 -0.2325 -1.633 -1.384

arith.constant52 f2 [1, 3, 3, 32]
00000000: 2d35 52a8 d9af f3ab 3132 bfad 6baf 3228
00000010: 52a7 452e 4d1c 97b5 bbac 1336 7431 88ae
00000020: 1531 24ac 79b1 eeb0 8134 21a9 e830 ca25
00000030: 47b5 fdad b9b4 0930 8cac 15af adaf 9532
00000040: 612d df2f 1dae bc24 79b6 aaaa bbb2 eb29
00000050: 10af f6ad 782a aeac b834 3918 942d 2b35
00000060: 6f2c 42b2 4b2f 8db5 6b35 8835 5c33 6031
00000070: ecb0 3a22 1b34 0332 6fae 74a5 55b2 4533
00000080: 6eb4 eda7 9995 3932 c92e 1db1 36ad e72c
00000090: 0ca8 e3ab 592d c7a9 34ac 7fb0 03ae 1528
000000a0: 75b1 abae 7832 c830 f8af 3a2f 5831 7129
000000b0: 25af 35a8 fa29 8727 4f2f fc29 d7ac 0831
000000c0: 4934 7933 3ba9 12b4 9e2d b5b4 bd2c 70a6
000000d0: 7b2e 39af 582c bda0 87ac 0d31 b2b0 0e35
000000e0: 5b33 d3b2 5db4 42b1 2d30 5cae 5f30 f39e
000000f0: 11b3 b327 032d 1ca5 c0ae b8b4 5fb1 2d33
00000100: e22a 3532 34b2 a631 4eb1 38b4 0035 2130
00000110: 6cb4 2db0 bf36 b225 7434 3ead cd32 e929
00000120: c8b0 89b0 c421 f1b1 ce30 3431 8031 872d
00000130: ebb6 c931 b9b4 0bb5 eeb6 33b5 1bb0 eb33
00000140: d5b1 022c 24b5 7431 372f feaf 8935 e732
00000150: 042c e2b2 7f2d 2ead 7232 adb3 d62e 4fb0
00000160: 30b1 b8b0 6b33 9731 2bac 6432 f930 4336
00000170: 682d e0b2 8b32 a728 98af 322b 7fae e531
00000180: 34aa 412f c433 07b6 7cb2 9d2d c2a8 be31
00000190: 2432 b9ab d434 d430 05b3 cba8 44b6 e9b3
000001a0: b630 b0b5 e5b0 c62d d8ae 6930 572d 18af
000001b0: b1b0 9532 782f aeb2 9ab0 dab3 a9ae a02c
000001c0: 8b32 df36 5b24 a531 6ab1 d7ad 41b4 01b5
000001d0: 73b6 3cb2 05a9 e135 56b4 c3b4 92b3 ddb1
000001e0: 65b5 aca9 f0a8 3e34 67ae 08b4 9431 e131
000001f0: 9bb2 2db6 63b3 49b5 48b2 0831 6bb2 652a
0.3235 -0.03375 -0.1226 -0.0621 0.1935 -0.0898 -0.1159 0.03278
-0.0286 0.09796 0.0042 -0.3494 -0.0739 0.3796 0.1704 -0.10205
0.1588 -0.0647 -0.171 -0.154 0.2815 -0.04007 0.1533 0.02261
-0.3298 -0.09357 -0.2952 0.1261 -0.07104 -0.11066 -0.11993 0.2057
0.08405 0.123 -0.0955 0.0185 -0.4045 -0.05206 -0.2103 0.04623
-0.11035 -0.09314 0.05054 -0.0731 0.295 0.002062 0.08716 0.323
0.0693 -0.1956 0.11395 -0.347 0.3386 0.3457 0.23 0.168
-0.1538 0.01216 0.2566 0.1879 -0.1005 -0.0213 -0.1979 0.2272
-0.2769 -0.03096 -0.001367 0.1945 0.106 -0.1598 -0.0814 0.0766
-0.03162 -0.0616 0.08356 -0.04514 -0.0657 -0.1405 -0.09393 0.0319
-0.1705 -0.1042 0.2021 0.1494 -0.1245 0.1129 0.167 0.0425
-0.11163 -0.03287 0.0467 0.0294 0.1142 0.04675 -0.0756 0.1572
0.2678 0.2335 -0.04086 -0.2544 0.08777 -0.2942 0.07404 -0.02515
0.10126 -0.11285 0.0679 -0.009254 -0.07074 0.1578 -0.1467 0.316
0.2299 -0.2133 -0.2727 -0.1643 0.1305 -0.09937 0.1366 -0.006786
-0.2208 0.03008 0.0783 -0.01996 -0.10547 -0.295 -0.1678 0.2242
0.05377 0.194 -0.1938 0.1765 -0.1658 -0.2637 0.3125 0.129
-0.2764 -0.1305 0.4216 0.02225 0.2783 -0.0819 0.2125 0.04617
-0.1494 -0.1417 0.01126 -0.1857 0.1501 0.1626 0.1719 0.08636
-0.4324 0.1808 -0.2952 -0.3152 -0.433 -0.325 -0.1283 0.2474
-0.1823 0.0626 -0.3213 0.1704 0.11273 -0.1249 0.346 0.2157
0.06274 -0.2151 0.0859 -0.08093 0.2014 -0.2399 0.1068 -0.1346
-0.1621 -0.1475 0.2318 0.1747 -0.0651 0.1997 0.1554 0.3914
0.0845 -0.2148 0.2045 0.03635 -0.11865 0.0562 -0.1015 0.1842
-0.04846 0.11334 0.2427 -0.3767 -0.2026 0.0877 -0.03717 0.1794
0.1919 -0.06033 0.3018 0.1509 -0.2194 -0.03745 -0.3916 -0.2472
0.1472 -0.3555 -0.153 0.0902 -0.10693 0.1378 0.08344 -0.11084
-0.1466 0.2057 0.1167 -0.2087 -0.1438 -0.2454 -0.10406 0.07227
0.2045 0.4294 0.01701 0.1764 -0.1692 -0.09125 -0.2659 -0.3127
-0.403 -0.1948 -0.0392 0.3674 -0.271 -0.2976 -0.2366 -0.1832
-0.3372 -0.0443 -0.03857 0.2651 -0.10004 -0.252 0.1743 0.1837
-0.2064 -0.386 -0.2308 -0.3303 -0.1963 0.1572 -0.2006 0.04996

arith.constant53 f2 [32, 1, 1, 16]
00000000: 3a40 0a3e 0dbe 04ae 62c0 b03c 4d3e 75ba
00000010: 0abd abba abb8 c731 b4bb 3d38 8534 afb7
00000020: 24c0 2234 993f dabf eb3e 0636 0e3f a5c0
00000030: c53d bd38 68be 9c3e b9bb 4c40 ad3a a0b5
00000040: 8fb4 7e34 2d2b 32ba 5339 de37 3d35 d132
00000050: 0cb4 30c1 64b3 fa35 4f36 69af 4234 eca8
00000060: bcb9 97b6 3a38 2ab7 f5ab 7824 a2bb 8532
00000070: e2bc 31b9 d230 04ca c5ae 6130 09b4 402f
00000080: 4e41 7cb6 6f3c a940 98bd a3b0 4542 653c
00000090: 15bc 84b9 09b8 7f41 2841 bb3f 0fc4 3045
000000a0: 2146 f4c0 3240 e8c4 6230 1fc1 3f43 f5c7
000000b0: 6440 febd d7c2 7349 e13d c1c3 7ec7 1947
000000c0: 9142 0e3b e7b8 a130 c43d c1be 143b 8ebd
000000d0: 7a39 793d 70bd 7abd 9e35 e53e d4c4 8735
000000e0: 4c40 be43 75bd febc cdbc 37b9 223a 5b41
000000f0: 10bc f437 2eb2 d1b6 7f44 4238 a4c3 5445
00000100: a341 e4b5 ecba 16b2 a1bb 0235 7f44 7841
00000110: fdba 91bf 12c0 cc46 4640 e3b4 d63a f144
00000120: 20c2 69ab b13c 5b30 6fb6 0731 1234 85b1
00000130: 0fb8 fb31 3cb5 6fa7 2434 63af d0ae 10bb
00000140: 55b9 00c5 d941 6541 651c 2bb9 0938 4244
00000150: 0a40 7dba 2e3d 663d 8cc7 b73c 6da3 25c2
00000160: 3b43 6442 98c1 9fc2 b2b8 1cbd d03d 9740
00000170: 66b4 d6c1 db3c 4241 ef41 1d3d 2cb8 6242
00000180: 5bb4 91ba 0e35 f4ac 71b4 4db9 a83c 25a2
00000190: dc33 e0b5 22ae 9838 6eb2 0932 5f39 3d3b
000001a0: d438 c5a8 6fbc bfbb 1c28 12bf f6bc 463d
000001b0: 753e abba 473b 4eb4 5cbd c81f 9cbd 7c2f
000001c0: 6843 782e c7b8 b0ba af3e 1fc0 973d cfb3
000001d0: 35bc 403d b7c1 3834 463d deb8 d8c1 623f
000001e0: 19ba e2bc dec0 a9bc d2bf 1740 7fbb 6d3a
000001f0: e53d b43b 8630 d7b8 1e3c 43c1 3f36 1934
2.113 1.51 -1.513 -0.094 -2.191 1.172 1.575 -0.807
-1.26 -0.8335 -0.5835 0.1805 -0.963 0.53 0.2825 -0.4802
-2.07 0.2583 1.899 -1.963 1.7295 0.3765 1.764 -2.322
1.442 0.5923 -1.602 1.652 -0.9653 2.148 0.8345 -0.3516
-0.285 0.2808 0.05606 -0.7744 0.6655 0.4917 0.3274 0.213
-0.253 -2.594 -0.231 0.3735 0.3943 -0.1158 0.266 -0.03845
-0.717 -0.4119 0.5283 -0.4478 -0.06216 0.01746 -0.954 0.2037
-1.221 -0.649 0.1506 -12.03 -0.1058 0.1368 -0.2522 0.1133
2.652 -0.4053 1.108 2.33 -1.398 -0.1449 3.135 1.099
-1.0205 -0.6895 -0.5044 2.748 2.578 1.933 -4.06 5.188
6.13 -2.477 2.098 -4.906 0.137 -2.56 3.623 -7.957
2.195 -1.498 -3.42 10.9 1.47 -3.877 -7.492 7.098
3.283 0.882 -0.613 0.1447 1.441 -1.688 0.885 -1.389
0.6846 1.368 -1.359 -1.369 0.351 1.724 -4.83 0.3455
2.148 3.871 -1.364 -1.248 -1.2 -0.652 0.7666 2.678
-1.016 0.497 -0.1931 -0.426 4.496 0.532 -3.82 5.33
2.818 -0.3682 -0.865 -0.1902 -0.9536 0.313 4.496 2.734
-0.8735 -1.892 -2.035 6.797 2.137 -0.3054 0.8545 4.94
-3.062 -0.0579 1.173 0.1361 -0.402 0.1571 0.2544 -0.1725
-0.5073 0.1869 -0.3271 -0.02904 0.2588 -0.1154 -0.10645 -0.883
-0.6665 -5.0 2.924 2.697 0.00429 -0.646 0.5044 4.258
2.02 -0.811 1.295 1.35 -7.547 1.179 -0.0145 -3.072
3.615 3.195 -2.797 -3.31 -0.587 -1.277 1.453 2.295
-0.275 -2.918 1.214 2.629 2.967 1.278 -0.5215 3.191
-0.2722 -0.821 0.316 -0.0774 -0.2776 -0.6626 1.164 -0.012
0.2456 -0.3672 -0.0958 0.574 -0.2009 0.1886 0.6714 0.905
0.6035 -0.03726 -1.108 -0.9683 0.0321 -1.768 -1.24 1.318
1.614 -0.8335 0.9097 -0.269 -1.34 0.0076 -1.402 0.11694
3.703 0.1011 -0.597 -0.836 1.671 -2.06 1.397 -0.244
-1.052 1.3125 -2.857 0.2637 1.318 -0.6084 -2.922 1.846
-0.762 -1.221 -2.434 -1.165 -1.955 2.045 -0.937 0.803
1.474 0.963 0.1414 -0.605 1.029 -2.63 0.3904 0.256

arith.constant54 f2 [1, 3, 3, 32]
00000000: 9e30 25b6 3fb2 3dae f9af d0b2 44ae 0634
00000010: bf25 93b3 c533 5134 f5ac e230 f52f 0338
00000020: b330 e9b4 7b32 3db1 9230 60ac d1b1 6d35
00000030: 2f2e b735 f9a9 c6ad e228 5f2d 9734 1a33
00000040: 6533 9e34 43b4 f1b0 1730 3a34 ce32 8c2f
00000050: 4eb1 42b4 4631 7cb4 8dac 6230 c7b4 00a8
00000060: 23af 0537 2aac bc34 db2d 2cb2 12b4 89ae
00000070: dfb4 2eb3 25b4 642f 0737 8731 96b0 91b4
00000080: 692c bb2c 8eb0 21b3 89ae f3ae 57af 1d29
00000090: 5c29 edae 45b3 4e29 fa33 1d20 a11b 8dab
000000a0: 5a34 c5a9 dab6 bfac 932d 0eaf e132 1c90
000000b0: 3c30 c02e 9f2c 4c32 7c29 72ad cfb0 5eaa
000000c0: 3831 2828 f8b3 d7b0 3bb0 6931 dc37 2826
000000d0: 58ae 22b5 2135 3a34 b2a6 6b35 1ab0 79ac
000000e0: 8db1 eb33 6eb2 6f31 2835 73b2 40ae 6d16
000000f0: 73ae a42e 84b0 5fb1 89ae 5331 3dab 0435
00000100: 1f32 efb1 e2b4 dbb4 ca34 ccaa d3b4 e131
00000110: 8bac feb2 c2ab d8b2 f424 cb30 caa9 14ad
00000120: 6aaf 25ae 32ad 3231 89b1 f1b3 c4b0 baac
00000130: f3b2 9cb2 26b5 e2b5 c8b0 e7aa d0ad 74b4
00000140: 02a5 7033 e2a9 dbb4 8bb0 fcaf 83ae 2a28
00000150: 252d 89ae 23b1 9220 9632 e1a9 2e35 96b3
00000160: 062e caaf 7a2f a0ab a8b2 f1a9 8c32 0fb0
00000170: 2136 8e30 2e2a 2998 bbac 1dac ab30 af28
00000180: 822d 0b34 9db2 0ab3 3533 112f 1a2c 3d2d
00000190: d4b3 efb2 f833 fd2c 689f 2d32 f635 03b1
000001a0: 65b6 8e30 e0a9 e2b0 62ad 4db2 0932 bcb4
000001b0: 90ae 6ab3 7caf 2a33 281b fb33 e1af 3f2d
000001c0: 4432 e226 d2b1 53b4 65b3 a6b5 51af 1035
000001d0: e634 46a3 93ad 74b1 f6b1 932e 2ab4 6e33
000001e0: 692f e0b4 4836 56b1 2db1 fbb1 29a1 66ab
000001f0: f72f fcb0 6aaf 2297 aa2c d3b0 46ae 4e14
0.1443 -0.384 -0.1952 -0.0975 -0.1246 -0.2129 -0.0979 0.2515
0.02245 -0.2367 0.2428 0.2698 -0.07745 0.1526 0.1243 0.5015
0.1469 -0.307 0.2025 -0.1637 0.1428 -0.06836 -0.1818 0.339
0.0966 0.3572 -0.04666 -0.0902 0.03815 0.0839 0.2869 0.2219
0.2311 0.2886 -0.2664 -0.1544 0.1278 0.2642 0.2126 0.1179
-0.1658 -0.266 0.1648 -0.2803 -0.0711 0.137 -0.2986 -0.03125
-0.1115 0.4387 -0.06506 0.296 0.0915 -0.1929 -0.2544 -0.1021
-0.3044 -0.2244 -0.259 0.1155 0.4392 0.1727 -0.1433 -0.2854
0.0689 0.0739 -0.1423 -0.2228 -0.1021 -0.1086 -0.1147 0.03995
0.04187 -0.1082 -0.2272 0.04144 0.2493 0.00803 0.003725 -0.059
0.272 -0.04507 -0.4282 -0.07416 0.0871 -0.1102 0.215 -0.0005016
0.1323 0.10547 0.0722 0.1968 0.04285 -0.0851 -0.1503 -0.04974
0.1631 0.03247 -0.249 -0.1512 -0.1322 0.1691 0.4912 0.02405
-0.0991 -0.3208 0.3206 0.2642 -0.02615 0.3386 -0.1282 -0.0699
-0.1735 0.2474 -0.2009 0.1698 0.3223 -0.2015 -0.09766 0.001569
-0.10077 0.10376 -0.1411 -0.1678 -0.1021 0.1664 -0.05655 0.3135
0.1913 -0.1854 -0.3052 -0.3035 0.2993 -0.0531 -0.3015 0.1837
-0.071 -0.2185 -0.0606 -0.2139 0.01935 0.1498 -0.04523 -0.07935
-0.11584 -0.096 -0.0812 0.1624 -0.173 -0.2482 -0.1489 -0.07385
-0.2172 -0.2065 -0.3218 -0.3677 -0.1494 -0.05392 -0.0908 -0.2783
-0.01956 0.2324 -0.04596 -0.3035 -0.142 -0.12476 -0.10175 0.03253
0.0804 -0.1021 -0.1605 0.00893 0.2058 -0.04593 0.3237 -0.237
0.0941 -0.1217 0.1168 -0.05957 -0.208 -0.04642 0.2046 -0.1268
0.383 0.1423 0.04828 -0.002031 -0.0739 -0.0643 0.1459 0.0366
0.08606 0.2527 -0.2067 -0.22 0.2252 0.1104 0.0641 0.08185
-0.2446 -0.2167 0.249 0.07794 -0.007233 0.193 0.3726 -0.1566
-0.3997 0.1423 -0.0459 -0.1526 -0.0841 -0.1969 0.1886 -0.296
-0.10254 -0.2317 -0.11694 0.2239 0.003494 0.2494 -0.1231 0.082
0.1958 0.02689 -0.1819 -0.2703 -0.2311 -0.353 -0.1143 0.3164
0.3062 -0.014206 -0.0871 -0.1704 -0.1863 0.1027 -0.2603 0.2322
0.1158 -0.3047 0.3926 -0.1667 -0.1617 -0.1869 -0.01008 -0.0578
0.12445 -0.1558 -0.11584 -0.001741 0.0729 -0.1508 -0.098 0.001051

arith.constant55 f2 [32, 1, 1, 32]
00000000: abb3 0db7 1e36 81b3 dc34 c333 cdb3 11b2
00000010: 42ad a03a 3dba 5939 34b8 f136 c1b3 b7b7
00000020: 882f 1824 a6b2 579d 922e 84bb a7b1 11b7
00000030: 9d33 12b2 2ba7 163c 553c eeb7 22b2 42b8
00000040: 86b8 39bc 3f39 d9b4 81b3 0930 04bf a6b2
00000050: 092d 6b39 a9bb 84b8 e1b8 a026 8ab7 ce2d
00000060: 13b0 c91d 7bb6 842d 1db8 f936 db39 dc36
00000070: f83a 16b4 8737 c13c b734 69b8 5b35 4aa6
00000080: ca3c ed35 9737 6bbd fdb5 1e24 8fb5 ae2d
00000090: d431 c03a 6f2c 800c 6b3b bc34 1535 17b9
000000a0: 04b4 62af 2fae 9a38 aeb4 16be 18a0 a2b7
000000b0: 0639 3c2f 5fb0 deb7 c238 862a b328 0832
000000c0: bd26 96b0 0a26 86b5 473e ba35 7dad a3b5
000000d0: d4b3 852b c2ae cb32 6735 bba5 b830 982e
000000e0: 0936 e82c 4734 2dae 6c36 a1a9 0db9 c430
000000f0: ab31 cba1 002a 9dac cdb1 f127 5631 11b6
00000100: 0b34 cbba bd39 2f3a 72b4 f8b4 7134 c8b0
00000110: 7bb8 7bb9 d935 042c b4b9 afb8 3db9 4a2f
00000120: 5c38 6e33 30b4 a82e 11b4 3234 5234 5928
00000130: 9ead e9b8 0cb9 4934 96b1 3b37 3c21 4fba
00000140: 4238 bfaa d431 9ab1 0532 4434 e9ba e639
00000150: 0d38 8ab2 54bd 4fb1 2fb6 e539 00b4 d13e
00000160: 27bd 7e3c b0b4 5230 4e2c d2b0 1534 f438
00000170: 76b0 b739 7233 2f3a c336 3738 9533 9db8
00000180: 36ab 30b9 31b0 c8b5 f12c 1a39 4aa8 4bb9
00000190: 2b3b 6eb1 c338 2a3d e734 28bc 78b6 f025
000001a0: 3137 1a37 6fb8 06b3 02ba faba ddb7 a2b7
000001b0: 113b ea33 db2a a9a2 ccb6 15bc 022d d9a8
000001c0: ce38 52ba 5631 db35 1ab4 44b4 9db1 80b4
000001d0: 46aa edba 08bb 4636 3d2c e133 a23d 1bb4
000001e0: 392c cca0 36bf 78b4 523d e3b2 4bbc 2eba
000001f0: 0631 d6ac eb36 56b0 13b4 5836 0c35 782f
-0.2396 -0.4407 0.3823 -0.2345 0.3037 0.2426 -0.2438 -0.1896
-0.08215 0.828 -0.78 0.6685 -0.5254 0.4338 -0.2423 -0.4822
0.1177 0.01599 -0.2078 -0.005215 0.10266 -0.9395 -0.1766 -0.4417
0.2379 -0.1897 -0.028 1.021 1.083 -0.4956 -0.1917 -0.532
-0.5654 -1.056 0.656 -0.303 -0.2345 0.1261 -1.754 -0.2078
0.0787 0.6772 -0.9575 -0.5645 -0.61 0.02588 -0.4712 0.0907
-0.1273 0.00565 -0.405 0.0862 -0.514 0.4358 0.732 0.4287
0.871 -0.2554 0.4705 1.188 0.2947 -0.5513 0.3347 -0.02457
1.197 0.3704 0.4744 -1.3545 -0.3743 0.01608 -0.3474 0.08875
0.1821 0.8438 0.0693 0.0002747 0.9272 0.296 0.3176 -0.636
-0.251 -0.11536 -0.0966 0.575 -0.2925 -1.521 -0.007996 -0.477
0.628 0.11304 -0.1366 -0.4917 0.5947 0.05096 0.0367 0.1885
0.02632 -0.1433 0.02359 -0.3452 1.569 0.358 -0.08575 -0.3523
-0.2446 0.05875 -0.1056 0.2123 0.3376 -0.02238 0.1475 0.103
0.3772 0.07666 0.2673 -0.0965 0.4014 -0.04398 -0.6313 0.1489
0.1771 -0.011314 0.04688 -0.0721 -0.1813 0.03102 0.1667 -0.3792
0.2527 -0.849 0.7173 0.773 -0.2778 -0.3105 0.2776 -0.1494
-0.56 -0.685 0.3655 0.06274 -0.713 -0.5854 -0.655 0.1139
0.545 0.2322 -0.2617 0.104 -0.2542 0.2622 0.27 0.03397
-0.08777 -0.614 -0.631 0.2678 -0.1746 0.452 0.01022 -0.7886
0.532 -0.0527 0.1821 -0.175 0.1881 0.2666 -0.864 0.7373
0.5063 -0.2043 -1.332 -0.1659 -0.3865 0.737 -0.25 1.704
-1.288 1.123 -0.293 0.135 0.06726 -0.1506 0.2551 0.619
-0.1394 0.7144 0.2327 0.773 0.4226 0.527 0.2369 -0.5767
-0.05634 -0.6484 -0.131 -0.3613 0.0772 0.6377 -0.0335 -0.6616
0.896 -0.1697 0.595 1.291 0.3064 -1.039 -0.4043 0.0232
0.4495 0.4438 -0.554 -0.2195 -0.751 -0.872 -0.4915 -0.477
0.8833 0.2473 0.05356 -0.01301 -0.4248 -1.0205 0.07825 -0.03787
0.6006 -0.79 0.1667 0.366 -0.2563 -0.2666 -0.1754 -0.2812
-0.049 -0.8657 -0.879 0.392 0.0662 0.2462 1.408 -0.2566
0.066 -0.00937 -1.803 -0.2793 1.33 -0.2152 -1.073 -0.7725
0.157 -0.07556 0.4324 -0.1355 -0.2546 0.3965 0.3154 0.1167

arith.constant56 f2 [1, 3, 3, 32]
00000000: e22f a4ae 412c c2ae 37b5 b91f 9bae f32e
00000010: 6834 d034 fd29 5735 a630 2f30 ee28 99b4
00000020: 5732 4da6 b22e fa34 15b4 f131 27b5 b8a4
00000030: d5b0 37b4 7fb2 22b3 f228 a529 b62d c3b6
00000040: 7d2a 7d2d 04aa 73b1 5ab1 4ab0 e7b2 5735
00000050: 2731 a335 c3ae 7433 3eb1 4331 04b2 deb1
00000060: 8fb0 03ac 4323 68ae 25b8 9d34 93b0 732d
00000070: a330 0936 14b5 8e34 4d34 de2e 24b2 65a7
00000080: 29b0 e628 f7ad 1d9c 2fa9 9cb0 6fac d131
00000090: 2521 7630 1120 d82d 3921 43a5 22a6 592f
000000a0: 01ae daaa 88ab 0fae 81aa 0232 212d 152b
000000b0: 3733 afb0 caac 702c 5b36 50af 08b0 692e
000000c0: 8134 45b5 a131 b0b5 52af fe2a 9727 1cb1
000000d0: 5ca9 fd30 e6ac 6f31 8db2 0535 de28 22b4
000000e0: 8824 dc34 c92a ff33 f6a8 7a34 782e 4ab5
000000f0: 0229 cdb1 5f30 c2b3 f2a2 802f c4a9 bbb4
00000100: 1732 4734 a935 55b7 b22e 5e32 cd30 d0b4
00000110: 5ca6 4d31 9c31 e932 ecb2 5ca4 8db1 9cb3
00000120: 15a8 2434 3ab3 5a32 24b1 952c f3b4 58b3
00000130: 0535 3822 a728 b0b1 b196 1035 882e 7ab1
00000140: 54b2 9934 03ad 4ea8 3529 d92c 8d31 32ae
00000150: 532c 771e 1da8 eb2e 3d29 33b3 41b5 ebaf
00000160: 9f32 759f 332a 402c 322f edaf 3e2d af28
00000170: 5c31 d2a9 c12b 402f 2234 2ba9 f828 3531
00000180: 5a31 27b3 b7ad 1c2b 4f30 bc30 b934 8f2c
00000190: ebb3 06b3 38b6 d4b0 a4b4 6e2d 6530 f1b4
000001a0: 3fb1 fa34 f5af 06b5 2529 d82d 71ac 1db3
000001b0: e22c 2b31 0c35 142f f396 719f bcb5 bdad
000001c0: f42e d62b f435 32ad 5734 4938 0236 95b0
000001d0: 68b6 82ab 0335 33b1 15b5 85b5 6037 b9b1
000001e0: d234 8c31 92b7 0fad fe22 14af b1b4 20b5
000001f0: d031 09a9 2332 beb1 4bb0 6734 b19e dead
0.12317 -0.10376 0.06647 -0.1056 -0.326 0.00754 -0.1032 0.1086
0.2754 0.3008 0.04678 0.3337 0.1453 0.1307 0.0385 -0.2874
0.1981 -0.02461 0.1046 0.311 -0.2551 0.1857 -0.322 -0.01843
-0.151 -0.2634 -0.203 -0.2229 0.03864 0.0441 0.08923 -0.4226
0.0507 0.08575 -0.047 -0.1703 -0.1672 -0.134 -0.2157 0.3337
0.161 0.3523 -0.10565 0.2329 -0.1638 0.1644 -0.188 -0.1833
-0.1425 -0.0627 0.01418 -0.1001 -0.518 0.2883 -0.143 0.08514
0.1449 0.3772 -0.3174 0.2847 0.2688 0.1073 -0.1919 -0.02888
-0.13 0.03827 -0.0932 -0.004017 -0.0405 -0.144 -0.0693 0.1818
0.01005 0.1394 0.00794 0.0913 0.0102 -0.02055 -0.02396 0.1148
-0.0938 -0.05353 -0.05884 -0.09467 -0.0508 0.1877 0.08014 0.05533
0.2255 -0.1464 -0.0748 0.06934 0.3972 -0.11426 -0.126 0.10016
0.2815 -0.3293 0.1759 -0.3555 -0.1144 0.05463 0.02965 -0.1597
-0.04187 0.1559 -0.07654 0.1698 -0.2047 0.3137 0.03802 -0.2583
0.0177 0.3037 0.053 0.2499 -0.03876 0.2798 0.1011 -0.3306
0.03912 -0.1813 0.1366 -0.2424 -0.013565 0.1172 -0.04504 -0.2957
0.1903 0.2673 0.3538 -0.4583 0.1046 0.199 0.15 -0.3008
-0.02484 0.1656 0.1753 0.216 -0.2163 -0.01703 -0.1735 -0.2378
-0.0319 0.2588 -0.2258 0.1985 -0.1606 0.0716 -0.3093 -0.2295
0.3137 0.012146 0.03635 -0.1777 -0.001634 0.3164 0.10205 -0.1711
-0.1978 0.2874 -0.0783 -0.03363 0.04068 0.07574 0.1735 -0.0968
0.06757 0.006313 -0.03214 0.1081 0.04092 -0.225 -0.3284 -0.1237
0.2069 -0.007282 0.04843 0.0664 0.1124 -0.12384 0.0819 0.0366
0.1675 -0.04547 0.06058 0.1133 0.2583 -0.04037 0.03882 0.1627
0.1672 -0.2235 -0.0893 0.05554 0.1346 0.148 0.2952 0.0712
-0.2474 -0.2195 -0.3887 -0.1509 -0.29 0.08484 0.1373 -0.3088
-0.164 0.311 -0.1243 -0.314 0.0402 0.0913 -0.0694 -0.2223
0.0763 0.1615 0.3154 0.1106 -0.001697 -0.007267 -0.3584 -0.08966
0.10864 0.06122 0.372 -0.0812 0.2712 0.5356 0.3755 -0.1432
-0.4004 -0.05865 0.3132 -0.1625 -0.3176 -0.345 0.461 -0.1788
0.3013 0.1733 -0.4731 -0.07904 0.01366 -0.1106 -0.2932 -0.3203
0.1816 -0.03934 0.1918 -0.1794 -0.1342 0.2751 -0.006535 -0.0917
