assets/fsanet-1x1.onnx (onnx, 966252 bytes, 93 tensors)

msms.s0_conv0.conv.depthwise.weight f4 [3, 1, 3, 3]
00000000: 9ac2 b5bc 1402 413c 57cb 2c3c 214d 0a3d
00000010: c0ea babe b699 a93e de44 403e e4dd 69be
00000020: bfab ae3d 266e cdbb d673 003e 8a2e 13be
00000030: b246 263e c298 bebd a079 85be 68c5 653e
00000040: 95d9 dcbd 47c5 8bbe 11da d43d 3701 f9bd
00000050: c320 17be 2f6a 303e 182e d2bd 1971 babe
00000060: c6b9 2f3e e381 6abd 460f f3bd
-0.02218752 0.011780281 0.010546527 0.033764962 -0.36507225 0.33125085 0.18776271 -0.22838551
0.08528852 -0.006269234 0.12544188 -0.14373222 0.16237906 -0.0930648 -0.26069355 0.22438586
-0.10783688 -0.27298948 0.10393155 -0.12158435 -0.14758591 0.17228006 -0.10262698 -0.36414412
0.1716071 -0.057252776 -0.118681476

msms.s0_conv0.conv.depthwise.bias f4 [3]
00000000: 3b64 ec3d 2713 813e 639a 20be
0.11542555 0.25209925 -0.15683894

msms.s1_conv0.conv.depthwise.weight f4 [3, 1, 3, 3]
00000000: 3189 153e 0494 8e3d 4dd2 3abe 5ee7 583e
00000010: 87ba 8dbc 6023 4ebe b386 45bc 708e 2abe
00000020: 5744 213e efec c4bd 4311 a8be 5b12 40be
00000030: a815 f13d 127d b03e cc4c 1a3e 0d7c 59bc
00000040: c79f c9bb 9dab d33b 4bc3 d33d b79c ab3e
00000050: 7332 1d3e 43da 20bc 3949 b1be c6ed 6bbe
00000060: 9405 26bd fdab afbc d5ea 5a3d
0.14603116 0.069618255 -0.18244286 0.2118201 -0.017300857 -0.20130682 -0.012056041 -0.16655898
0.15748726 -0.09615504 -0.3282567 -0.18757002 0.11771709 0.3447042 0.15068358 -0.013274205
-0.00615308 0.006459667 0.103399836 0.33518 0.15351276 -0.009817663 -0.34626177 -0.23039922
-0.040532663 -0.021444315 0.05344661

msms.s1_conv0.conv.depthwise.bias f4 [3]
00000000: 2ec4 8fbe 8e15 27be 2d25 7d3d
-0.2807936 -0.16316816 0.06180303

654 f4 [16, 3, 1, 1]
00000000: b9cb ba3d dbd0 bbbf a9cb 933f f685 65bf
00000010: a957 213e 5a20 223f 3c13 ac3f a322 643f
00000020: 638b df3c dd6f 30c0 0e9d d0bb 2f77 babd
00000030: c489 e23f 08fc 24be 3af6 c4bd 09df 07bf
00000040: 2f95 383f 10e1 8abf 61f4 03bf 76ed dfbb
00000050: d782 2abf 073c 4fbe b5d8 62bf 3684 183e
00000060: 8134 813f 310e 103e 7b70 fcbe 9f3d 713d
00000070: 66fa d83f 5041 84bf ac69 55be 5afe a0bd
00000080: 28af 4b3f b655 f33d 76d6 a43f f805 e6bf
00000090: ea98 1cc0 4995 c0be feda 183e 7094 103f
000000a0: cee1 be3f ef7a cbbf c6db 4740 c592 433f
000000b0: 117f 62be 7dc0 55bf 39c2 f8bf 4df4 bc3f
0.09120888 -1.4673113 1.1546527 -0.89657533 0.15756096 0.63330615 1.344337 0.8911535
0.027288144 -2.7568276 -0.0063663786 -0.09104764 1.7698293 -0.16111767 -0.096172765 -0.530747
0.72102636 -1.0849934 -0.5154477 -0.0068337275 -0.66605896 -0.20237742 -0.8861192 0.14894184
1.0094148 0.14067914 -0.49304566 0.058896657 1.6951416 -1.0332432 -0.20841092 -0.07861014
0.7956414 0.118815824 1.2877948 -1.7970572 -2.4468331 -0.37613896 0.14927289 0.564765
1.491266 -1.5896891 3.122789 0.7639583 -0.22118784 -0.8349684 -1.9434272 1.4762055

660 f4 [16]
00000000: 8e0d 4c3f 00a9 d2bb 2d48 04bf 6e0b 883e
00000010: 4064 d23c 0070 f6bc 165a 8d3e 404e 133f
00000020: 039e 98be 13ea 1dbf a7b0 a6bd dc4c 4abe
00000030: 8171 cd3e a9ce e9be 065d 21bf 4eea 793f
0.7970818 -0.006428838 -0.5167263 0.2657122 0.025682569 -0.030082703 0.27607793 0.57541275
-0.29808053 -0.61685294 -0.081391625 -0.19755882 0.4012566 -0.45665482 -0.6303257 0.97623146

678 f4 [16, 3, 1, 1]
00000000: ed8d 0940 b3cc 63bf a5b5 2d3f 2595 d1bf
00000010: 9fc6 873f d4f0 eabe ad61 66bf ffeb 9640
00000020: 7517 9440 f7b8 893f 9a7b 83c0 aa7e bfc0
00000030: e49a bc3f d764 b9c0 756a b0c0 983e 18c0
00000040: 3dd9 823e 0508 063e 25a1 113e b52a 0b3f
00000050: 722c 1c40 2eb3 0440 ec8f 613f 8289 653d
00000060: 32d3 cabe 6829 d6bf 7b33 d43f a094 f1bf
00000070: 70aa 853e 0ade d0be f018 a43e 81be 37be
00000080: 23b4 f03f c1ae 1d3c 17a5 42c0 db69 4cc0
00000090: 70bf b6bf d438 af40 ffc5 c340 69e1 e8bf
000000a0: 9b62 f9bf 71f3 40be ccce 083e 23c4 db3f
000000b0: 4d9d 90bf ca16 8c3f ec32 1b40 624f b5bd
2.1492875 -0.8898422 0.6785529 -1.637364 1.0607489 -0.45886862 -0.8999279 4.716308
4.6278634 1.0759572 -4.108838 -5.984212 1.4734769 -5.7935596 -5.5129952 -2.3788204
0.25556365 0.13088997 0.14221628 0.5436204 2.4402127 2.0734363 0.8811023 0.05603934
-0.39614254 -1.6731386 1.657821 -1.8873482 0.26106596 -0.40794402 0.32050276 -0.17943765
1.8804973 0.009624184 -3.0413263 -3.193961 -1.4277172 5.475687 6.1179194 -1.819379
-1.9483217 -0.18842866 0.13360137 1.7169231 -1.1298004 1.0944455 2.424983 -0.08853032

684 f4 [16]
00000000: 2d82 f03e 74b9 0abe 02be 643e 5abc b73d
00000010: 5f79 26be 84af 27bf 1f02 c63c 82ee 2d3f
00000020: e2c0 e5be fc09 ffbe 0446 b9bd 28db 313e
00000030: b1ec e53d 42d3 4abf 3ca6 e73e 7932 343f
0.46974316 -0.13547307 0.22338107 0.08971472 -0.16257237 -0.6550219 0.024170933 0.6794206
-0.4487372 -0.49812305 -0.090465575 0.17368758 0.11226786 -0.79228604 0.45244014 0.70389515

msms.s0_conv1_0.conv.depthwise.weight f4 [16, 1, 3, 3]
00000000: 5f75 c83d 8065 8cbd c65f b1bd 574b 3fbe
00000010: 0a26 dfbe 57f7 153e dc6a 013e 9e47 5ebc
00000020: b17e 9b3d 5197 ed3d 2716 c1bd b954 51be
00000030: 4e0d 35be 2a70 e83e 5daa fb3d 1f89 4cbd
00000040: 17c0 1fbe c8d1 353d c404 91b8 3cec 27be
00000050: a9df 0c3e d1ce 063e 569c 92be e50b d63c
00000060: 81a3 dfbd dc41 91be 1e63 1e3e f388 96bd
00000070: b692 af3e 1fa5 3bba 470e 5dbd 4cd8 c13e
00000080: db1f 16bd 268f babd 7756 cc3c 0a8b 9bbd
00000090: 8958 3e3d bf47 d6bd b876 9a3b ab73 76be
000000a0: 2558 f33e b4db 2e3d 0e95 d2bd 7f8e 57bd
000000b0: 38dc 94bd 2d9a 263c f698 0f3e f7d9 55be
000000c0: 6587 11be 7feb 46bc 1616 a5be e982 143e
000000d0: 924f 433c 0603 b03e 4dba d93d e284 eebd
000000e0: 0f2b f1bd cdcb b7be f10a 993e f4dc 483e
000000f0: e624 31be 3fc7 943d d4f7 ba3d a77b e23e
00000100: a07f 83be d198 0cbe 4ee4 c7bd f893 bdbd
00000110: dd49 6b3d f07a 9d3d f637 5b3d 5f92 4dbc
00000120: 62ff b43c 90ac 71be 1dbc 0a3c 2a1e 933d
00000130: 8aff 97be 32f3 37bd 8008 68be 48ad 0bbd
00000140: f11a e33c 19e2 f1bd f1f1 97be 470a 193d
00000150: a5e7 883e 531d 813e c6c8 01be ec4e 5abd
00000160: c08f aa3d 55e0 c6bd 05ab a5be aa03 8abd
00000170: 8aed f23c 7a0c c0be 7def 953d 09db 4dbe
00000180: e73d 4ebc 6efc 843e 2bdc 6f3e b4a8 98bd
00000190: 607e 7fbd cbaf 383d a677 11bd 36a4 dbbe
000001a0: ec88 243b c0b3 583e 8ef5 b83e 463b bf3c
000001b0: e02d 12be 5579 523d 610f b93d 6085 4fbe
000001c0: 0dce c4be 96f6 efbd 84e4 44bd bbda bcbb
000001d0: 65d3 98b8 50b7 04be d776 bf3c fc14 803d
000001e0: 9a45 bfbe b6c7 3c3e ae0c 8bbd 29d1 e7bd
000001f0: 5b0c a93e 6b2a d43c 7da5 f03c 1c4a 063f
00000200: f4f2 813d d2c3 873c 06ee 723e 62a1 273d
00000210: a908 c9bd 887f c0bd ee0c 76bd 39b2 fb3d
00000220: 4a83 51be 6e59 503b 7d75 ae3e 6530 14be
00000230: 9b81 75be 5c11 8f3d 507e a8bb 7a82 dbbc
0.09788012 -0.06855297 -0.086608455 -0.18681084 -0.4358371 0.14645134 0.1263842 -0.01356688
0.07592524 0.11601127 -0.09428053 -0.20442475 -0.17680857 0.45398074 0.122883536 -0.049935456
-0.1560062 0.044389516 -6.9150265e-05 -0.1639871 0.13757195 0.13164832 -0.286349 0.026128719
-0.10919858 -0.2837056 0.15467498 -0.0735034 0.3429162 -0.0007158089 -0.053968694 0.37860334
-0.036651473 -0.09109335 0.024943573 -0.07594879 0.046471152 -0.10462903 0.0047138594 -0.24067561
0.47528186 0.042689994 -0.10282336 -0.05262613 -0.07268566 0.010168594 0.14023194 -0.20883928
-0.14211805 -0.012141108 -0.32243413 0.14503063 0.0119208265 0.34377307 0.10631237 -0.11646439
-0.11775791 -0.35897675 0.2989116 0.19615537 -0.17299232 0.07264566 0.09129301 0.44234964
-0.25683308 -0.1373017 -0.097603425 -0.092567384 0.05744349 0.07689464 0.053520165 -0.012547105
0.022094432 -0.23600984 0.008467701 0.07183488 -0.29687148 -0.044909663 -0.22659492 -0.0341008
0.027722808 -0.11810703 -0.29676774 0.037363317 0.2673923 0.25217685 -0.12674245 -0.053297922
0.083281994 -0.09710757 -0.3235704 -0.0673898 0.029654283 -0.3750952 0.073210694 -0.20103087
-0.012588001 0.2597384 0.23423831 -0.074540526 -0.06237638 0.045089524 -0.035514496 -0.4289872
0.0025106026 0.21162319 0.36124843 0.023343693 -0.14275312 0.051385242 0.090361364 -0.20265722
-0.38438454 -0.117169544 -0.048069492 -0.0057633794 -7.2873e-05 -0.12960553 0.023372097 0.062540025
-0.3735779 0.18435559 -0.06789528 -0.11319191 0.3301724 0.025899133 0.029375786 0.5245683
0.06345168 0.016572867 0.23723611 0.04092539 -0.09816105 -0.09399325 -0.060070924 0.12289853
-0.20460239 0.0031791585 0.3407401 -0.14471586 -0.23975222 0.06985733 -0.0051420107 -0.026795615

msms.s0_conv1_0.conv.depthwise.bias f4 [16]
00000000: 60a1 3cbe a1d2 9e3e a1e4 9f3d 8701 b43e
00000010: 9643 013e cc56 bbbd e71b a63d 8e9d fe3d
00000020: 6824 b43b 95d8 2cbd 1c57 a4be dbb7 803e
00000030: 8a55 54b8 7627 f83e 063a fd3e 673c 643b
-0.18420935 0.31020072 0.078072794 0.35157415 0.12623438 -0.091474146 0.08110791 0.12432395
0.005497504 -0.042198736 -0.3209771 0.2514027 -5.0624403e-05 0.48467606 0.4945833 0.0034826042

msms.s1_conv1_0.conv.depthwise.weight f4 [16, 1, 3, 3]
00000000: 85e3 4abc 9593 a23d bc31 873e c272 313d
00000010: efc5 d73e 2ff3 b13e d855 a9bc 9d6a 113e
00000020: bfb5 573c f0a5 aa3d 7668 bcbe 3400 6ebe
00000030: 208d 14bd 3b8c b6be fc61 ef3c 647d 42be
00000040: 45cd 02be 450c 54bd 8b82 df3c 99ff 0bbe
00000050: 1e32 6d3e 0f3c 09be 6ddc 88be 76e6 e83d
00000060: 6444 5bbe 8dde 973d 9340 ba3d b2a7 23bc
00000070: 598a a23d ea9c dfbd c397 b6bc 6f6f 083f
00000080: c33f 2ebe 704a ae3d 4bce 00b9 a317 b7bd
00000090: 3f6e 3cbd b180 81bd 2e1c 483d 7ef9 a1bd
000000a0: 1b7d 9ebd 5861 843e 596a 50bd d3e9 aa3e
000000b0: fd4d 8b3e 2226 d3ba 0698 e7be 8cd5 96be
000000c0: 9a92 54bd 604d 99bb a5dc 103d 8a68 4a3c
000000d0: dbf8 473e 6a93 3e3c e0a5 f63d 893b f63e
000000e0: 78ef 83bd 2270 053e c854 21be bdc8 babd
000000f0: 78db 9e3d 10ff edbc 514b 2fbd fece 2a3c
00000100: 8e7c 13be aefa 3dbe 3711 a9bd e0d0 17be
00000110: 1652 8abd b9ef a0bc a27c 2dbe 4629 c2be
00000120: 1126 2cbd e8a9 783e 7e97 3a3d 5143 2dbd
00000130: 6f1f 333f 5d73 1a3e 1678 f03c bdb2 413d
00000140: 2533 acbc 40e9 0e3c 8c96 3f3d 6435 79bd
00000150: a74c 70bd 2c0e 48be 88db 8cbe 6090 0d3d
00000160: e478 98be 2636 02be 0101 05bd e1c5 dcbb
00000170: c2af 82be 7a28 3e3e 19c0 4b3e 93a3 a5be
00000180: d8ad 2b3d d238 b03d 8a48 3f3e 0872 363e
00000190: 3fc1 5f3e 94b1 ac3e 636d 65bb 92b3 053d
000001a0: 1b62 7b3d 5779 bdbd 31f8 01be b3f1 94be
000001b0: 2c07 13bb dc35 0a3e 84a1 a33d 436e 37bc
000001c0: fcd0 e53e b3a1 6f3e e744 aebc 1c9f b53d
000001d0: 2ef4 503d e72b 853d f7d1 7d3d 32a7 70bd
000001e0: f39d ebbd 2a29 03bf f1be febd b30e 2fbd
000001f0: d74d 78be bac0 adba 48f6 86bd 54c3 643e
00000200: ea36 3e3e 71d0 b7bd 4007 883e b76d df3e
00000210: a3d4 333d cb67 53be 646b 8bbc 405b 1d3d
00000220: 783d 97be e515 cdbd 0022 4dbd 57e9 bdbe
00000230: 915a 4cbe f285 28be 832e 48be 63e2 d3bc
-0.012383346 0.07938305 0.26405132 0.043322332 0.421432 0.34755847 -0.020670816 0.14200826
0.01316589 0.08332431 -0.36798447 -0.23242265 -0.0362674 -0.35653862 0.029221527 -0.18993145
-0.12773617 -0.051769514 0.027283927 -0.13671722 0.2316365 -0.13401817 -0.26730672 0.11372082
-0.21412808 0.07415495 0.09094348 -0.009988712 0.07936544 -0.10918601 -0.022289163 0.53295034
-0.1701651 0.085102916 -0.00012283881 -0.08940055 -0.046003576 -0.06323374 0.048855 -0.07908915
-0.07738706 0.25855517 -0.05088267 0.3338152 0.27207938 -0.0016109387 -0.45233172 -0.29459798
-0.051897623 -0.0046784133 0.035366673 0.012354026 0.19528525 0.011631826 0.12043357 0.48092297
-0.064421594 0.13031057 -0.15754998 -0.09120319 0.07756704 -0.029052287 -0.042796437 0.010425327
-0.14402983 -0.18552658 -0.082552366 -0.14825773 -0.06753938 -0.019645559 -0.16942075 -0.37922114
-0.04202849 0.24283564 0.04555463 -0.042300526 0.6996984 0.1508307 0.029354136 0.0472896
-0.021020481 0.008722603 0.046774432 -0.060841933 -0.05866685 -0.19536656 -0.2751124 0.034561515
-0.29779732 -0.12715968 -0.03247166 -0.006737456 -0.25524718 0.18570128 0.19897498 -0.3235136
0.041913837 0.086045876 0.18680015 0.17816937 0.21851061 0.3372923 -0.0035007827 0.032641955
0.061372858 -0.09251659 -0.12692334 -0.29090652 -0.0022434695 0.13497108 0.07989791 -0.011195722
0.44886005 0.23401527 -0.02127309 0.08868238 0.051014118 0.06502514 0.061967816 -0.0587532
-0.11504736 -0.51234686 -0.12438763 -0.042738628 -0.24248444 -0.001325629 -0.06589943 0.22340137
0.18575636 -0.08975304 0.2656803 0.43638393 0.043903958 -0.20645063 -0.017018981 0.0384171
-0.29539084 -0.10013942 -0.050081253 -0.37092087 -0.19956423 -0.16457346 -0.19548993 -0.025864786

msms.s1_conv1_0.conv.depthwise.bias f4 [16]
00000000: 44d0 41be eea6 983e 8bb6 963e 8637 f0bd
00000010: e3a7 343e a9b4 e8bd a8d2 4bbe 5c74 12be
00000020: c2a9 0abf 1313 08be 4d18 15be 0bcb 133d
00000030: b883 3b3c 3536 cd3d a6b3 083b 2e8b af3d
-0.18927103 0.29814857 0.29436144 -0.1172934 0.17642169 -0.11362583 -0.19904578 -0.143022
-0.5416528 -0.13288526 -0.14560051 0.03608231 0.011444978 0.10020105 0.0020859032 0.08571468

702 f4 [32, 16, 1, 1]
00000000: 1be1 0abe 406d 3dbe afdf ccbf d3ae 263f
00000010: 81f0 573f 86ec abbe 623a 223f 31ff d13e
00000020: e5c3 d53e c7eb 873d 7915 48c0 feff 2b3e
00000030: b9b1 e13d 4e50 6b3f 6319 cbbd 4a1f 503e
00000040: fda1 943f 7418 2c40 8897 b2bf 513e 8f3f
00000050: 8326 72c0 5e90 1940 87e6 02c0 bae5 13c0
00000060: 0469 f8be 92dd e13f b1c5 263f 2752 9cbf
00000070: 7718 3040 dce3 953f 8aa8 cabf 20eb dbbe
00000080: 0aa1 3640 86b7 bf3f 91ed 86be e0b2 adbf
00000090: 6a2a eabf 3264 47be 09bd 1cbf 3ac9 b7bf
000000a0: 0262 b83d d9ca f73f 94f5 103f abe0 bdbf
000000b0: 1870 51bf 132c 723e 11c8 8abf 9a1a 94be
000000c0: c9c8 aabe 802e f0bf 3150 7bbe df05 e2be
000000d0: 2f82 bfbf f202 4abf e088 32bf d496 0fbe
000000e0: 49a9 f8bd 8227 8dbe 0a58 2c3f e2e6 cf3f
000000f0: ab93 bbbf e816 1bc0 3251 31bf fff2 23bf
00000100: e0f7 3dbf 6e24 0dbe 7f87 eb3f 45c9 a0bd
00000110: 83c1 8c3c e412 2d3f 5947 9dbf bf88 cabf
00000120: 3dd9 143b 2620 a1bf 8b98 b03f 1dec c7bf
00000130: de67 7cbd ffd1 dfbf 9651 16bf 4258 91bf
00000140: 04d0 853f 488b 8c39 0e34 303f a1c3 b2bf
00000150: 817f 363e d444 7cbf e8f0 78bd 673c d6bd
00000160: 6d10 6d3f 7d70 503e 948c efbe fb40 0b3e
00000170: 212e f73f 1f07 5dbf 5812 f8bf 8773 a83f
00000180: a8b7 a2be 6f40 233e 7b68 983f d028 10bf
00000190: 11dd a83f ba47 483f b4af 37bf 46b8 9440
000001a0: 7981 f13e 0704 d93f 12d3 703f aea8 41bf
000001b0: dc1d 4dbe 9813 24bf 280f b3bf c553 5fbe
000001c0: 6ebf 203f 1c45 05c0 cb72 06c0 e9d1 0bc0
000001d0: 0b70 a5bd 5310 7b3f 5893 923d 37bd 00bf
000001e0: e671 b8be 9d27 743f 75b8 20c0 e4a8 ae3f
000001f0: e120 553f 1173 90be 905b dfbf 6eff 593f
00000200: 5de5 8cbe 9dc2 8cbd 2451 aa3e ed20 33bf
00000210: 8125 2bbf 8202 a43f ba66 eebc 019a ee3e
00000220: a192 9e3f 043b fdbe ce06 61be fe2f c53f
00000230: aa94 8f3e ae6f 233e 1422 acbe 8e72 683d
00000240: b54c cf3d 22fc f53e acca 2bbf d0e1 0240
00000250: 3fee 4ebf 0a9b 6dbe ff67 d33e 9dd0 61bf
00000260: e9b9 61bf 79f0 be3e 9055 083f 0f6b 60be
00000270: 7d86 af3e 6552 bfbd 6a7d c8be 7fab 07be
00000280: 251a 0a40 3538 d83e bb75 af3f ceee 2e3f
00000290: 6780 f13f 8652 d7be 75c3 1fc0 f738 febf
000002a0: e038 8e3d 0c34 8f3f 0e24 af3e 7333 813f
000002b0: aef1 3e40 4591 bbbe f2c6 fa3e 15a4 62c0
000002c0: 3a8f 0140 ef07 7bbd d8f5 9c3e 1fda 3bbf
000002d0: aa9d 56bf 7dbe 863e 1918 07c0 8f6f 9c3c
000002e0: ed60 e43d 3f55 ea3d d456 283e 7cf7 74bd
000002f0: 616a b93e 01ec e7be d73d 38be 9821 8fbf
00000300: 76a8 42bf 37ef db3f af02 cbbf 145a 21be
00000310: c967 bebf 3c43 f1bf 0c32 023f f4e4 dcbf
00000320: 6577 4e3f 38b4 41bf 154f 93be 185d 813f
00000330: 8e2f 113f a10f b33f 0ca1 96bc 32a1 47be
00000340: 3231 353f 017d 20bf f2c5 113e 04a7 5e3e
00000350: 2564 c9bd d919 53bf 8d89 e7be 37b4 333e
00000360: a421 a93d b384 f13e 606f 113f 4fb0 20c0
00000370: ee56 223b 74ae 8cbe c392 19be 524a 88be
00000380: 6140 113f 77cc bf3e a2d7 943d 9901 833e
00000390: dbc8 96bf 508f 1f3d 30c0 01bf edf9 0140
000003a0: 62df 0fbe 423a 6b3e 28b5 073f cfb6 48bf
000003b0: 9d97 b03f ea42 2440 4aac 133e c59a 8b3f
000003c0: 770a 2a3f 7a8b eebe 7bf2 e3be f451 45bf
000003d0: 6eb6 0f3f 8ed6 aabe 820f 50be 1704 d23e
000003e0: 28e9 9f3e 6943 80be ac68 43be 6c2f 2b3e
000003f0: 7887 c83f 6394 25bd afc6 19c0 223d da3e
-0.13562433 -0.18498707 -1.6005763 0.6511051 0.84351355 -0.3357889 0.63370335 0.41015008
0.41751018 0.06636768 -3.1263106 0.16796872 0.11020226 0.9191941 -0.099169515 0.20324436
1.1611935 2.6889925 -1.3952494 1.1190892 -3.7836006 2.3994365 -2.0453203 -2.3108964
-0.4851762 1.7645743 0.65145403 -1.2212571 2.7514932 1.1710162 -1.5832684 -0.42952824
2.853579 1.4977882 -0.26353124 -1.3570213 -1.8294194 -0.19471815 -0.61225945 -1.4358284
0.090030685 1.9358779 0.5662472 -1.4834188 -0.81811666 0.23649625 -1.0842305 -0.28926545
-0.33356312 -1.8764191 -0.2454231 -0.44145104 -1.4961604 -0.78910744 -0.69740105 -0.1402238
-0.121416636 -0.27569205 0.67321837 1.6242335 -1.465444 -2.423273 -0.6926452 -0.6404266
-0.7420635 -0.13783428 1.8400725 -0.07850889 0.017182117 0.6760695 -1.2287399 -1.5822982
0.0022712492 -1.2587936 1.3796552 -1.5618931 -0.061622493 -1.7485961 -0.5871824 -1.1355059
1.0454106 0.00026806653 0.6882943 -1.3965951 0.17822076 -0.98542523 -0.06077662 -0.104607396
0.9260319 0.20355411 -0.4678694 0.13599007 1.9310952 -0.8633899 -1.9380598 1.3160256
-0.31780744 0.15942548 1.1906885 -0.56312275 1.3192464 0.78234446 -0.71752477 4.6474943
0.47169092 1.6954354 0.9407207 -0.7564801 -0.20030922 -0.640924 -1.3989 -0.218093
0.627921 -2.082343 -2.1007564 -2.184687 -0.08078011 0.98071784 0.0715701 -0.5028872
-0.36024398 0.95372945 -2.5112584 1.3645291 0.83253294 -0.2821279 -1.7449818 0.8515538
-0.2751874 -0.06873057 0.3326503 -0.69972116 -0.668541 1.2813265 -0.029101718 0.4660187
1.2388498 -0.49459088 -0.21975252 1.5405271 0.2804311 0.15960571 -0.3361975 0.056749873
0.101220526 0.48043925 -0.6710613 2.0450325 -0.80832285 -0.23203674 0.4129028 -0.88208944
-0.881743 0.3729284 0.5325556 -0.2191584 0.34282294 -0.093418874 -0.39158183 -0.13249014
2.1578457 0.42230383 1.3707803 0.6833314 1.886731 -0.42055148 -2.4963048 -1.9861134
0.06944442 1.1187758 0.34207195 1.0093826 2.983501 -0.3663427 0.48979908 -3.5412648
2.0243669 -0.061286863 0.30656314 -0.733797 -0.83834326 0.26317206 -2.1108458 0.019096164
0.111512996 0.11442041 0.16439372 -0.059806332 0.36213973 -0.45297244 -0.1799234 -1.1182127
-0.760383 1.7182378 -1.5860194 -0.15757018 -1.4875423 -1.8848643 0.50857615 -1.7257371
0.8065093 -0.75665617 -0.28771272 1.0106535 0.5671319 1.3989145 -0.01838734 -0.19495085
0.7077819 -0.6269074 0.14235666 0.21743399 -0.09833554 -0.82461315 -0.4522213 0.17549215
0.082583696 0.47171554 0.5681057 -2.510761 0.0024771052 -0.27476847 -0.14997391 -0.26619202
0.5673886 0.37460682 0.07267691 0.25587156 -1.1780046 0.038955033 -0.5068388 2.0308793
-0.14050058 0.22971442 0.530108 -0.78403944 1.3796269 2.566584 0.14421192 1.0906607
0.6642222 -0.46590787 -0.44520935 -0.77078176 0.5613774 -0.33366817 -0.20318416 0.41018745
0.31232572 -0.2505143 -0.19082898 0.16717309 1.5666342 -0.040424716 -2.4027517 0.42624766

708 f4 [32]
00000000: 38cc e2bf 2492 bc3f 5746 2140 b4e1 0640
00000010: a228 2740 e679 1140 1004 9e3f 88af 0a40
00000020: fdd2 e23d 5b88 37be 213f 053f c57f c53f
00000030: dbe2 aebf 736d a93f 1eec 80bf 9abe e13f
00000040: 8488 4b3f e239 c3be 82c5 993f dc4d bbbe
00000050: 9fa7 0fbf 5e1e acbe 0b5c cebf ec57 a83f
00000060: e24d 7d3f 18e8 db3f 19a1 a43f 1ecc 833f
00000070: e256 b5be b31c d2be 200f e3bc 5e90 7240
-1.7718573 1.4732099 2.5199182 2.1075258 2.611855 2.273065 1.234499 2.1669636
0.11075399 -0.17923109 0.5204945 1.5429617 -1.3662981 1.3236526 -1.0072057 1.7636292
0.7950518 -0.381301 1.20134 -0.3658284 -0.56115144 -0.33616918 -1.6121839 1.3151832
0.98946965 1.7180204 1.2861663 1.0296667 -0.3541785 -0.4103752 -0.027717173 3.7900615

750 f4 [32, 16, 1, 1]
00000000: c282 85bf 96d9 afbf 6929 61c0 2d77 693f
00000010: 5e1c debf 4a3c 30bf 2962 0140 07c8 94bf
00000020: 9a31 cabf 6f06 1a3f 4e05 4340 2f24 efbf
00000030: cd78 0ec0 f9d4 eebf 5f4c 2fc0 dcb4 ce3e
00000040: 6faf d93f 0ac1 57bf faa5 2640 7b45 b53f
00000050: 2a8f 273d 3bde 9a3f e67f ebbf a41f dd3f
00000060: 5eb6 20bf 1f56 1bbf bdab 2ebf f82c 9f3e
00000070: 221b 883e 176b f33f 7f6a 96bf 8889 403f
00000080: 6c13 f03e 0273 383f 6f1f 36bf b549 bbbe
00000090: 0118 1cbf e4ce 1ebf 0eef cbbf c275 53bf
000000a0: fa91 92bf 7291 9fbf 6dab 763f 078a b2bf
000000b0: 0c5d 2d3f 2885 5cbd b64a c1bf 7479 e13f
000000c0: 885c 0ec0 898f ab3f 6468 8d3d 1f81 e1bf
000000d0: 6855 e83e 9826 f3be 7288 febf 698e cdbf
000000e0: d781 d93f b69f ac3f ddf1 c83e a11f 303f
000000f0: 2130 723f 0443 24c0 b7c9 2b3f 1c68 86be
00000100: 3ad5 71bf 2255 be3f ad67 46bf c0f7 4c3f
00000110: 7037 e03d 8fc2 7840 4458 8d3e 8ba1 463e
00000120: dabb e33e c1c3 863f 7c41 883e e268 a5bf
00000130: 8f60 5c3d 6570 e33e 85df 46bd 1aa6 9abf
00000140: 5bb4 34bf 6289 9bbf f9c7 4b3e 6afb 0440
00000150: 111a 0c3e adea 5b3f 06e2 31c0 f8b4 89bf
00000160: c19a 14c0 fad2 16be 9307 823f a150 18bd
00000170: b4fd 203f 234a 45bf 0b49 b6bf 3e43 6cbe
00000180: 574e ce3e ccdd 1b40 2c2d e33f 5d08 87bf
00000190: 1a66 b5bf c8bf 23bd 454a 05bf e3aa a9be
000001a0: b9a0 f7bf 82b5 5bbe c3fc 1bc0 3319 7bbf
000001b0: a295 243f 4918 f1bf 0b37 623f a18a 463f
000001c0: 13da 13c0 677f 2740 3111 8b3e b3ad 0dbf
000001d0: 1464 8b3f 405c 85bf 3028 34bf eb43 a43f
000001e0: 6ab2 7a3f 6f25 8940 30e4 1dbf 09f1 ff3e
000001f0: 3c38 bcbd b23e 0dc0 358f c73d aecd dcbf
00000200: 22b0 bdbe bb66 c63e 8561 67bf df2b fc3e
00000210: 2953 92c0 27d0 693f 61e8 61bf df85 3cbf
00000220: 3e26 9ebe 4b26 bdbe d0a2 003f b098 6840
00000230: 7b39 3b3f b2fb 89bf cdf3 133e 5714 ae3d
00000240: a8a4 953e 04ae c7bd 67cd e0be aaa7 35bf
00000250: aff6 18be e81b b3bf e088 353f 58b2 653e
00000260: 562b 4abf 5782 fdbe 7dff 3d3f 23c1 7cbe
00000270: 9b08 1abf 68c9 2740 95fc 00bf 4940 1140
00000280: ab0d 4a3f f4da 38bf 06d1 c03e 1781 c93e
00000290: 861c 37bf 479c 543f 304c 613f 3528 7d3f
000002a0: 5a86 2840 4131 333f 37a1 e5be a679 8bbe
000002b0: e8a3 983f b96c a73e a3e4 c13e d7e6 81be
000002c0: bb85 3f3f 69ec 59be 6c86 c63e 7824 e03c
000002d0: fe17 6cbe 4fba 04bf 1add 04bf 9715 7e3d
000002e0: a0af ccbe b702 823d 776a cc3e efa8 743e
000002f0: 4408 ca3f 284e 3ebe 5190 a83e 7a88 db3c
00000300: 4a8e 84bf d10d 023e 9013 7e3f 2adc cdbf
00000310: 7d7f 6f3e be4b aabe 2878 283e 55d6 b2bf
00000320: 6d7c 92bf 8aca 34bd 71a9 17c0 0b2d bcbe
00000330: a4b4 e0bf 918a bd3e c8fc 6f3f 87c2 b8bf
00000340: 96cd 2ac0 2e62 11be 9c78 ae3f e642 f33f
00000350: 29e4 81bf 2090 7c3f ec38 97bf 5ff1 d1be
00000360: 3370 40bf 0343 ad3d 333d c03e 6a2a 1940
00000370: 302f 85bf efaa d33d cb8c bb3f b000 c4bf
00000380: abc7 54be 8290 1e3f c6c6 143f 96b2 02bf
00000390: c0c7 0e40 965d 483c bd0b 57be 630c 62bf
000003a0: df37 1bbd 43b6 f53d d5aa 383e 0097 3ec0
000003b0: c35b f73e 7fa9 d3bf 0816 9ebe d620 803d
000003c0: b5fe aabf aae3 fd3b 93c1 c6bf b220 5640
000003d0: fbef 2d3f 8303 e6bf e60a 743f 5bc0 e53f
000003e0: 0df6 4740 efca 743f 8793 d73f 11af b33e
000003f0: 514f c73f b07d 2b3f 960f 2dbf 8e8f b8bf
-1.0430529 -1.3738277 -3.5181525 0.9119747 -1.7352407 -0.68841994 2.0216162 -1.1623544
-1.5796387 0.60166067 3.0471988 -1.8682917 -2.226123 -1.8658744 -2.7390363 0.4037236
1.7006663 -0.8427893 2.6038804 1.4161829 0.040908016 1.2099069 -1.8398407 1.7275281
-0.6277827 -0.60678285 -0.682308 0.31088996 0.265832 1.9017056 -1.175125 0.75209856
0.46889818 0.7205049 -0.71141714 -0.36579672 -0.6097413 -0.6203444 -1.5932329 -0.8260156
-1.1450799 -1.2466261 0.96355325 -1.3948373 0.67720103 -0.053837925 -1.5100925 1.761519
-2.2243977 1.3403178 0.069046766 -1.761753 0.4537766 -0.47490382 -1.988539 -1.6059085
1.6992749 1.348624 0.39247027 0.6879826 0.9460469 -2.5665903 0.6710467 -0.26251304
-0.9446598 1.486973 -0.77501947 0.80065536 0.10948074 3.886875 0.27606404 0.19397561
0.44479257 1.0528489 0.2661246 -1.2922633 0.053803023 0.44421688 -0.04855301 -1.208194
-0.705877 -1.2151301 0.19900502 2.077845 0.13681819 0.8590496 -2.7794204 -1.0758352
-2.3219454 -0.14728919 1.0158561 -0.03718627 0.6288712 -0.7706625 -1.4241041 -0.23072526
0.40294144 2.4354124 1.774816 -1.0549427 -1.4171784 -0.03997782 -0.5206645 -0.3313819
-1.9345924 -0.21455958 -2.4373024 -0.98085326 0.6429082 -1.8835536 0.8836524 0.7755528
-2.3101852 2.617151 0.27161554 -0.5534317 1.0889916 -1.0418777 -0.7037382 1.2833227
0.9792849 4.2858195 -0.6167631 0.49988583 -0.09190413 -2.2069516 0.097441114 -1.7250268
-0.3704844 0.38750252 -0.9038318 0.4925222 -4.5726514 0.9133324 -0.8824521 -0.7364177
-0.3088855 -0.36943278 0.5024843 3.6343193 0.73134583 -1.0779936 0.14448471 0.08499973
0.29227185 -0.09749988 -0.4390671 -0.7095896 -0.14937852 -1.3992891 0.7091198 0.22431314
-0.78972375 -0.49513504 0.7421797 -0.24683051 -0.6016938 2.6216679 -0.5038541 2.2695487
0.78927106 -0.72209096 0.37659472 0.393563 -0.715279 0.8305096 0.8800688 0.98889476
2.6332002 0.6999703 -0.4484956 -0.27241248 1.192502 0.32700136 0.37869748 -0.2537143
0.7481343 -0.2128159 0.3877443 0.02736114 -0.23056027 -0.51846784 -0.51899874 0.06203231
-0.3997774 0.06348174 0.39924976 0.23892568 1.5783772 -0.18584502 0.32922605 0.026798476
-1.0355923 0.12700583 0.992486 -1.6082814 0.23388477 -0.33260912 0.16452086 -1.3971659
-1.1444222 -0.04413847 -2.369717 -0.36753115 -1.7555127 0.3701978 0.9374509 -1.4434365
-2.668798 -0.14197609 1.3630557 1.9004791 -1.0147754 0.9865742 -1.1814246 -0.41004464
-0.751712 0.08460047 0.3754669 2.3932137 -1.0405025 0.10335337 1.4652342 -1.531271
-0.20779292 0.6193925 0.58115804 -0.5105375 2.2309418 0.012229344 -0.21000572 -0.8830015
-0.03789508 0.11997654 0.18033917 -2.9779663 0.48312196 -1.6536101 -0.30876184 0.06256263
-1.335898 0.007748087 -1.5527824 3.3457456 0.67944306 -1.7969822 0.9532913 1.7949327
3.1243927 0.9562215 1.6841897 0.35094503 1.557108 0.6698866 -0.6760191 -1.441881

756 f4 [32]
00000000: 340b 1140 1ae4 99bf 7de8 6bbf 9c01 94bd
00000010: 03b3 733f 486f ddbf 3bae 0fc0 8882 843d
00000020: 0808 db3e b5cd b6be 08e2 fb3f 67b8 9cbe
00000030: 651b f2bf d6e9 5ebf a676 003e f616 0f40
00000040: f3f8 223f 9fef cebe 7e99 8bbf bab2 efbe
00000050: d8ac d83e c826 143e c6c8 49bf cfc1 cb3f
00000060: d220 d5bf 803f aabc 181b 36bf 538e c2be
00000070: fe98 813f 9fd5 95bf 661e e7be 7e55 d1be
2.2663088 -1.2022736 -0.92151624 -0.072268695 0.95195025 -1.7299585 -2.2450092 0.06470209
0.42779565 -0.35703817 1.9678354 -0.30609438 -1.891461 -0.87075555 0.12545261 2.2357764
0.63661116 -0.4041719 -1.0906217 -0.46816045 0.4231937 0.14467919 -0.7882198 1.5918521
-1.6650641 -0.020782232 -0.7113509 -0.3799921 1.0124815 -1.1705817 -0.4514038 -0.40885538

msms.s0_conv1_1.conv.depthwise.weight f4 [32, 1, 3, 3]
00000000: f0b3 00bc dc42 56bc 4e76 2fbe 1391 86bd
00000010: 311c 4cbe 8501 74be 81db f4bd 81c4 58be
00000020: e256 ad3d 323e d6bd 04a3 a73e 6311 62be
00000030: 862b 233e 2d0b 82be 2a9a cfbc 348a 19bd
00000040: d6af d8bd 738b 873e 336f 97bd 31ef ccbe
00000050: d782 d03c a19f 2bbe 6c89 9f3e 229e 113e
00000060: 8e07 4c3e 16a8 15bd 3d2e 993c 5ec5 0a3e
00000070: 6c29 1cbe 9719 95be eafe 2d3d 825a 583e
00000080: 0908 62be 818b 863d 5f87 6b3e ccc7 313e
00000090: 353b 893e 7efc babd 3815 b1be f786 a3bd
000000a0: 519f 7fbe 6a18 663e 53d5 26be d617 0e3e
000000b0: e6f9 2f3e ea87 97bd 25e1 97bc 1426 febd
000000c0: 24fc 7d3d 6c6e 00be d832 2a3e bfaf 2f3e
000000d0: 9e4a d4be 3b4f a43e ede7 283d 9386 1938
000000e0: 0451 173e 6167 7a3e 6d7a 793e 4d2a b5be
000000f0: f612 3abe 871d 5dbe fa9f 0a3e 432b febd
00000100: 3255 b03e 3105 4ebe eb42 9cbd 0f44 033e
00000110: 2fef 163e 38f9 233e f737 c4be a4f7 753d
00000120: 54f6 9cbd 0f8c 3dbd 84e5 a03e 7f2b 19be
00000130: 5d5d c6bc 2e5c 883e dc8c 78be 51ad f0bd
00000140: ef92 043e 8f18 b63d 7546 8fbe 7b2f bdbd
00000150: ac34 bfbd dcc2 14be b221 bebd fe00 bebd
00000160: ee37 a9bc f4eb b4bd 9f00 f4bd 73c4 54be
00000170: 3b92 9e3e 4849 3b3e 525f 29be 26cc 30be
00000180: e8b5 55bd 6820 913e 3555 44be 7b6f 17be
00000190: a727 463c b2ef 99be 8997 f43d 5384 c53d
000001a0: ef9c 6abe 2b50 ac3d 194f 6d3e f9c3 0bbe
000001b0: 296f 3fbd c958 eb3d 72b2 fe3d b705 a23d
000001c0: 4dd1 b33e 59a7 80bd 0b93 a6be b0b0 c6bd
000001d0: f0b1 c93d 1011 5fbe c7d8 14be 7e14 b13d
000001e0: c618 8abe 4278 bbbd 99f2 46be 01ad fbbd
000001f0: aede 28be 50e3 2bbd bef4 7f3d 1305 b8bd
00000200: 49b6 80be 07f7 efbd 4cb1 44be 0f72 9dbe
00000210: 4e53 383c 6f3e 2dbd 2bdd c53d 5a9b f9bd
00000220: 6a77 833d 7aa4 583e 7a0b b33d d379 9c3e
00000230: 44ef 8d3e ba62 39bd 4b65 443e 83bd 5b3d
00000240: 05b3 a63e 250c a93e 6ec4 13be ce06 933e
00000250: 4b7c a73e 11b9 a23d 6131 d2bc 41f7 0e3d
00000260: a4dd 693d eb0e a3bc 1463 48be f54b 1dbd
00000270: 9df2 52bd a298 b1bd 9804 67be 6eab 9f3e
00000280: 545a 9b3d 310d 47bd ad2b 0a3e 5243 af3e
00000290: 2815 1a3e fb73 113b cd6a 1c3e 200e 74bc
000002a0: 4b9c 2a3e cc6e db3d c3fe 64bd a6b6 67be
000002b0: 801c a03e 8eec 343e 19d2 c7bd 6327 54be
000002c0: e813 013e ccff a03d 73d8 69be 65d4 02bd
000002d0: 9b43 b2be 35f4 98be f628 c13d ce4f b93e
000002e0: cdee 363e 2e6f fb3c debe 88bd 7325 433d
000002f0: 8d1c 4b3d dd06 e43c 38e3 a83e 5af4 c23d
00000300: 54ad dcba 3fbe 8c3d 3478 06be b06b a23d
00000310: c03e 8fbe 0336 a0be 334e f5bd 41f8 f9bd
00000320: 99bc 163d 638c 95be 8de5 a3be 03ed 573d
00000330: a5fc b9bd 544e 693d 33c9 07be 0c80 c1bd
00000340: 6d1a 4bbe 925b 393d 8575 123d a2aa 313e
00000350: b1e1 8bbd d5f5 7bbe 8ceb 50bd c613 c63e
00000360: 8a8f 7d3c 553b 393d 25ed 1d3d 71ae 443d
00000370: da7c 723e e11e 91be 61ef 7bbd 7b5e 813e
00000380: cb8a a2be 8b7e fbbc f681 9dbb 50f7 813e
00000390: 74f8 8f3d 2567 6a3d f4b7 14bd 459b 4bbd
000003a0: f0d2 9d3e 70d3 8dbe 42cc 55be e57f ac3d
000003b0: 6282 e23c 411b f03d 5877 97be 10ab 3c3e
000003c0: 63ce 083e 0906 9bbe 6fd7 8d3d b7dc 2abd
000003d0: 7577 da3e 6117 8d3b 997d 2abe ec39 54bd
000003e0: 6fda 2a3e 50a9 7b3d 7d79 9abe 422a 0dbe
000003f0: 9d1e 91bd 9bef 2abe 183b 6fbe 18c4 cabe
-0.0078554 -0.013077464 -0.17134973 -0.065706395 -0.19932629 -0.23828705 -0.119559295 -0.2116871
0.08463837 -0.104610816 0.3274156 -0.22076945 0.15934572 -0.2539915 -0.025342066 -0.037485316
-0.10580413 0.2647358 -0.073942564 -0.4002624 0.025453014 -0.16760112 0.31159532 0.14220479
0.19924757 -0.036537252 0.018698806 0.13551852 -0.15250176 -0.29121086 0.042479433 0.21128276
-0.22073378 0.06569577 0.23000859 0.17361373 0.26802984 -0.0913019 -0.345865 -0.07984727
-0.24963118 0.2247025 -0.16292314 0.1387628 0.17185172 -0.073989704 -0.018539974 -0.124096066
0.06200804 -0.12542123 0.16620958 0.17156886 -0.41463178 0.32091698 0.041236807 3.6603375e-05
0.14776999 0.24453498 0.24363108 -0.35383835 -0.18171296 -0.21593295 0.13537589 -0.12410595
0.3444 -0.20119168 -0.07629951 0.12818931 0.14739679 0.16013038 -0.38323948 0.06005062
-0.07664171 -0.04627615 0.31425107 -0.14957999 -0.024214441 0.26632828 -0.24272484 -0.117518075
0.12946676 0.08891403 -0.27983442 -0.09237572 -0.09336218 -0.14527458 -0.092837706 -0.09277533
-0.020656552 -0.08834067 -0.11914181 -0.20778064 0.3097094 0.18289673 -0.16540268 -0.17265376
-0.052175432 0.28345037 -0.19173129 -0.1478862 0.012094415 -0.30065686 0.119429655 0.096443795
-0.22911428 0.08413728 0.23174705 -0.13648976 -0.04673687 0.11491544 0.124363795 0.07911246
0.3512062 -0.06281919 -0.3253406 -0.09701669 0.09848392 -0.21783853 -0.14535819 0.08646487
-0.26972026 -0.09153797 -0.19428481 -0.12288857 -0.16491196 -0.04196483 0.062489264 -0.08985343
-0.25139073 -0.117170386 -0.19208258 -0.30751082 0.01125033 -0.04229587 0.09661325 -0.12187834
0.06419261 0.21156493 0.08742423 0.30561695 0.27721608 -0.04526017 0.19179265 0.05364753
0.32558456 0.33017078 -0.144304 0.2871613 0.32712016 0.07945455 -0.025658311 0.03490377
0.05709614 -0.019904574 -0.19569045 -0.038402516 -0.051500905 -0.086716905 -0.22560346 0.31185478
0.07585588 -0.048596565 0.13493223 0.3423105 0.15047133 0.0022194374 0.15275116 -0.014895946
0.16661184 0.10714492 -0.055907022 -0.22628269 0.31271744 0.17668363 -0.0975687 -0.2071815
0.1260525 0.078612894 -0.22836475 -0.031940836 -0.34817204 -0.29873815 0.09431641 0.361937
0.17864533 0.030692663 -0.0667703 0.047643136 0.049587775 0.027835304 0.32985854 0.095192626
-0.0016836324 0.06872224 -0.13131791 0.07930696 -0.27977562 -0.31291208 -0.11977806 -0.12205554
0.036800954 -0.2920867 -0.3201107 0.052716266 -0.09081391 0.056959465 -0.13260345 -0.09448251
-0.198343 0.045253344 0.035756607 0.17350248 -0.068301566 -0.24605496 -0.051005885 0.3868696
0.015476117 0.0452226 0.038556237 0.048017923 0.2368044 -0.2834387 -0.061507586 0.25267395
-0.31746516 -0.030699989 -0.0048067523 0.25383997 0.070298105 0.057227273 -0.036308244 -0.049708623
0.30824995 -0.27700377 -0.208787 0.084228314 0.027650062 0.11723948 -0.2958324 0.1842463
0.1335998 -0.30278042 0.06925856 -0.041714396 0.42669263 0.0043057655 -0.16649474 -0.05181305
0.16684888 0.061440766 -0.30170813 -0.13785651 -0.07085917 -0.16692965 -0.23362386 -0.39602733

msms.s0_conv1_1.conv.depthwise.bias f4 [32]
00000000: 6261 af3d 9bf8 5b3e 932f 9ebd 4874 b73c
00000010: a846 cf3d 6290 293e 6d8b 283e 7d4e 08bd
00000020: bd41 873e 3fb3 40be 45d3 35bd 4250 3f3e
00000030: 29e0 2e3c c1fc 473d f66a 313e 177b b1bc
00000040: e157 123e 7879 5c3e 4caa 7e3e 199d a03d
00000050: f298 aa3d d8b7 e9bd 280c 5d3e 4e3a 2cbc
00000060: 48f8 d23a 978d 493d 27eb 773e 3360 3dbe
00000070: 2777 193e a8a5 95bd e341 bc3d ac27 9c3d
0.08563496 0.21481554 -0.07723918 0.022394314 0.101208985 0.16558984 0.16459437 -0.033277977
0.26417342 -0.18818377 -0.044390935 0.1868296 0.010673561 0.04882503 0.17325959 -0.02166514
0.14291336 0.21530712 0.2486965 0.07842464 0.08329953 -0.114120185 0.21586668 -0.010511948
0.0016095722 0.049207296 0.24210797 -0.18493728 0.1498686 -0.07306987 0.091922544 0.07624754

msms.s1_conv1_1.conv.depthwise.weight f4 [32, 1, 3, 3]
00000000: 8c40 39bb 2568 1e3e 5759 90bd d36b 423e
00000010: 7292 d33d 3811 73be 05fd 813d 90ba 16be
00000020: dd3f 73be 8763 da3c 9ca3 cd3e 63c4 203e
00000030: 712b f33d 05a2 0b3e c66c 0abe 9dc6 6a3e
00000040: 127c 6cbd 2d1f cdbd a903 65bc 48af 2e3d
00000050: 4857 56be 690b 753e 0939 ea3d 737a 05be
00000060: 4b85 e33e 6cb1 593e ad63 b4bd 669f 0d3e
00000070: e5f6 d6bd d706 a1bd 0065 0fbe 5ed6 e13d
00000080: ea7d b93e 3994 53bd 94ba 1ebe 2092 97bc
00000090: e2bb 873e 2c55 bc3e 3e4c 083e c878 483d
000000a0: bd81 403e 818d 073e ac0a 13bd 10d6 b6bd
000000b0: f6c3 53be 3e0e 2fbd 7c7f a6be 8623 6bbe
000000c0: 52d3 dcbd c443 bdbe 3953 20be 93f3 75be
000000d0: 3e18 04be 9960 70bd 565b 233e 6974 f73d
000000e0: b518 d7bd 74b3 1cbd f3aa 0bbe 49f4 9abd
000000f0: 4f0d 0bbd d053 ccbe 1596 8dbe d801 4f3d
00000100: 0190 063e 7504 df3d 990b 873e 442f 9e3e
00000110: fe7f 86bd 85c7 be3e 4380 ee3d 2664 fabd
00000120: 52a7 c3bd b975 b63d 743c dc3c 46d6 78be
00000130: b1ab 63be 82dc 53be e62d 63bc 4abb 12bd
00000140: 75f5 35bd 24d4 b5be 59fa a2be d5b3 0cbe
00000150: 6bb0 06be c941 c83d 2a18 503e a51a 823e
00000160: 63f7 3a3e 7bec b83d 531a 68be 33f8 bbbe
00000170: c8f5 79be 9a92 34bb 8cfa 493e 0283 463e
00000180: a338 413e 6a6a 953e cb11 823e 986a 883e
00000190: 140e f7bd cfc2 f4bd c6c3 863e ba94 95bd
000001a0: 83a4 1fbe bcd4 67be 3fc0 7dbe 9f9a 1c3d
000001b0: 7b5a 7abe 461f 34be b51a e0bd 8201 3cbd
000001c0: cbfb 07be 8f2e 75be 0c81 0a3e a93e 8e3d
000001d0: 0d9a a9bc 0356 85bd fad9 4c3e d961 223e
000001e0: b756 9c3d 2075 5d3e ceac f63d 6cc0 e73d
000001f0: 182b c43d 9484 7dbb e0c4 683d 4c7d 4abd
00000200: 7ba6 dabb 143a 053d 2c81 0a3e 929d 8f3d
00000210: 7fc5 a33e a0e0 d63e fc06 653d 824b 8c3e
00000220: 1dda 143e 4bb4 fabd 1e94 173e 0882 883d
00000230: b6d4 3bbd 42d2 793d 1786 fa3d 7dd8 ce3d
00000240: c3be c1bd 559d bebd 0079 293e 3c5f 3ebe
00000250: 8fa0 863e dc2f 8b3e 7499 87be 53cd 0c3e
00000260: 3291 c9be 2f50 843c f3f9 65be d614 21be
00000270: 88db 8dbe cb3e 85be b2cf 053c bb53 0b3e
00000280: 9048 6b3d 53fe 0a3b 2229 8abd df5f 143e
00000290: 5b60 173e 0f87 95be f1c3 2d3e b7d2 1a3e
000002a0: 76ff 50be 4134 443e 8587 843d c920 e73c
000002b0: feef c2be d6de 94be 65a7 213e 296f 133d
000002c0: c02d 3abe 6f0f e53d 216d a03e 966f 093e
000002d0: 238f 58be 5e88 37bd dcd3 94bc ef0a 6d3d
000002e0: db4f 15be 56e0 5bbe cafd 2b3e 1581 5b3e
000002f0: d887 4f3d c47c 713d 9a86 34bd f70b acbd
00000300: c7b2 e2bc 971b 56be f134 6fbe 493e adbd
00000310: cc5b 18be 5d2b 3cbe bbba 08be bda5 88be
00000320: 76c9 56be bf04 063e 5711 8e3e a6a9 313e
00000330: 94b9 ccbc 2a60 5abe 6824 0dbe 09d8 36be
00000340: 87b6 03be d8a9 31be 05fc 1cbe ab84 f43c
00000350: 0f97 3e3e 150e 9c3e 200e 2b3e 7390 de3c
00000360: 123f bf3d 5bd4 b03e 8b4f b53d 72a4 cdbe
00000370: e03c e0be a79e b3bd 6a7d a13e 01cb c53e
00000380: 3fb1 353e e0b7 12bd 3a98 d9bd 8797 cbbe
00000390: f1ee 58be 4afb 3abe 77da 7ebe e731 0a3c
000003a0: 2719 84be 9ff8 d0bd 93a8 2bbe ae85 88bd
000003b0: 6cdf 2ebd fc05 153e 22bc ed3d eb07 debc
000003c0: 4f05 063e 3e8f 493e 4348 263e 7e3f b8bc
000003d0: c533 f5bd 4335 23be e79a 9f3e e8b5 383e
000003e0: 5261 3f3e c84d 2ebe 6ec6 7abe 9c17 07be
000003f0: 9c22 5dbe cda0 53bd 9dd8 7b3e b6e8 ed39
-0.0028267233 0.15469415 -0.0704829 0.18986444 0.103306666 -0.23737037 0.06347088 -0.14719605
-0.2375483 0.026658786 0.40163887 0.15699916 0.1187352 0.13636024 -0.13518056 0.22927327
-0.05773551 -0.10015712 -0.013977923 0.04264763 -0.20931733 0.23930134 0.1143666 -0.13034992
0.44437632 0.21259087 -0.08808074 0.13830337 -0.1049631 -0.07862633 -0.14003372 0.110272154
0.36228877 -0.051655028 -0.15500861 -0.018502295 0.2651053 0.3678373 0.13310334 0.04894331
0.18799491 0.13237573 -0.03589885 -0.08927548 -0.20680222 -0.04273819 -0.32519138 -0.2296277
-0.10782494 -0.36965764 -0.15656747 -0.24018697 -0.12899873 -0.058685873 0.1595281 0.1208275
-0.10502759 -0.038257077 -0.1363943 -0.07566125 -0.03394824 -0.39907694 -0.27653566 0.050538868
0.1314087 0.10889522 0.26376036 0.30895436 -0.06567381 0.37261596 0.11645558 -0.12226133
-0.09553398 0.089091726 0.026884295 -0.24300489 -0.22233464 -0.20689586 -0.0138659235 -0.035823144
-0.04442354 -0.35513413 -0.31831625 -0.13740475 -0.13153236 0.097781725 0.20321718 0.25410953
0.18258433 0.0902948 -0.22666292 -0.36712798 -0.24410164 -0.0027553202 0.19724482 0.19385913
0.18869261 0.2918275 0.254042 0.26643825 -0.12063232 -0.11951219 0.26321238 -0.07303758
-0.155901 -0.22639745 -0.24780367 0.038233396 -0.24448578 -0.17590055 -0.10942594 -0.045899875
-0.13279645 -0.23943542 0.1352579 0.06945545 -0.02070334 -0.06510546 0.20005026 0.15857638
0.07633727 0.21626711 0.12044679 0.113159984 0.09578532 -0.003868376 0.05682838 -0.0494359
-0.006672678 0.03252609 0.13525838 0.07012476 0.31986615 0.4196825 0.055914864 0.27401358
0.14536329 -0.122414194 0.14802596 0.066654265 -0.045857154 0.060991533 0.12232607 0.100998856
-0.09460213 -0.093073525 0.16550064 -0.18591017 0.2629437 0.2718495 -0.26484263 0.137502
-0.39368588 0.016151516 -0.2245863 -0.15730605 -0.27706552 -0.2602447 0.008167194 0.1360616
0.057442248 0.0021208718 -0.06746127 0.14489697 0.1478285 -0.29204604 0.16969277 0.15119444
-0.2040995 0.19160558 0.06471161 0.028213875 -0.38073725 -0.2907626 0.15786512 0.035994682
-0.18181515 0.11184584 0.3133326 0.13421473 -0.21148352 -0.044807784 -0.018167429 0.057871755
-0.14581244 -0.21472296 0.16796032 0.2143596 0.05066666 0.058956876 -0.04407368 -0.084007196
-0.027673138 -0.20908962 -0.2336004 -0.084591456 -0.14878768 -0.18375917 -0.13352482 -0.26688948
-0.20975289 0.13087748 0.27747604 0.17349872 -0.024990834 -0.21325746 -0.13783419 -0.17855848
-0.12862597 -0.17349946 -0.15330513 0.029848417 0.18612312 0.30479494 0.16704607 0.027168488
0.093382016 0.34537014 0.08853062 -0.40164524 -0.43796444 -0.08770495 0.31540996 0.38631442
0.17743395 -0.035819888 -0.10624738 -0.39764044 -0.21184899 -0.18259922 -0.24888025 0.008434749
-0.2580044 -0.10203671 -0.16763525 -0.066661224 -0.04269354 0.14553064 0.11608149 -0.027103385
0.13087963 0.19683549 0.16238503 -0.022491213 -0.11972765 -0.15938286 0.3117287 0.18038142
0.18689469 -0.17021859 -0.24489757 -0.131926 -0.21595234 -0.051667023 0.2459435 0.00045377546

msms.s1_conv1_1.conv.depthwise.bias f4 [32]
00000000: f2f4 4ebe eac1 b03e d80a ca3d 1ce2 4bbe
00000010: de01 96bd 2095 15bc 812b ffbd c303 32bd
00000020: 3579 4cbe 516c 903c 5194 95bd 813b 3abd
00000030: 8a5e 233e 15b0 6e3c c38c 20bc 0c28 5abe
00000040: 9223 393d b8fd 333c 6388 5f38 a014 45be
00000050: 3430 00be 1f29 0b3e ad52 85be 6c7a 4bbe
00000060: 37fb ef3c 31e4 26be 4d04 d2bc 69d8 a53c
00000070: 6213 ccbd f630 13bd 0df3 03be b01e f73d
-0.20210627 0.34522945 0.098653495 -0.19910473 -0.07324575 -0.009129792 -0.124594696 -0.04346062
-0.19968112 0.017629774 -0.0730368 -0.045466904 0.15954033 0.014568348 -0.009799185 -0.21304339
0.045199938 0.010985784 5.3294363e-05 -0.19246149 -0.12518388 0.13589905 -0.2603964 -0.19870919
0.029294593 -0.16297986 -0.025636816 0.020244794 -0.099646345 -0.035935365 -0.12885685 0.120664

726 f4 [32, 32, 1, 1]
00000000: 4bc7 27bf 5ce1 473e 4f50 243f 13bc 3d3f
00000010: d153 713e 3f60 54be 2d7e 673f 9c6d 2e3f
00000020: 82c1 dbbe cd6f a53f 4f8c 963e 6e1d 29bf
00000030: 77b3 6a3d d4b8 39bf 5d00 1f3f c88e d23e
00000040: 9ea5 f0be 74df 8abf da36 d4bf 0231 9abe
00000050: 39ad 483c cf0f 43be 9b08 9c3d bd7d dabf
00000060: 017e 78bd ec54 2bbf be33 43bf 4b81 39bf
00000070: 1300 f93e 36cc b33f 2ab2 b43e 7cd8 273e
00000080: 100b 923e 6e75 d4bc 210a 94bc f8a4 f83e
00000090: 8513 cf3d e1ca 883f 16dc fabe 1d3e ac3f
000000a0: 18c0 1f3e 16ff 3e3f f0e1 873f 7992 c93d
000000b0: 1718 b7be a04a 383b 1a8c 46be 2ecf ea3e
000000c0: bf27 6a3e 5404 873f 6b95 1abf c0f4 91bf
000000d0: 0f97 c5bc e414 e1be 7bc1 553f 7834 9e3e
000000e0: 20bd 293e 4649 513e 86e7 d1be b4f3 20bf
000000f0: e937 01bc 7dbe 3ebe c1cb 0cbe ff07 e1bf
00000100: 0f57 653f 63b8 0fbd f595 16be de44 35bf
00000110: d260 76be 3a57 863d 0d1a 59be c106 a8be
00000120: aa07 cbbe 77d7 643d 2afb d0be 5aa5 673d
00000130: 82c9 803e c495 b8bd bcb6 293e 670b 383d
00000140: 5e89 e8be 54b5 9a3d 16cb 65be 0553 cd3e
00000150: 1281 4d3e 0133 663c b9c4 853f 321f 1a3f
00000160: 58c5 a13e 8a4f d4be 070b a0bd b342 89bb
00000170: 210d f9be 56b0 cebe e65f f93e 979e 1f3f
00000180: 8abf 613d 0a9a d4bd 837d 9abd 9000 2abf
00000190: 3567 bcbd f7f1 9cbd 81cc 32be 5992 1a3f
000001a0: c6d7 8abb 18e8 0d3e 7af6 dabf 51a9 f83e
000001b0: f484 a9bd e21a b83e 45da 083f 1d55 513d
000001c0: 476f abbe 8a6f 3d3f 8a0b acbe 1d53 43bf
000001d0: 41f4 d4bd c2e2 22bd d8e2 c03e c6d0 223f
000001e0: c50f d13e 1743 8cbe ded4 773d f878 0a3f
000001f0: e7ed 2b3e 87dd 90be f8a1 103f 5301 203e
00000200: 86d3 123e 00b0 b2bc e35c b83e 1744 153f
00000210: ead9 b2bb f229 6bbd 4b9e b53e d9a7 acbe
00000220: 0ad6 7d3f 5e19 013e c186 d73e aaef 9dbe
00000230: 8607 3abf e2f6 603e c79c 403e 6815 96be
00000240: 5be4 0d3e 07c8 90be 8158 5abe 4638 9dbe
00000250: 9a8b b6be c92a 58be 5ebb 9c3f 127d 0abf
00000260: 6b15 c73e a120 8fbe ffb5 2ebf 5e63 c0bf
00000270: 8c1a 743e b2ab 303d faca ff3e c577 bc3e
00000280: 3bac c33c f210 02c0 c6b5 cbbd cd51 fd3d
00000290: e9af 29bf 59e5 a23e f2d7 9abe 4212 27bd
000002a0: 1a10 943e a38c 043f a90e 003d 4b81 68be
000002b0: 5e15 42bd 3009 d23d 9959 cebe 798c 883d
000002c0: 0e31 1bbe 6d52 563e c4c9 aebe fd12 f63d
000002d0: 2ad8 6e3e 8627 653f 2c55 b1bc 0914 183f
000002e0: 3f79 0cbf 6ddc 6e3e 6c00 e0be 77a9 a63e
000002f0: d5b4 a63e 0da9 2a3f 583e d7bd bf3b c03e
00000300: e69b fdbd b06a 013f e10c 5a3e c9a8 d53e
00000310: 92fd c53e c998 79bd 8ad1 adbc 3fe6 1e3e
00000320: d729 24be 9307 873e 27fa e53e 6b6b 363d
00000330: bcba 183f bd60 e33d 53d2 8f3e 73ca cbbe
00000340: 8f6b 34bd 9226 d53c fac8 4bbe 2a36 143f
00000350: d29c 2dbe 02d7 1c3f 730b 81be 39dd 81be
00000360: 3dd3 ccbe 51a6 9ebe 68e2 d43d e9c2 a73e
00000370: 4979 73be 9545 52bd 269d 12bf 6a1f d1be
00000380: 1f58 713e a0ec e1bd 41f8 a1be dc4b c4be
00000390: fbe8 6f3d 7b4f aabf 56c5 e6bc 4358 b83e
000003a0: 1d4d 51bf 1e1b 4b3b ef91 4f3d 3cb9 493f
000003b0: a1e2 c4bd eff9 34be 0d71 e7be 634e b4be
000003c0: 62d3 5bbf 5bf9 a8be 828c 973c adb2 343f
000003d0: c4f6 70be 5b50 94be 954d 0e3e 5cad 84bd
000003e0: 8a5d 27bf c372 d8bc cfa3 1cbe 7684 8f3d
000003f0: 4f4e 243f f84e 8f3e 7b9d 78be 0ba0 3d3f
-0.6553847 0.19519562 0.6418504 0.74115103 0.2356713 -0.2073984 0.90426904 0.68136
-0.42921072 1.2924744 0.29403922 -0.6606053 0.057300057 -0.7254765 0.6210993 0.41124558
-0.47001356 -1.0849442 -1.6579239 -0.30115515 0.012248331 -0.19048999 0.07618829 -1.7069622
-0.06066704 -0.66926455 -0.7625083 -0.7246291 0.4863287 1.4046695 0.35292178 0.16391176
0.28524065 -0.025934901 -0.018071236 0.4856336 0.10111145 1.0686914 -0.48996037 1.3456455
0.15600622 0.7460798 1.0615826 0.098423906 -0.35760567 0.0028120652 -0.19389382 0.4586119
0.22866724 1.0548196 -0.60384244 -1.1402817 -0.024119882 -0.4396125 0.8349835 0.30899405
0.16576052 0.20438108 -0.4099695 -0.6287186 -0.007886865 -0.18627353 -0.13749601 -1.7580565
0.89585966 -0.035087954 -0.14705642 -0.7080821 -0.24060372 0.06559606 -0.21201344 -0.32817653
-0.39654285 0.055869546 -0.40816623 0.056554176 0.25153738 -0.090129405 0.16573614 0.04493275
-0.45417303 0.07554117 -0.22440752 0.401024 0.20068768 0.014050246 1.045066 0.6020385
0.31595874 -0.41466933 -0.07814603 -0.0041888594 -0.4864283 -0.4036891 0.48705977 0.62351364
0.055114307 -0.10380943 -0.07543471 -0.6640711 -0.09199373 -0.07663339 -0.17460825 0.6037956
-0.004237148 0.13858068 -1.7106469 0.48566678 -0.08277312 0.3595801 0.5345805 0.05110656
-0.33483335 0.7399832 -0.33602554 -0.76298696 -0.1039815 -0.039767034 0.37673068 0.63599813
0.40832344 -0.27394935 0.06050574 0.54090834 0.16789971 -0.28294012 0.56497145 0.15625505
0.14338502 -0.021812439 0.36008367 0.5830702 -0.0054581063 -0.05741305 0.3547233 -0.33721808
0.9915472 0.12607333 0.42094997 -0.30846912 -0.7266773 0.21969178 0.18809806 -0.29313207
0.13856642 -0.2827761 -0.21322824 -0.30706996 -0.35653383 -0.21110071 1.224468 -0.5409709
0.38883528 -0.2795458 -0.68246454 -1.5030324 0.23838252 0.04313249 0.49959546 0.36810127
0.023885837 -2.0322843 -0.0994678 0.12369118 -0.6628404 0.31815603 -0.30242878 -0.040788896
0.28918535 0.51777095 0.03126398 -0.22705571 -0.04738366 0.102556586 -0.40302733 0.06667418
-0.15155432 0.2092988 -0.3413831 0.120153405 0.23324648 0.8951343 -0.021647058 0.5940557
-0.54872507 0.23326273 -0.43750322 0.32551166 0.3255984 0.666642 -0.10509938 0.37545583
-0.12383251 0.5055342 0.21293975 0.41730335 0.3867002 -0.060936723 -0.02121808 0.1551752
-0.16031586 0.26372966 0.44917414 0.044536036 0.59659934 0.11102436 0.28090152 -0.39802894
-0.04404789 0.026019368 -0.19900885 0.5789515 -0.16954353 0.61265576 -0.25204048 -0.25364092
-0.40004912 -0.30986264 0.10394746 0.32765892 -0.23776735 -0.05133589 -0.5727104 -0.4084428
0.23568772 -0.11031461 -0.31634715 -0.38339126 0.058571797 -1.3305506 -0.028170269 0.36004838
-0.8175829 0.0030991505 0.050676282 0.7879827 -0.096135385 -0.17673467 -0.45203438 -0.35216054
-0.8586942 -0.33002743 0.018499617 0.7058514 -0.23531634 -0.28967556 0.13896783 -0.06478378
-0.65377104 -0.02642191 -0.15296863 0.07007687 0.6418199 0.27989936 -0.24278824 0.7407233

732 f4 [32]
00000000: 2b3c 8d3f e3f3 f6bd 3d30 4b3e 3ca8 85be
00000010: 5722 08bf 2a93 5e3f 9606 053f 76a7 df3e
00000020: 0a7d a83f 0a2e d53e b531 abbd 6bbc 933f
00000030: 5d16 16bd ab53 953e d2ea 5ebe 3ff0 9bbe
00000040: 7ed2 ddbe f0a8 1d3e 34f7 f2be 2afd 44bf
00000050: 0b97 a2be a869 abbf 9aec 65bd f65f cebd
00000060: de8a 79be b627 f43d 03db 803e 78c0 983f
00000070: 8cc8 4fbd ccdd 2cbd b868 e5bd a4f7 febd
1.1033987 -0.120582364 0.1984262 -0.26104915 -0.531774 0.86943305 0.51963174 0.4368245
1.3163159 0.41636688 -0.0835909 1.1541876 -0.03664242 0.29165396 -0.21769264 -0.3045673
-0.43324655 0.15396476 -0.47454226 -0.769488 -0.31755862 -1.3391619 -0.056133844 -0.10076897
-0.2436938 0.11921637 0.25167093 1.1933737 -0.050728366 -0.04220371 -0.11201614 -0.124495775
