assets/fsanet-var_float32.tflite (tflite, 987476 bytes, 92 tensors)

arith.constant f4 [64]
00000000: edb7 973d 7dd3 9ebc 23cb a53d db58 383b
00000010: 5cd7 683e aea9 253e 21a2 ef3d 099d 963e
00000020: a06a 6bbc 74a4 1a3e 4fbc 79bc 3cbc 9a3e
00000030: a0b7 a03e 14e0 bf3e 0f85 1b3e 6bae 483e
00000040: 01f5 953d 68be 6f3e 3c1c b13e 4d64 c93e
00000050: a371 c83d 5b2d 343e 6d82 11bd a1e6 5abc
00000060: 2b41 c3bc e594 b13d d5d8 773e d748 363e
00000070: 2042 cd3d 5140 ca3d aade 20bd e91b 99bc
00000080: 1401 3d3e 3040 fb3d b46f 373c 954a c93e
00000090: a8e6 093e c78a 103e d244 353e 35b4 af3e
000000a0: b189 fe3d ab2b 163e 1f21 9cbc 8b0b c53d
000000b0: 327f 923d bf80 603e 83ac 803e fd85 093e
000000c0: 6843 6b3e 319b 253e 4ec7 a33d 636d 073e
000000d0: 0f50 d9bc b1b8 1f3e 07ef 1a3e ba53 0ebd
000000e0: 3ef0 a23e c78c 713e d144 1a3e fc36 bfbc
000000f0: 1349 bfbc 5d7f 843e ad2c d93d 9aed 823d
0.07408128 -0.019387955 0.08095386 0.0028129134 0.22738403 0.16178009 0.117008455 0.29416683
-0.014368683 0.15101796 -0.01524265 0.30221736 0.31390095 0.37475646 0.15187477 0.19597785
0.073221214 0.23412478 0.34591854 0.39334336 0.097872995 0.17595427 -0.035524774 -0.01336065
-0.023834785 0.086709775 0.24203809 0.17801224 0.10022378 0.09875549 -0.03927485 -0.018690066
0.18457443 0.12268102 0.011196066 0.39314714 0.13466895 0.1411544 0.17702034 0.34317175
0.12428606 0.14665096 -0.019058762 0.09621342 0.07153167 0.21924113 0.25131616 0.13430019
0.22974932 0.16172482 0.07996999 0.13225321 -0.026527433 0.15597798 0.15130244 -0.034747817
0.31823915 0.23588859 0.15065314 -0.023341648 -0.023350274 0.2587842 0.10604224 0.06392975

arith.constant1 f4 [64]
00000000: 10af b3bc 8fa6 693e 9488 983e adb4 8cbc
00000010: 5fbc 7a3e c277 0b3f f987 133e ac8d 443e
00000020: 65fb bb3e 7b83 49bd 1a82 213e 923f f73e
00000030: bcc6 d0bb 3f70 193e ea80 a73e c369 3a3e
00000040: 4a0e 293e bc1a e83d 4f03 093e 4ce8 95bc
00000050: c125 cfbc 70d3 d23d 4001 9ebc b959 6d3e
00000060: bc30 633e 8a82 c1bc 6812 1bbc 3428 c43e
00000070: d002 003f cd3e 813e 9152 1fbc 1816 4b3e
00000080: dfbf 103e 1014 bb3e 5213 0e3d d29b a83e
00000090: 02f9 763e 742d 903e e302 7c3e 6281 063d
000000a0: fceb e0bc 5cce 7c3e 6724 c7bb 3046 99bc
000000b0: 9079 5c3e 69b1 873e fdb5 8f3e 5fc5 9b3e
000000c0: b31d 733e 19a0 2fbc 9a14 bb3e 3668 42bc
000000d0: c227 cfbc 60b5 2bbc 1849 193e 5156 00bd
000000e0: 7768 d43d 0505 2c3e d3f4 133e 453d 6a3e
000000f0: 1799 0dbc 719b f4bb b0bf 893e bb28 903e
-0.021934062 0.22817443 0.297917 -0.017175997 0.2448592 0.5447961 0.14407338 0.19194669
0.36715236 -0.049197655 0.15772286 0.48290688 -0.0063713472 0.14984225 0.3271554 0.18204407
0.16509357 0.11333224 0.13380168 -0.018299244 -0.025286557 0.10294235 -0.019287705 0.23178758
0.2218656 -0.023621816 -0.009464838 0.38311923 0.5000429 0.25243226 -0.009724275 0.19832647
0.14135693 0.36538744 0.034686394 0.3293138 0.24118426 0.28159678 0.24610476 0.032838233
-0.027456276 0.24688095 -0.0060773375 -0.018710226 0.21530747 0.2650254 0.28068534 0.3042402
0.23741798 -0.010719323 0.36539155 -0.011865666 -0.025287513 -0.010480255 0.1496929 -0.031332318
0.103714876 0.1679879 0.14448862 0.22874935 -0.0086424565 -0.007464819 0.26904058 0.28156075

arith.constant2 f4 [64]
00000000: 15b9 e53d 0ebb 9e3e 7427 fa3e b0f1 6b3d
00000010: 5f5f 6f3e 33cf 9d3e 56db 883e e152 cabc
00000020: 000f a73e ced7 9b3e 684c 383e 83eb 9d3d
00000030: 25f9 1b3e b562 68bc 62d3 bd3d 0f97 cd3d
00000040: e78e cf3e 45fe e13e bf99 ac3e dde0 693e
00000050: 0e34 1c3d 5381 cd3e 99c7 b53e 3e3a 883e
00000060: 5cd5 4a3e be48 de3e 318e 873e c3e5 873e
00000070: 0beb 393e dc79 9f3e 00ec 863e e2cb 113e
00000080: c451 273e d3bc 2a3e a89c a93e 237e 623e
00000090: d1cf 3b3e 9b00 9cbc 8edd 993e 7dff 7b3e
000000a0: 3c14 8a3e b678 833e a357 4b3e 5ea0 083e
000000b0: b85a a23e 7a5a f83d 8cdf b83d 94d7 b73e
000000c0: 5155 3f3e 4a10 b83e 596c 9b3d ab99 38bc
000000d0: f283 a83e 389c c73e f766 bd3e d778 ae3e
000000e0: 86d6 4a3e 1a27 1bbc df48 e23e 05d6 a33e
000000f0: ec15 3a3e b4bd a23d 65be 563e e56c b03e
0.11216942 0.31002086 0.48858225 0.057603538 0.23376225 0.30822143 0.2672984 -0.024697723
0.32628632 0.30438083 0.17997897 0.07710936 0.1523176 -0.01418369 0.09268834 0.10038578
0.40538713 0.44139305 0.3371105 0.22839685 0.03813558 0.4013773 0.35503843 0.26606935
0.19807953 0.43414873 0.2647567 0.26542482 0.18156068 0.3114766 0.2635193 0.14237931
0.16339785 0.16673593 0.33127332 0.2211843 0.18340994 -0.019043257 0.30051845 0.2460918
0.26968563 0.25678033 0.1985765 0.13342425 0.31709838 0.12126632 0.09027013 0.3590666
0.1868489 0.35949928 0.07589025 -0.011267106 0.32913166 0.38986373 0.36992618 0.34076568
0.19808397 -0.009469772 0.4419622 0.3199922 0.18172425 0.07946339 0.20971067 0.3445808

arith.constant3 f4 [128]
00000000: c4d2 4fbf c080 043f a695 48bf e864 2a3d
00000010: 9b01 67bf 01ad ef3f 847d ccbf c595 c13e
00000020: 0cec f93e 7759 f33f c324 cebe e749 df3e
00000030: a97f 64bf fd31 70bf 7505 fe3f 802a 933f
00000040: 6aad e6bf d767 cb3f 820d 9dbf 5432 ffbf
00000050: 8f09 0fbf 4ce6 0c3e 3a9c 993e 9f1b 023f
00000060: 9b28 063f 9578 8fbf 5dfd 083f 532f ad3f
00000070: 8110 b6bd e063 4fbd 00c5 3dbf 3adf 40be
00000080: e9da 083f 1f8d aebe 4fbf db3e 288a c2be
00000090: b752 f2bf f7de 0e3f 6153 a9be 1cbd f03f
000000a0: 03af 69bf d4e2 3cbf e753 ba3f 0d2a 0abe
000000b0: 67c6 d5bf 6476 9bbf 30b5 acbf ac7c 77be
000000c0: 182c c3bf 8fab ac3f fb48 9e3f d6e4 8b3f
000000d0: 8f93 af3f 91d7 453f 26f9 d4bf df70 a1be
000000e0: 2ff8 c93f b8e1 2dbe 9be2 e63e 2e50 e23e
000000f0: 18ef 133f 7b66 1840 ec7b b03f 2b1c 12bf
00000100: e130 3e3f 0776 f43f 16d5 f33d be4a 533f
00000110: 363c 0bbf 8dfe a13f 85df 03bf d228 81bf
00000120: e1d8 e53f 703a 58bc 5366 35bf 1b15 3dbe
00000130: 00aa e9bc de02 833f 564d bbbe 0800 0240
00000140: c2aa 87bf e805 4f40 004c 6a3f 452b b03f
00000150: 0a2e 853f 9645 3e3f 669e 1dbf 8d2a a13f
00000160: 386c 733f f350 073e b990 5740 1871 3dbf
00000170: 189b fe3c a7fd b6bd f27c 813f c28c 76bf
00000180: 91ab 6e3d 9507 16c0 deac 8fbf 3f09 debf
00000190: aced dd3f 46b7 c3bf cccb 83be b43d dbbd
000001a0: cef5 1ec0 896b 97be 649b 443f d8fc 8b3f
000001b0: 251f 283f 1ab1 033f f8b8 4abf b000 ffbd
000001c0: 034a a93e 8836 ed3e 0caa 18be 0cf4 c2be
000001d0: c745 803f 92ff 1ebf fa2d e4bf 5cf1 ca3d
000001e0: 149b b8be 9e81 e8bf aced a2bb 1f95 433f
000001f0: 0ed5 463f 0b9c f9bd 1866 b43f 9e1d b83f
-0.8118098 0.51758957 -0.78353345 0.041600138 -0.90236825 1.8724672 -1.5975804 0.37809578
0.48812902 1.9011678 -0.40262422 0.4361107 -0.89257294 -0.93826276 1.9845415 1.1497345
-1.8021672 1.5891064 -1.2269747 -1.9937234 -0.5587396 0.13759726 0.30002004 0.50823396
0.5240571 -1.1208674 0.535116 1.3530067 -0.088898666 -0.050632358 -0.74128723 -0.18835154
0.5345903 -0.34092042 0.42919394 -0.3799603 -1.8931493 0.5580897 -0.33071426 1.8807712
-0.9128267 -0.7378361 1.4556855 -0.13492604 -1.6701173 -1.2145505 -1.3492794 -0.24168652
-1.5247831 1.3489856 1.2366022 1.092921 1.3716906 0.77282053 -1.6638534 -0.31531426
1.5778865 -0.16980636 0.4509476 0.44201797 0.57786703 2.381255 1.3787818 -0.5707423
0.74293333 1.9098519 0.11905877 0.8253592 -0.5438875 1.2655808 -0.5151294 -1.0090582
1.7956811 -0.013197526 -0.7085926 -0.18465082 -0.028523445 1.023525 -0.3658244 2.031252
-1.0598986 3.2347355 0.91522217 1.3763205 1.0404675 0.7432493 -0.6156982 1.259111
0.95087004 0.13214473 3.3682082 -0.7400069 0.031079814 -0.08935099 1.0116255 -0.9630853
0.058269087 -2.3442128 -1.122463 -1.7346572 1.7338157 -1.5290306 -0.25741422 -0.10705128
-2.4837527 -0.2957423 0.7679961 1.0936537 0.6567252 0.5144211 -0.7918849 -0.12451303
0.3306428 0.46330667 -0.14908618 -0.38076818 1.0021294 -0.6210872 -1.7826531 0.09909317
-0.36055815 -1.8164556 -0.0049721804 0.76399416 0.77668846 -0.12187966 1.4093657 1.4384038

arith.constant4 f4 [128]
00000000: 5e64 ab3e 9ced e83c 8c75 3b3e a49f 233f
00000010: 8ab2 403f 0044 11be 2cc5 46bf 9381 363e
00000020: bf63 af3e 6631 88bf 2dfe b0bd 7a13 053f
00000030: fe1a 79be 18f9 a5be 2088 173e 6c8c c7bd
00000040: dbb3 a9bf 82d7 d93f d91c be3e 7c62 9dbe
00000050: 90fd 37bf 4cd8 143f 83ef bf3f 6810 833f
00000060: c32d 25be 000a 2a39 0d03 0ebf d050 4ebf
00000070: d03a d9bf 81e1 13bf 51df 883f cac5 f3be
00000080: 426e 1abe fa8f 703e 80aa 3bbd 827e 443f
00000090: ec9f dfbd 61f3 a7be 16a0 173d 646e f63e
000000a0: ec83 7bbf 42b3 5abe 92ce ff3e 9027 6ebf
000000b0: fc84 3c3f 512a 263e 2d8a 133f a4b7 383e
000000c0: 765c 25bf 0fca 89be 0a4b 73bf ea3f a93f
000000d0: 705c f93e 82ca 9abe 61e6 ea3e 5045 40bd
000000e0: 2eec 353e 7a39 dcbe 121b 26bf 78dd 893f
000000f0: 636f 703f 560e ef3e 48ab 47bc 92fa 753e
00000100: 42e5 a33d fe97 3d3f d778 fdbe 56e7 3a3f
00000110: f0dc 593f f8ed a7bf 3abb dc3d 1f79 77be
00000120: e027 9ebd 862c f0bd bca5 2f3f c810 d6bd
00000130: 09ca 00bf cefa 2ebf 0d4b 49be f9f9 28bf
00000140: a6f5 c83e 565f 7abf 667c d4be 077d 42bf
00000150: 2b2b bf3e 41db c03e da5f 08bf 6c03 403e
00000160: 01bc f2be 0c17 fbbc 6784 d7bd 9255 cebd
00000170: b1db 21bf aa28 1fbf 5d2d de3e 3660 353f
00000180: e476 c93d 446b f53d 8e53 98bf 4366 383f
00000190: d2c8 ddbe 1034 2bbe 8a96 9e3e 9578 d93d
000001a0: a5de 40bf 2ec9 d03e 4e66 1cbf 9e20 30bf
000001b0: 440d bb3d e883 ca3c 2b5f d73e 637b fa3e
000001c0: 2f8e 4ebd d6ab 3f3f 0c72 4abe 9e59 283f
000001d0: 77e6 b6be e70b 943f 3679 d93e e066 9d3e
000001e0: 271b 373f 00f3 2c3f 1442 643e 7061 21bd
000001f0: 24f0 91bf 4696 84bd 5706 23bf c872 ac3e
0.33475012 0.028433613 0.1830656 0.6391547 0.7527243 -0.14186096 -0.7764461 0.17822866
0.34255788 -1.0640075 -0.0864223 0.51982844 -0.24326703 -0.32416606 0.14798021 -0.0974358
-1.3258013 1.7018893 0.37131384 -0.307392 -0.7187128 0.5814254 1.4994968 1.0239382
-0.16130738 0.00016216189 -0.55473405 -0.8059206 -1.6971073 -0.57765967 1.0693151 -0.4761184
-0.15081123 0.23492423 -0.0458169 0.76755536 -0.109191746 -0.3280287 0.037017904 0.48131096
-0.9824817 -0.21357444 0.49962288 -0.9302912 0.7364042 0.1622708 0.57632715 0.18038803
-0.6459421 -0.2691197 -0.95036376 1.322263 0.48703337 -0.30232626 0.4587889 -0.0469411
0.17765877 -0.430126 -0.64885056 1.0770712 0.9391996 0.46690625 -0.012186833 0.24021366
0.08002712 0.74060047 -0.49506256 0.7300924 0.8510275 -1.3119497 0.10777898 -0.24167298
-0.07722449 -0.11727242 0.68612266 -0.104524195 -0.5030828 -0.6835145 -0.19657536 -0.6600643
0.39249915 -0.9780172 -0.41501158 -0.75972027 0.37337622 0.37667277 -0.5327126 0.18751305
-0.4740906 -0.030650638 -0.105233006 -0.10074915 -0.6322585 -0.62171423 0.43393984 0.7084993
0.0983713 0.1198335 -1.1900499 0.7203104 -0.43317276 -0.16719079 0.30974227 0.10618702
-0.7533973 0.40778488 -0.61093605 -0.6879977 0.091333896 0.0247211 0.42064795 0.48922262
-0.050428566 0.74871576 -0.19770068 0.65761745 -0.35722706 1.1566132 0.4247529 0.3074255
0.71525806 0.6755829 0.22290832 -0.039399564 -1.140141 -0.06473975 -0.6368155 0.3368132

arith.constant5 f4 [64]
00000000: ecb7 0bbf e080 873f fe0c 1b3e 70ee dbbd
00000010: 2a0b 2cbf aec7 bebe 0453 c23e 40ce c33b
00000020: 61e5 bd3f 587a 013d bbeb 98be 38c4 8cbe
00000030: 265a 1abe e498 883e 76fb 77bd 5c20 31be
00000040: 0ef2 b6bf 4aa9 633f dc34 033f a200 88bf
00000050: bb2d 9fbe 0426 9fbe d07f dd3e 9780 5e3f
00000060: a837 25bd 408b acbf 2343 8cbf 9af3 06bf
00000070: 3431 ffbe 42d9 05bf 0aec 063e d7ea 85be
00000080: 455c 6fbe 45df 223f 0f0b 14bf 16d8 48be
00000090: c069 a7bd a246 6cbf de1a 84be e43e 74bf
000000a0: dbcc 9c3e e3c0 9cbe cc89 aa3e 2e13 c23e
000000b0: 6478 d4be 239c 04bf 1070 00c0 d3a9 9d3f
000000c0: e015 bc3e 4c97 cc3e ac9c a1be 11c6 50be
000000d0: 3435 d03d 06c1 88bf ae85 c63f ba07 af3d
000000e0: 1832 9abe 5992 0fbf 3f22 ed3e b1ee a5bf
000000f0: 0d41 7a3e 2b09 81be d499 8b3d 235e 41bf
-0.5457752 1.0586205 0.15141675 -0.10738838 -0.67204535 -0.3726172 0.3795396 0.0059755147
1.4835626 0.031610817 -0.29867348 -0.27493453 -0.15073451 0.26679146 -0.060542546 -0.172975
-1.4292619 0.8893019 0.5125253 -1.0625193 -0.31089577 -0.3108369 0.43261576 0.8691496
-0.04033628 -1.3479996 -1.0957989 -0.52715456 -0.49842227 -0.52284634 0.1317598 -0.2615573
-0.23375042 0.6362193 -0.57829374 -0.1961368 -0.08174467 -0.9229528 -0.25801748 -0.95408463
0.30625042 -0.3061591 0.33308256 0.37905258 -0.414981 -0.51800746 -2.0068398 1.2317451
0.3673544 0.3995918 -0.31564844 -0.20388056 0.10166398 -1.0683906 1.5509546 0.085463956
-0.30116343 -0.56082684 0.4631519 -1.2963468 0.24438877 -0.25202307 0.0681645 -0.75534266

arith.constant6 f4 [64]
00000000: 56bb 78bf 0405 b73e b1ff 523f 98c2 95bf
00000010: bd0c 0d3f 5962 81bf 24de 6b3f 3c23 b63d
00000020: bba0 aebf b64c 833e 760c 023e 30a0 7c3e
00000030: 96b8 463f 4bef 06bf 0c94 1a3f 652d 35bf
00000040: 68af 5cbe 2df9 c0bf 6f1a 1abf abc6 cb3e
00000050: 2ce7 4c3f d3cd 913e 77fc 48bf db78 473f
00000060: a8dd 58be 5afe 13bf 5761 0ebf 82dc 9abd
00000070: f038 193e 761d 47bf 7ace 0e3f 2544 643f
00000080: 7ab7 42bf 7fc6 613f ea43 29be 87ac cb3f
00000090: 4949 90bf de16 46bf c4c5 fa3e aa14 5abf
000000a0: a81f e6be 0689 26bd baef 483e 943f cbbe
000000b0: 9ed0 b73f e668 91bd 2601 d3bf 0a6f 373f
000000c0: 4098 06bf 5963 3e3f 4a26 a73e 069c 3bbf
000000d0: c0b9 8fbc 42a0 15bf 9617 843f 3fcf 13be
000000e0: b2c8 4e3f bb03 0abe bc65 4cbf 82b7 b1be
000000f0: 03cb 753d 04d1 96be d89c a4bf c044 bbbd
-0.9716085 0.35746014 0.82421404 -1.170001 0.5509756 -1.0108138 0.92135835 0.08893439
-1.3642801 0.25644463 0.12700066 0.24670482 0.77625406 -0.5270888 0.6038215 -0.7077239
-0.21551287 -1.5076042 -0.60196584 0.3980001 0.8004024 0.28477344 -0.7851023 0.77918786
-0.21178305 -0.57809985 -0.5561728 -0.0756159 0.14963126 -0.7777933 0.5578381 0.8916648
-0.76061213 0.88193506 -0.16529813 1.5912026 -1.1272365 -0.7737864 0.48979008 -0.8518778
-0.44946027 -0.04065802 0.19622698 -0.39696944 1.436054 -0.07100086 -1.6484725 0.7165381
-0.52576065 0.7437034 0.326464 -0.7328495 -0.017544627 -0.5844766 1.0319698 -0.14434527
0.80774987 -0.13477986 -0.79842734 -0.34710318 0.06000806 -0.2945634 -1.2860365 -0.091439724

arith.constant7 f4 [32]
00000000: 8389 6a3f 1719 7f3f c0bd 46bb 1285 873e
00000010: e401 0abd fb0b bf3f 3162 b4be 2a3e ff3d
00000020: 1616 973f cc88 c7bd 52bd 643f 29c9 03bf
00000030: 66b4 853d 2a60 2f3e cd4b b23e 0fb6 2e3f
00000040: ee45 eabd 31d1 473f d51a 563f 7f0c 3e3f
00000050: 07ae 523f 9b99 6c3e 6b7a 08be 55f1 ab3e
00000060: 242a 153f 54d6 533f 2e20 bd3e d157 bc3f
00000070: 69bd 083f 8b06 a53e 07a2 d63e 059c e63e
0.91616076 0.9964766 -0.0030325502 0.26468712 -0.03369321 1.4925531 -0.35231164 0.12463029
1.1803615 -0.09742889 0.8935138 -0.5147882 0.06528549 0.17126527 0.34823456 0.6824655
-0.11439119 0.78053576 0.8363469 0.7423782 0.82296795 0.23105471 -0.13327949 0.3358256
0.58267426 0.82748914 0.36938614 1.47143 0.53414017 0.32231554 0.41920492 0.45040908

arith.constant8 f4 [32]
00000000: 8828 a0bf a0fe 7d3f 832b 233f c594 5d3e
00000010: 8793 973e 8ba4 4b3e c350 1a40 cc24 a83f
00000020: a04e babc 7507 46bd 5087 5f3d b0cb b13c
00000030: d430 f83e 70b8 9d3e bea4 d83f 9529 c83f
00000040: 94ae 9bbf fdbf 0dbd 1e6d 97be 0512 1d3f
00000050: 03fd 403f 59a8 80be 0ce5 a9be fe6f 593f
00000060: c05a a5bf 008a a9bd 302d 0ebd 1a16 c03e
00000070: 2203 42bf db8e 96be 7731 143e b637 e7bf
-1.2512369 0.9921665 0.6373827 0.21638782 0.29604742 0.19886987 2.4111793 1.313623
-0.02274257 -0.048346955 0.054572403 0.021703571 0.48474753 0.30804777 1.6925275 1.563769
-1.2162652 -0.034606922 -0.29575437 0.6135562 0.75386065 -0.2512844 -0.3318256 0.8493651
-1.291832 -0.082782745 -0.034711063 0.37516862 -0.7578603 -0.29405865 0.14471994 -1.8063877

arith.constant9 f4 [16]
00000000: 865a 753f 3722 473e 5613 50be 850c 5f3e
00000010: 3a66 ccbe 3650 3e3e d404 f93d d04f 3f3e
00000020: 0fbb ac3d 5802 82bc 40c3 85bb 0268 b5be
00000030: 0872 333d 626d 003e 849b 563e a629 b63e
0.9584125 0.19446646 -0.20319876 0.2178212 -0.39921743 0.18585286 0.12159124 0.1868279
0.08434116 -0.015870258 -0.0040821135 -0.35430914 0.04380992 0.12541726 0.20957762 0.3557865

arith.constant10 f4 [16]
00000000: f565 953c 08d6 423f d573 ab3e d03f 4d3f
00000010: 4ce7 acbe f5fc 56be 236f 773e 04a2 a5bf
00000020: 5e40 a9bf b23e d43e 06ac 9cbf a641 913e
00000030: cf10 053f 352d 81be e583 9dbe 0261 0240
0.018237093 0.76107836 0.3348681 0.80175495 -0.33770216 -0.20994933 0.24163489 -1.2940068
-1.3222768 0.41454083 -1.2239997 0.28370398 0.5197877 -0.25229803 -0.3076469 2.037171

arith.constant14 f4 [64]
00000000: 15d7 b8bd 9db1 5fbc 750b 0abe 3a20 913d
00000010: 56ee 69be 0e81 333e 7a2c 9dbd 7beb 34bd
00000020: 1b01 b03c f136 bc3d 611b d6bb 0a53 653d
00000030: 051f 053d 2fd5 103c 65fe 83be a24f e43b
00000040: e5b0 ad3d e076 85bd 3990 203e 15f4 5cba
00000050: bb59 ccbd b16e 8ebd 26f5 1ebb ed87 603d
00000060: 95c8 da3b 9bdd 533b 0440 ab3d a0e3 05bc
00000070: 47a5 733d 256b cc3d b037 7cbb 4755 8ebc
00000080: f8bc de3d 28e3 30ba 12f6 c7be 4a34 a83d
00000090: 8a33 e8bc 6742 5fbe 2ccc 3dbd c5f5 a73d
000000a0: d934 2d3e 3b2f ebbd 2469 83b9 6bde 0abc
000000b0: b953 eabd 9b88 553e 14dc af3d f0a7 51bd
000000c0: 7d55 1c3e babb 0cbe 3511 00be d366 02be
000000d0: e6aa 813b 3039 373d db46 b9bd 6106 9dbb
000000e0: c98e 7d3c 4322 5ebe 157f 4abe 4fdf 09bc
000000f0: c2ee 7b3b 9aea 4c3d 36cc 68be a87f 04be
-0.09025399 -0.013653186 -0.13480933 0.07086225 -0.22844824 0.17529699 -0.07674499 -0.044169884
0.021484902 0.09190167 -0.0065340255 0.055987395 0.032500286 0.008839889 -0.25780025 0.006967501
0.084810056 -0.06516814 0.15680017 -0.0008428705 -0.09978052 -0.069547065 -0.0024255007 0.05481713
0.0066767433 0.0032328132 0.083618194 -0.008171946 0.059483793 0.09981374 -0.003848534 -0.017374648
0.10875887 -0.0006747716 -0.39054924 0.08213098 -0.028344888 -0.21802674 -0.04633729 0.08201174
0.16914691 -0.11483618 -0.00025064603 -0.00847588 -0.1144175 0.20852892 0.085868984 -0.05118555
0.15266986 -0.13743487 -0.12506564 -0.12734537 0.0039571403 0.044732273 -0.09046718 -0.00479202
0.015475937 -0.21692757 -0.1977504 -0.008415057 0.0038441871 0.05002842 -0.2273415 -0.12939322

arith.constant15 f4 [64]
00000000: a00e 5ebc d861 19be cb49 2c3e 0104 cc3c
00000010: d1b8 653d 6f31 183e b6ed 2e3e f509 2bbe
00000020: 3e4e 25bd 2aeb 833d c227 14be 8081 663e
00000030: 1ab6 4bbc 5919 3d3e 7752 433d 3b12 913d
00000040: 77ac 9ebd e633 80bd 55ae 183d 4d85 6ebc
00000050: f0d7 2f3c 74e8 ffbc a35b 023c b789 693d
00000060: 47cc 6ebd 8f4e 87ba 0aa7 7a3c 4df0 083e
00000070: 6d7e 67bd e809 c7bc cb00 193c da43 1abe
00000080: 1a53 39be 14f7 cd3d 36d6 f43d c937 4d3e
00000090: d89a 40be ea2c 3a3e 7f79 2d3e 548d 0d3d
000000a0: a80b a4ba 9712 7e3e 72d6 e13b b5da c9ba
000000b0: 2f74 323e 576b 54be 2ae5 20be 8a29 20bd
000000c0: 6acf 843e 6529 ac3c ba05 723d 02fb 7c3c
000000d0: 35cf 1b3b 1523 b7bc 7bad 043d 9a62 3c3c
000000e0: 87cc 41bc 1d19 713e 039f c0bd 7294 6ebe
000000f0: 1094 c43b 8a61 083c 3c8b 09be 8ab4 d43d
-0.013553292 -0.1497873 0.16825025 0.024904253 0.056084458 0.14862607 0.17082867 -0.16703017
-0.04035782 0.06441338 -0.14468291 0.22510338 -0.012433553 0.184667 0.047686066 0.07083555
-0.07747739 -0.06259899 0.03727563 -0.014558149 0.010732636 -0.031238772 0.007956418 0.0570161
-0.058300283 -0.0010323095 0.015298614 0.13372917 -0.056517053 -0.024296716 0.009338568 -0.15064946
-0.18098107 0.10056892 0.1195492 0.20040812 -0.18809068 0.18181196 0.16940878 0.03455861
-0.0012515681 0.24811779 0.006892019 -0.0015400263 0.17427133 -0.20744072 -0.15712419 -0.039102115
0.25939494 0.021015832 0.059087493 0.015440704 0.0023774628 -0.022355596 0.032392006 0.011498118
-0.011828548 0.23544736 -0.09405329 -0.23298815 0.0059990957 0.008324036 -0.1343202 0.103859976

arith.constant16 f4 [64]
00000000: 9ba3 013d 7fb1 be3d 5190 ea3d bc8d f9be
00000010: 92e8 003f 9d4e 8b3e 4508 343d 6c8b a5bc
00000020: 40d1 2a3e 2514 79be 983b da3d 3b0f 1e3e
00000030: bab1 d2be 6e52 9bbc b025 d53d a8fa 1dbe
00000040: 88f4 3e3e cd21 6dbd 41c9 f6bd 82f0 f63d
00000050: 7075 363e e64d ecbd e6d6 813e c92e 41be
00000060: c98f 5cbe f42b ae3e 6760 cbbe 2683 a73e
00000070: 2263 0f3e e6e9 4c3c e045 24be 6e8c 163f
00000080: 7f9b b9be f9e0 96be 87d3 bdbb c38c a0be
00000090: 7d57 08bf ac8d 5a3c dfb4 f73d 172c b33c
000000a0: 2c68 413e 631d 643d ec48 94be b1e1 1cbe
000000b0: 0cea af3e 81b1 5abb 9b58 fdbe 6b78 a03d
000000c0: fe71 993d 0fe6 af3e 29b5 213e 049c 82ba
000000d0: 1b2f 3b3e 8d76 91bd 8c85 41be af1f 9e3e
000000e0: 4289 0ebd 2759 af3a 636f 07be 130c 463e
000000f0: 07c0 4c3e b949 44bd b0a1 1d3f 5fa8 9c3e
0.031650167 0.093111984 0.114533074 -0.48740947 0.50354874 0.27208415 0.0439532 -0.020208083
0.16681385 -0.24324091 0.10655898 0.15435497 -0.4115122 -0.018960204 0.10407579 -0.15427649
0.18647969 -0.057893563 -0.12050105 0.12057592 0.17818236 -0.115382954 0.25359267 -0.18865503
-0.21539225 0.3401791 -0.39721987 0.32717246 0.1400266 0.012506938 -0.1604228 0.5880803
-0.36251447 -0.29468516 -0.0057930383 -0.31357393 -0.53258497 0.013339441 0.12095045 0.02187161
0.18887395 0.055692088 -0.28961885 -0.1532047 0.3435825 -0.003336996 -0.49481663 0.07835468
0.074924454 0.34355208 0.15791763 -0.0009964709 0.18279688 -0.0710269 -0.188986 0.30883548
-0.034798868 0.001337801 -0.13226084 0.19340543 0.19995128 -0.04792187 0.6157484 0.30597207

arith.constant17 f4 [128]
00000000: 01a3 30bd 2666 4d3e e634 103e 43e6 e8bd
00000010: 2df0 93bc 7006 5ebe bc75 adbe a47f b33c
00000020: 0069 eebc 6650 99bc 1da6 cfbd 27ff 9dbd
00000030: 2ee1 a4bb d965 74bc 2201 01bd 3445 0e3e
00000040: 64f4 0a3e 57ac 02bc d087 a0ba 401c 9c3e
00000050: f840 ef3d 18a8 83bd b9ee 44bd 8c35 cc3d
00000060: 8229 a33b dfb0 f4bb fd69 09be b8d2 653d
00000070: 0254 653d 7f9c be3c a8e4 99bc d088 00be
00000080: ac3d f7bd 094b cc3e 742f c13d e326 a53c
00000090: d316 f03d a1ec 383d ec37 48bd 468e a0bd
000000a0: 79f4 843e 68ea 653e 5018 a93b 5c33 c83c
000000b0: d5ae e2bb 50f9 d2bd 82da 18be f67f 3ebd
000000c0: f4b0 373c a042 883c b969 2fbc 39eb 3abc
000000d0: cee7 093e 6308 a139 0e3e 6a3d ecfb 58bc
000000e0: 8b6e bf3d c54d fc3b 55bc 92be 71d3 b13d
000000f0: 0202 053e 5a60 873d b1a6 90bd 5891 d73d
00000100: 1848 8dbc 0ea9 00bf b647 60bd 8424 fb3d
00000110: 31d2 283e 8edc d9bc aa98 193e bcf3 abbc
00000120: 57f9 b53d 404e 8a3e 7701 143f 80f4 d0bc
00000130: 455b 293f 80bf 8a3b 1b01 2c3d f595 c33c
00000140: 706c 523b b220 1abd 32d4 14bd 1ae0 07bd
00000150: 3be2 84bc bce9 d13a 7052 1eba d568 0abf
00000160: 1d25 95bb 5995 9b3e 68d6 083e f046 e6bd
00000170: 577d f93d dc28 8e3d 9c0e 8cbb 9a05 5b3c
00000180: bac1 0a3e 3761 f1bb ec30 63be 808d 31bd
00000190: 314a 683e b03b 133e 5809 ca3e 6461 ffbc
000001a0: 2cab fb3c 0aa3 7f3d d440 d33d b922 cf3d
000001b0: f41a a4be 1c8a 84be 5a69 6dbc 2da4 92bd
000001c0: 96a3 2fbe 5c74 0bbd b4b3 13be 461e 11bd
000001d0: f360 193d 2832 153c 0455 b83c 449d 033c
000001e0: 326c 033e 5154 00be 5015 313d acef babc
000001f0: f2b3 173e fa15 87bb 6ef0 5c3d e46a aa3e
-0.043124203 0.20058498 0.14082679 -0.11372044 -0.01805886 -0.21682143 -0.33878887 0.02191145
-0.029102802 -0.018715095 -0.101391055 -0.07714682 -0.0050317263 -0.0149168605 -0.03149522 0.13893586
0.1356979 -0.007975659 -0.0012247507 0.30490303 0.11682314 -0.06428546 -0.048079226 0.09971151
0.0049793134 -0.0074673737 -0.13419338 0.05610916 0.05598832 0.023267983 -0.01878579 -0.1255219
-0.1207231 0.39900997 0.09432879 0.020160144 0.117231034 0.045147542 -0.048881456 -0.078396365
0.25967768 0.224527 0.005160369 0.024438553 -0.0069178143 -0.10301459 -0.14927104 -0.04650875
0.0112116225 0.016633332 -0.010706359 -0.0114086205 0.13467333 0.00030714562 0.057188086 -0.013243657
0.09347256 0.0076997005 -0.2865931 0.086829074 0.12989047 0.066101745 -0.07063044 0.10525769
-0.017246291 -0.50257957 -0.05475589 0.12262824 0.16486432 -0.026594426 0.14999643 -0.020990245
0.088854484 0.27012825 0.57814735 -0.025507212 0.6615489 0.0042342544 0.04199324 0.023875216
0.003210809 -0.037628837 -0.036335178 -0.033172704 -0.016221156 0.0016015093 -0.0006039506 -0.5406621
-0.0045515434 0.3038738 0.1336304 -0.11243999 0.1218211 0.06941387 -0.0042742025 0.013368035
0.13550463 -0.0073663252 -0.22186631 -0.043347836 0.22684552 0.14378238 0.39460254 -0.03117437
0.03072127 0.062411346 0.10315099 0.10114045 -0.32051814 -0.2588662 -0.01449045 -0.0716022
-0.17152247 -0.034046516 -0.1442402 -0.03542926 0.037445974 0.009106196 0.022501476 0.0080331005
0.12834242 -0.12532164 0.043233216 -0.022819363 0.14814737 -0.004122493 0.05394023 0.33284676

arith.constant18 f4 [128]
00000000: 6e77 4fbd d42a 08be 8c9a 61be d3a7 73ba
00000010: f4bb 59bc 17dc 903d ba32 223c 9e63 813c
00000020: e776 4bbd 847b 473c af8e 48bd 2e35 4a3e
00000030: 0978 00bc aa20 03be e415 753d 9c7e 893d
00000040: 8850 fd3d f049 cbbd c8b4 3bbe 129b ae3c
00000050: 9dbc 653d f54f ebbc a3f1 dabd 0ea5 e33c
00000060: 54e5 d2bd 4f8f 95bd b9f5 60bd 18a1 073d
00000070: 4682 c7bd 38db 89bd ab0e 8abd cb6f 7b3d
00000080: 24ae 6dbd 0ace 50bc afef 173d 3651 e63c
00000090: 4f52 8dbc 9134 b5bc 812e a2bd b631 233e
000000a0: 4199 9d3d 5fec 713d 6ea8 87bd f906 87bd
000000b0: 2f70 6339 ca67 cfbb 18e2 86bd b89c cb3a
000000c0: ae2f b93c 85fa abbd 9456 c8bd 63e6 bd3d
000000d0: 5f1c 79bc 4797 3ebd 2355 03be 6942 5dbd
000000e0: 1354 93bd 1710 97bd 0845 343d 6507 69bc
000000f0: 8668 bc3d 6765 083b 2bae ddba 345e 51bd
00000100: 06dd 36bd 9e35 c43d 6af9 aebd 5ca7 36bd
00000110: 7f32 803b 2ccb d53c 6258 1abd a19a fdbd
00000120: 2975 20be 6b76 40be 01f2 c73d 0dbf fb3d
00000130: cd95 85bd d8c9 d93b 77a8 4b3b 4c16 893d
00000140: f5e1 4a3d 5028 913d 2dcd 753e 5250 63bd
00000150: 36da a6bd 53ba c1bd d8ec 423d 2f40 813d
00000160: 446a a0bd c66b a93d 9d84 1a3d aa02 043e
00000170: 7a60 5f3d 7983 36be 6350 a33d bc3e 01be
00000180: 8de4 42be dfc9 f23d ce22 ccbb 88b0 98bd
00000190: 6b53 fdbd 69d2 a1bb 8c1c 30bb 32e1 bfbe
000001a0: a707 0abd ae4b 173e 17bf a7bd db73 ed3d
000001b0: 4e68 7ebd f5ad e1bd a49f f73d 139b 0c3e
000001c0: 325d 51bb b2f6 72bd ffd0 a13c 4376 043e
000001d0: da64 063e c559 00bd 9aba d03d dcb8 ac3d
000001e0: 9c08 f4bd 33cb a03d 9709 b73c 8ec5 d2bd
000001f0: f862 563d 51fa 94bd 1db1 7b3c ef29 cb3d
-0.050651006 -0.13297588 -0.22031611 -0.0009294722 -0.01328944 0.07073229 0.0098997895 0.015794571
-0.04967394 0.0121754445 -0.0489642 0.19746849 -0.007841119 -0.12805429 0.05983533 0.06713602
0.12368876 -0.09926212 -0.18330681 0.021314178 0.05608808 -0.02872465 -0.1069062 0.027788665
-0.10297647 -0.073027246 -0.05492184 0.033112615 -0.097416446 -0.06731266 -0.06741079 0.06138591
-0.0580274 -0.012744436 0.037093814 0.028114896 -0.017251162 -0.022119792 -0.07919026 0.15936932
0.076952465 0.05906331 -0.06623922 -0.06593127 0.00021690199 -0.0063295113 -0.06586093 0.0015534377
0.022605743 -0.08397392 -0.097821385 0.092724584 -0.015204518 -0.046530988 -0.12825446 -0.05401841
-0.0719377 -0.07376116 0.044011146 -0.014222954 0.09199624 0.0020812394 -0.0016912868 -0.05111523
-0.044644378 0.09580539 -0.08543666 -0.0445932 0.0039122696 0.026097856 -0.037681945 -0.12383009
-0.15669693 -0.18795173 0.097629555 0.122922994 -0.06522713 0.006646376 0.0031075755 0.06693706
0.049531896 0.07087767 0.2400405 -0.05549652 -0.08147089 -0.09459367 0.047589153 0.0631107
-0.078327686 0.08272509 0.037724126 0.12891641 0.054535367 -0.1782359 0.07974317 -0.12621588
-0.19032498 0.1185491 -0.006229735 -0.07455546 -0.12369426 -0.004938413 -0.0026872484 -0.37476498
-0.033698704 0.14774963 -0.08190744 0.11594363 -0.06211119 -0.11019508 0.12090996 0.13731031
-0.0031946418 -0.0593173 0.019752977 0.12935738 0.1312441 -0.03133561 0.101918414 0.08433697
-0.119157046 0.07851257 0.02234344 -0.10291587 0.052340478 -0.072743066 0.015362051 0.099201076

arith.constant19 f4 [128]
00000000: 5385 20bd b0a6 3fbf c942 93be c937 2cbf
00000010: a93c 06be 0932 da3d 4db7 5b3e 6015 98bd
00000020: c016 12bf 9f37 0f3d b32a 683e 728d 87be
00000030: 8b12 853e 27bb c8bf e072 ec3b a804 2abe
00000040: 3bfe 303f 309b 22be d2d8 ed3e 2066 393c
00000050: 106b 57bf 5bd3 8a3e c37d 113e 2011 18bd
00000060: 3e27 09bd 361a 3fbe 84e5 a6bd 24bb 153e
00000070: 184c 473c b37e 82be 70fb 5b3e 82f2 9c3d
00000080: e538 8cbe 8126 0fbe 75bf bebe c002 21bf
00000090: 0e47 85bf 82c6 90bf 7f7d b7be baee a43f
000000a0: 9589 8abe 0c32 56be e2b7 dabe 3b2d 28be
000000b0: f498 5dbe 96f6 433e f801 313f 7019 75bc
000000c0: 3520 5e3f 7725 d5be 4088 853f 6c25 2d3f
000000d0: 0446 38bd 5a65 1bbd 49f7 4cbf aced eebd
000000e0: f65f 843f e6fd 0dbe a413 5e3d 00db 3bbe
000000f0: 706c e23e 7ee2 91be 20cb c53c 7c0d 2f3f
00000100: 5c73 4bbf 1e45 0c3f 55c7 bfbe d66a d4be
00000110: 692c 743e 3233 2d3e 1efd 743f 55b3 b03e
00000120: ee8e b8be 308c a6bf c2f1 f33f ea59 d0bd
00000130: ad08 273f 1a5a 7bbe c29e bcbe c041 973b
00000140: c3d3 c73e 79ed 0dbd bae7 cd3e c8a0 3fbe
00000150: d8bd b63f 8aac 173f 6a3c d03e c421 983f
00000160: 6608 093f 2288 263f ff0c 483e ecc5 9bbf
00000170: 68a2 0b3e 9b21 eebe 882e e2bd 34c4 ab3f
00000180: b40e a43d 2899 583f 5c23 083d f4a9 a8bd
00000190: 0e0b f53e bc59 87be 205d 34bf 883b f13c
000001a0: c81c f2be fb78 9bbf 93ff 7bbe 7678 223f
000001b0: 58b6 a6bf b4d7 a33e 4153 3c3f 3cc7 a3be
000001c0: 1a50 6a3f 76c9 b6be d495 a0be 50ce 72bf
000001d0: 9058 15bf ec5b 99be 9e9f 473f 7524 75bf
000001e0: d004 93be fc16 d53e a03c 8bbb 09be 4b3f
000001f0: 85cd a23d 23ae 40be 7441 a93e 1ac3 3a3e
-0.039189648 -0.7486372 -0.2876189 -0.6727262 -0.13109078 0.10654075 0.21456642 -0.07425952
-0.57065964 0.034965154 0.22672538 -0.26475102 0.2599071 -1.5682114 0.0072158426 -0.16603339
0.69137925 -0.15879512 0.46454483 0.011315852 -0.8414774 0.27114376 0.1420813 -0.037125707
-0.03348469 -0.18662342 -0.081492454 0.1462217 0.012164138 -0.2548729 0.21482635 0.07663442
-0.27387157 -0.13979532 -0.37255445 -0.6289482 -1.0412309 -1.131058 -0.35837933 1.2885354
-0.27058092 -0.20917529 -0.42718416 -0.16423504 -0.21640378 0.19137034 0.6914363 -0.014959678
0.86767894 -0.41630146 1.0432205 0.67635226 -0.044988647 -0.037938453 -0.8006483 -0.11666426
1.0341785 -0.13866386 0.05421795 -0.1834526 0.44223356 -0.28493112 0.02414471 0.6837995
-0.794729 0.54792964 -0.37456766 -0.4148776 0.23845066 0.1691406 0.95698726 0.3451182
-0.36046547 -1.3011532 1.9058154 -0.101734 0.65247613 -0.2454609 -0.36839873 0.0046159923
0.3902875 -0.0346503 0.40215856 -0.18713677 1.4276686 0.5924765 0.40671092 1.1885304
0.5352844 0.6505147 0.19536208 -1.2169776 0.13636172 -0.46510014 -0.110440314 1.3419251
0.08010617 0.846087 0.033236846 -0.08235541 0.47859997 -0.2643565 -0.704546 0.029447332
-0.47287583 -1.2146295 -0.24609213 0.6346506 -1.3024397 0.32000506 0.73564535 -0.3198794
0.91528475 -0.35700577 -0.3136431 -0.9484606 -0.5833826 -0.29952943 0.7797793 -0.95758754
-0.2871461 0.41619098 -0.0042491704 0.79586846 0.07949356 -0.18816428 0.3305775 0.18238488

arith.constant20 f4 [64]
00000000: 3e8c 09bd 9f1d 8d3e d741 abbc 368f 883d
00000010: 1b8e 55be cb93 973d 8fad 733d 270f f93d
00000020: 4d5d 66bd 8723 f33d 970d 45bd 8f9c ea3d
00000030: 0e83 bdbb 4e87 86bd d2d8 46be 7d96 c43c
00000040: 65a6 3d3e 8577 0bbd 4b87 81be 10b2 7cbe
00000050: a57e 43bd c578 8b3c 78b4 8ebd 1620 9ebb
00000060: 0247 82be 2fc5 5fbe d2be 043e a171 c5bb
00000070: ab27 09be df85 823e 4766 afbc c66c 19be
00000080: d1e2 2dbe 28c2 5f3d 8ff3 d13c 80f1 343d
00000090: 9fb6 4f3c ba19 3ebe d20c 123e a579 80bb
000000a0: 00a1 95bd 2d71 ac3d 6e74 2b3d cbb6 2dbe
000000b0: 9d49 3e3e da8e bf3d 2dbb 17bd da85 373e
000000c0: 31f1 bbbd 6d55 bbbd 3ee1 993e a10f 4fbe
000000d0: 10b9 fd3c 16b9 88bc 511e 44bd ec60 1ebb
000000e0: 7109 a7bd 85ca a3bd f462 a3be 2447 093e
000000f0: 0a0c e7bd 211e b8bc b0fb 863e 0e57 64bd
-0.03358101 0.27561662 -0.020905418 0.0666794 -0.2085499 0.07401236 0.05949169 0.12161093
-0.056241322 0.11872011 -0.048108663 0.114556424 -0.005783445 -0.06568776 -0.19418648 0.02399754
0.18520506 -0.03404953 -0.25298533 -0.246773 -0.0477282 0.01702536 -0.069680154 -0.0048256023
-0.254448 -0.21852563 0.12963417 -0.0060255085 -0.13394038 0.2549276 -0.021411074 -0.149829
-0.16981055 0.05462852 0.025628833 0.044175625 0.012677818 -0.18564501 0.14262703 -0.003920751
-0.07306099 0.08420024 0.041859083 -0.16964261 0.18582769 0.09353419 -0.03704374 0.17922154
-0.09176863 -0.09147153 0.3005466 -0.20220806 0.030972034 -0.016689818 -0.047880474 -0.0024166657
-0.08156098 -0.07997612 -0.31911433 0.13406044 -0.11281593 -0.022475304 0.26363897 -0.055747084

arith.constant21 f4 [64]
00000000: 24a1 bb3d c0c6 d53d 8c20 bb3d af1f ae3e
00000010: 7836 883e b0d3 37bf 108d 3dbd 0995 9a3f
00000020: 881c 8c3e b061 83bc 1f05 84be 7194 af3e
00000030: ba1b abbe 61ea a2bd 0d74 1e3d b325 803e
00000040: f0b4 f2be 62ed 663e 26ab e2be c31f 883e
00000050: 1d4f f33e 4415 0bbe 34b0 a23e b850 f6bc
00000060: bfc3 f93d 28f2 39bf 387e d1be f798 b13d
00000070: 087d 903e 658d f8bd cb08 a5be 5bcb 033e
00000080: 504e 00bd 20a6 a03e 1af3 3abf e66e ddbd
00000090: 346b 6cbe f210 69bf d261 6bbe dc99 12bf
000000a0: 7ac2 303f bc53 00bf 6292 f1be 2caa b03d
000000b0: a64d 433f 88af 143d c5eb 1e3f 7867 d23e
000000c0: b4d0 bfbe 8512 1fbe f07c 08bd 2566 06bf
000000d0: e665 bbbe 8954 c83e c8bf 34be f681 dfbe
000000e0: ec44 7f3d b8ac 173e 8a97 003f e479 093f
000000f0: 6324 8ebf 801b 3d3c f211 04bf 3aac 78be
0.091615945 0.10438299 0.09137067 0.34008548 0.26604056 -0.71807384 -0.046277106 1.2076732
0.27365518 -0.016037792 -0.25785157 0.3429294 -0.3341959 -0.079548605 0.038684893 0.25028762
-0.4740367 0.22551492 -0.442712 0.26586732 0.47521296 -0.13582331 0.31775057 -0.030067787
0.12195539 -0.72635126 -0.4091661 0.08671754 0.2822039 -0.12136344 -0.3223327 0.12870543
-0.031324685 0.31376743 -0.73027194 -0.10812168 -0.2308777 -0.9104148 -0.22986534 -0.5726602
0.6904675 -0.5012777 -0.47181994 0.08626208 0.7629036 0.036300212 0.62078506 0.41094565
-0.37463915 -0.15534408 -0.033322275 -0.5249961 -0.3660118 0.39126995 -0.17651284 -0.4365384
0.06232159 0.1481198 0.5023123 0.53701615 -1.1104854 0.011542201 -0.5158988 -0.24284449

arith.constant22 f4 [64]
00000000: 8d8f 94bd f140 51bd 6a5d ccbc eb04 533d
00000010: c4e0 463d f52a 99bd 3a09 963d 8f92 cdbd
00000020: 170e 223e fa0f 54be c563 7bbd 542f 2ebe
00000030: c98b 1cbd 4b0b 713d ac38 41bd 62b1 28bd
00000040: 9343 af3d 6ca1 4dbe 652b a83c a0e5 4c3d
00000050: 581f 9e3c 0d77 ecbc 7362 d03c 9149 2e3e
00000060: 0c75 d03d 96d6 a8bd 38ac ab3d 9dbc 10be
00000070: 4946 9d3c ec36 243e 2771 843d 122e aebd
00000080: 8503 be3d f8c4 113e 0ad8 5ebd 89fa 8ebe
00000090: 2382 d93b 4c6a cfbd 03f7 bc3c b424 813e
000000a0: ac64 11be bdf1 12bd c55e c8bd 79f6 373d
000000b0: 621c b13d dbdd e2bd eeeb 803e 274b 0d3e
000000c0: a17c f1bc 1511 34be 6190 953a 1fe9 293e
000000d0: 3da3 ec3d f732 4fbe d5e4 7e3d ee3b af3d
000000e0: b6eb 0a3d b1fa 963b bf9b b73b 3b9c 61be
000000f0: 0da3 363e 97ed c7bd bfff bebd b2ab 473e
-0.07253943 -0.051087324 -0.024946887 0.051518362 0.048554197 -0.074788965 0.073259786 -0.100377195
0.15825687 -0.2070922 -0.061374445 -0.17010242 -0.038219247 0.05884866 -0.047173187 -0.04118479
0.08557811 -0.20081109 0.020528505 0.050023675 0.019302055 -0.028865362 0.02543757 0.17020251
0.10178575 -0.08244054 0.083824575 -0.1413445 0.019198554 0.16036576 0.064668946 -0.08504881
0.09278015 0.14235294 -0.05440525 -0.27925518 0.006637828 -0.101276964 0.023067003 0.25223315
-0.1419856 -0.03587507 -0.09783701 0.04491279 0.08647992 -0.11077472 0.2518 0.137982
-0.029478373 -0.17584641 0.0011410826 0.16592835 0.11554573 -0.20234285 0.06222995 0.085563526
0.033916198 0.0046075215 0.005603283 -0.22032253 0.17835636 -0.097621135 -0.093261234 0.1949909

arith.constant23 f4 [64]
00000000: 28e6 38bd dca0 a9be d3c0 0ebe 14f8 7bbf
00000010: ffb0 dc3d 474d ad3e f537 2bbf fc26 653f
00000020: a8a9 c63e 2969 30bf 2057 f3be 348d b53d
00000030: 4c90 a83e 73b8 00bf cf24 113f e528 2cbf
00000040: 4c79 86bd dbc4 12bf 1c6c a33d ca77 753f
00000050: 4017 7a3c 40e4 b8bf d9bb 6fbe 1334 50bf
00000060: dae8 653f e6bf 9b3f 68a2 12be 2833 cfbe
00000070: ec28 74be 4707 aa3e 3b70 823f b0e5 afbd
00000080: 3f50 c6be 421f 56bf e71e 81bf fc7d 5fbd
00000090: e084 163f bea4 5ebf df87 9f3f 040e 8a3f
000000a0: c42f fcbe 2cbc da3f 2ca8 c43e 0884 733f
000000b0: 4d12 703f 5263 e4bf 2104 e93e ed32 0e3f
000000c0: ec5e 7e3f e0bc 50bf c02b ab3d 8ee7 583f
000000d0: a8ee b63e 24fb 533d 8141 cc3e 78fa 4f3f
000000e0: 5605 fe3e c18d 393f b12d 9f3e ea69 d83e
000000f0: f9ad a7bd 0187 95bf a06a a8bd 52b9 08bf
-0.04514137 -0.33130538 -0.13940744 -0.9842541 0.10775947 0.3384802 -0.6688226 0.8951261
0.38801312 -0.6891046 -0.4752741 0.08864823 0.3292259 -0.5028145 0.5669679 -0.672499
-0.06566104 -0.5733163 0.079796046 0.9588591 0.015264332 -1.4444656 -0.23411502 -0.8132946
0.8980843 1.2167938 -0.14319766 -0.40468717 -0.23843735 0.33208677 1.01905 -0.08588731
-0.38733098 -0.83641446 -1.0087556 -0.054563507 0.587965 -0.86970127 1.246334 1.0785527
-0.49255192 1.7088675 0.38409555 0.9512334 0.93777925 -1.784281 0.45510963 0.55546457
0.9936359 -0.815382 0.08357954 0.84728324 0.35728955 0.05175318 0.39893726 0.8124156
0.49613446 0.72481924 0.31089547 0.42268306 -0.081874795 -1.1681825 -0.08223462 -0.53407776

arith.constant24 f4 [32]
00000000: 519f b53c 81e8 103e b4a1 553b c31d 7d3d
00000010: 34f5 b7bd b565 303c 3b89 9abe caae e6bd
00000020: d1bd 9dbd ef39 a73d a96a 9ebd 5297 e0bd
00000030: aa30 323e 4d9a 97bc 5127 a13d 5e3f 343e
00000040: 7de4 21be 885e ca3d 2f71 15be 8943 f2bd
00000050: 35cf 6b3d bacb cbbc a341 93be 1b03 89bd
00000060: aea5 cb3d 92f7 d1bc 0511 153e 2498 8e3d
00000070: 7d44 48be ea47 b03d a80b a3be 1f1a d33e
0.022170695 0.14151193 0.0032597603 0.06179596 -0.08982316 0.010766436 -0.30182824 -0.11263807
-0.0770222 0.08165347 -0.077351876 -0.10966362 0.17401376 -0.018506194 0.07868827 0.17602298
-0.15809818 0.09881312 -0.14593957 -0.118292876 0.057570655 -0.024877418 -0.28761014 -0.066900454
0.0994371 -0.025630746 0.14557274 0.06962612 -0.19557376 0.086074665 -0.3184483 0.41230866

arith.constant25 f4 [32]
00000000: 9c93 7dbe c880 2b3e 7696 eabf cab2 bfbf
00000010: 10a6 3d3d b607 88bf c022 f63d dcc4 3d3e
00000020: d5b2 fe3e c90a 8bbe 6c98 66be 7041 78bd
00000030: 3ee7 6abf 3439 96be 124b 97be f3ba 27bf
00000040: b9b4 9f3d 3f4d 93bf a3d8 0abf 3777 d43e
00000050: d989 91be 01bd 1abe 2d33 343f ffa9 9ebe
00000060: a216 c4be 6c0a 323f 0ea4 3ebf 3398 03be
00000070: 0b3a c4bf 944f 69be 1964 b33e 3cbc 983e
-0.2476334 0.16748345 -1.8327167 -1.4976437 0.046300948 -1.0627353 0.12018347 0.18532127
0.49745813 -0.27156666 -0.22519082 -0.06060928 -0.917591 -0.29340518 -0.29549462 -0.65519637
0.07798142 -1.1507949 -0.5423681 0.41497204 -0.28425482 -0.15111162 0.7039059 -0.30989072
-0.38298517 0.6954715 -0.7446908 -0.12851028 -1.5330213 -0.22784263 0.35037306 0.2983111

arith.constant26 f4 [128]
00000000: f622 38bb f0e6 253e 43e6 783e 6df9 b9bd
00000010: 17f2 ef3d 785e fd3d 9082 933e 300e e7bd
00000020: d5c8 32bc 2d0f 1ebe d34a 963c dad9 94bc
00000030: 3157 b6bd a33b 3abd 587f 503d e5fd 4f3e
00000040: 5ba4 22be cde9 953d 0744 353e 48c0 6dbe
00000050: dbe6 cdbc 9ddd 4e3e 1299 92be 91b6 663e
00000060: 2458 663d df45 2bbd dfa5 c6bd ac25 c53b
00000070: 9789 7bbe c7a4 153e f773 9f3d b564 3b3e
00000080: 1d4a 7b3e 06ca 263e 5655 25bd afb6 85bd
00000090: e613 a53e 291f 8d3d 0aea 9c3e 6cd6 30be
000000a0: 0af4 053e c3d3 103d 52be 833e ffbb edbc
000000b0: f3d1 0f3e 6791 a43d ac19 1b3e df02 533e
000000c0: 530a 3ebd 01b1 4fbe e079 01be da1e 8bbc
000000d0: 5903 4dbe f0e5 b3be f58f 18be 7ae6 d43c
000000e0: 459d 3c3e 3e01 383e db1f 2bbe 5ab3 66be
000000f0: 1ee5 1fbe b7a2 e33d 4fff 91bd a155 d63c
00000100: a073 143e ec62 a53e f709 423e e015 85bd
00000110: 53db aa3d e737 a73e 2b35 483e c45b a6bd
00000120: 439b 113e e41e 273d 7bb8 b83d b34f 763e
00000130: b1ff 4cbe e917 b93d 5358 96bc 7efe 753b
00000140: ac8a babc 19a8 e8be 0b2e 2b3e d324 0f3e
00000150: 26e6 8ebd 31d9 1cbe ae22 66bd e99c 653e
00000160: 977d 593e 3b17 48bb bfc1 643d fb4f 98bd
00000170: 5856 db3d 717b 2b3d 1de6 9b3d 0ae3 77be
00000180: b649 5bbe 318d 99b9 f763 3cbe 3752 d4bd
00000190: 2641 6e3e 19ee 0f3e 0e64 cc3d b08f 503d
000001a0: 2f23 893e 6d47 863e 9f2d ffbd 0829 47bd
000001b0: c5f8 10bd d5c9 e3be ad35 693e 52c8 a63c
000001c0: 6d21 ae3e fc6d fa3d 65f4 39bd cecc 183e
000001d0: 133c a0bd 47f4 0c3e ee5b 74be c519 04be
000001e0: c4ef 403e 6e9b d83d ba56 ea3d 6d5a edbb
000001f0: 79df ae3c 4934 84be 46f5 9f3d 1d37 cdbb
-0.002809701 0.16201377 0.24306588 -0.09080777 0.11716097 0.12371534 0.2881055 -0.11282003
-0.01091214 -0.15435477 0.018346226 -0.018170286 -0.08903349 -0.04546703 0.050902694 0.20311697
-0.15883009 0.073199846 0.17701732 -0.2321788 -0.025134495 0.20201726 -0.28632408 0.22530581
0.0562364 -0.04181468 -0.09699606 0.0060164537 -0.24564205 0.14613639 0.077857904 0.18300135
0.2453999 0.16288003 -0.040364586 -0.06528985 0.32241744 0.06890709 0.30647308 -0.17269295
0.13081375 0.0353582 0.2573114 -0.029020308 0.14044933 0.08035546 0.15146512 0.20606564
-0.046396565 -0.20282365 -0.12644148 -0.016982485 -0.20020808 -0.35136366 -0.14898665 0.025988806
0.18419369 0.17969224 -0.1671137 -0.22529355 -0.15614745 0.1111502 -0.071287744 0.026163878
0.14497232 0.32302034 0.18949114 -0.06498313 0.08342614 0.32659838 0.19551532 -0.08122972
0.14219384 0.040800944 0.09019562 0.2405384 -0.20019414 0.090377636 -0.018352663 0.0037535722
-0.022771202 -0.45440748 0.16716783 0.13978891 -0.06977491 -0.15317227 -0.056185417 0.22423138
0.21239315 -0.0030531425 0.055848833 -0.0743713 0.10709828 0.04186577 0.0761225 -0.24207702
-0.21414837 -0.0002928763 -0.18397509 -0.10367244 0.2326704 0.14055671 0.099800214 0.05091828
0.26784655 0.2622637 -0.124598734 -0.048623115 -0.035393495 -0.44489923 0.22774382 0.020359192
0.34009877 0.12228009 -0.04539909 0.14921877 -0.07823958 0.1376506 -0.23863193 -0.12900455
0.18841463 0.10576521 0.11442323 -0.0072434456 0.021346794 -0.2582114 0.07810454 -0.0062626735

arith.constant27 f4 [64]
00000000: 98e7 da3d 5a67 ab3d e384 f1bb 97cd 3bbe
00000010: 50a9 52be af4a ff3c 0d23 773e 3da7 df3d
00000020: 2745 e3bc b250 aebe d2a8 c53d 62f6 a03e
00000030: 5470 823d 0478 ec3c db66 483e a45e 8abc
00000040: db8e d73d 599f ef3d 69d2 733e 23b6 70bd
00000050: 8999 d53b 3880 e9bd 9408 163d bdf5 363e
00000060: d970 33be 7f82 7ebe 0d15 2ebe fe66 08be
00000070: 1fa4 493e 3cf1 9fbd 2794 84be a16a 96be
00000080: daf5 6abd f28c 5dbe 6411 303d 5499 84bd
00000090: 422e eabd 8364 4a3e c717 12be 0d0f b7be
000000a0: 0490 013e eef1 f73d b02a fabd 74d9 a3bc
000000b0: e9e8 45bd 17b0 89bd ca05 7cbe 364f 5d3d
000000c0: 62fe 4e3c d7ac d0bc 0e58 79be 6c10 c53c
000000d0: 25b4 eabd 7238 c2bb 217a d5bd 4842 c9bc
000000e0: 3d8a 6fbd bd22 4dbe eb6e 4dbe 3d02 8a3e
000000f0: e8bb 24be a300 9ebe 1738 b13d ea72 19be
0.10688704 0.08369322 -0.0073705777 -0.18340145 -0.205724 0.031163542 0.24134465 0.1092057
-0.027742935 -0.3404594 0.096513405 0.31437975 0.06369081 0.028865822 0.19570486 -0.016890831
0.105252944 0.11700315 0.23810734 -0.05876745 0.006518547 -0.11401409 0.036629274 0.17867179
-0.17523517 -0.24854468 -0.17000218 -0.13320538 0.19691513 -0.07809684 -0.2589428 -0.29378226
-0.05736337 -0.21635798 0.042985335 -0.064745575 -0.11434604 0.19764905 -0.14266883 -0.3575367
0.12652594 0.12106691 -0.12215173 -0.02000115 -0.048317824 -0.067230396 -0.24611583 0.05403062
0.012633892 -0.025473041 -0.24349996 0.024055682 -0.11460141 -0.005927139 -0.10423685 -0.024567738
-0.058481444 -0.20032783 -0.20061843 0.26954833 -0.16087306 -0.3085986 0.086532764 -0.14985242

arith.constant28 f4 [64]
00000000: 06d6 a9bd b51c a53d 8451 8d3e dfa5 28bf
00000010: 6112 b6bb 865c 0abe 4a3c 5abd cd8d 3c3e
00000020: 461f 1abd 3106 07be dd6f 6fbd 9b8c a8bd
00000030: c3b4 4dbe 6450 d83d d7b6 d13d 9edc bc3c
00000040: 4490 b6bd 4be0 c93d 62fc c63d 95cf 703e
00000050: 53d3 903e fbb5 323e d924 babd 1588 d73e
00000060: b148 773d 15e3 c53b 6ad6 a0bd 2c29 c1be
00000070: 8eb1 87bd e89d 34bd d6a7 3bbe eba4 a33d
00000080: d45c 643e b558 21be 775e a9bc ff9f 08be
00000090: 9403 81be c98e 023f 3334 ab3d 9f2e b8bd
000000a0: e191 343c c6df aabd 7d05 21bd 3972 5abd
000000b0: e1b5 023b aafe e33d cba0 97be 29b6 643d
000000c0: e97f fdbd eb6e 933e 71e2 af3d 4015 15bc
000000d0: 6a00 97be 288f c13b 5d09 c3bd ca81 813c
000000e0: 3fa1 463e a4c9 553d 922d cabd d070 043e
000000f0: 1599 3dbe b463 8fbb f85a 163e b513 e4bd
-0.08292775 0.08062116 0.27601254 -0.658781 -0.00555639 -0.13511857 -0.053280152 0.18413468
-0.03762748 -0.13185956 -0.05845629 -0.08229943 -0.20088486 0.10562208 0.10239952 0.023054417
-0.08914235 0.098572336 0.09716107 0.23516686 0.28286228 0.17452233 -0.090890594 0.4209601
0.06037206 0.006039033 -0.07853396 -0.37726724 -0.06625663 -0.044095904 -0.18325743 0.0799044
0.22301036 -0.15756495 -0.020674927 -0.13342284 -0.25198042 0.5099912 0.083595656 -0.08993267
0.011021108 -0.08343463 -0.039311875 -0.053331587 0.0019944834 0.11132558 -0.29614863 0.055837784
-0.123779126 0.2879556 0.08588112 -0.009099305 -0.29492503 0.005906958 -0.0952327 0.015808959
0.19397448 0.052194253 -0.09871973 0.1293366 -0.18515427 -0.004375899 0.1468314 -0.11136571

arith.constant29 f4 [32]
00000000: 7f4b 1d3d b797 c3be 8b6a 6e3e 446b bf3e
00000010: 2928 bdbe 9d74 60be 51f9 6e3e bef7 db3d
00000020: f6b5 4d3e 2fb8 7d3e e9fa 4ebe 57d4 06bd
00000030: dcd1 af3d df8e d7bc f54b ed3c 9672 95be
00000040: 4cb4 2c3c a0da 7fbe 070a eb3e 6b49 d2bc
00000050: 3bb5 91bd 6fb4 413e 8230 8ebb 17ed 70be
00000060: 35b1 efbd cd1f 07be 304e 573e d6bb 843e
00000070: ac58 493e 0c25 5fbe d2a8 373e cb64 5dbe
0.038402077 -0.38201687 0.2328283 0.37386525 -0.36944702 -0.21919484 0.23337294 0.107406124
0.20088944 0.24777292 -0.20212902 -0.032917347 0.085849494 -0.026313243 0.028966883 -0.29188985
0.010541033 -0.24985743 0.45906088 -0.025669774 -0.07114645 0.18916486 -0.0043392787 -0.23527943
-0.117037214 -0.13195725 0.2102592 0.25924557 0.19662732 -0.21791476 0.17935494 -0.2162048

arith.constant30 f4 [32]
00000000: 6231 73be 22f5 20bd 8fc8 213e dbfd 5fbe
00000010: d357 723c 2bfb b23d fdda 1f3e 9fb7 62bd
00000020: c2c5 b63d 1274 49bd 717b 5ebe 36c3 8b3e
00000030: f35e ee3d dafa f5bc 78bc 9cbc 7374 063e
00000040: 69e1 af3d 6e39 d7bc 9872 e73c ca50 5cbe
00000050: 9219 573e 1b49 133e e286 c73d d97a b83d
00000060: 63ad 54be ee89 fc3d cb4b fabd 864c b83d
00000070: e8d6 39be 9387 ae3e c1f7 83be f2ca 873e
-0.23749307 -0.039296277 0.15799163 -0.21874182 0.014791447 0.08739313 0.15610881 -0.055350896
0.08924438 -0.04918296 -0.21726777 0.27297372 0.11639204 -0.030026842 -0.019132838 0.1313036
0.085879155 -0.026272502 0.028252885 -0.21515194 0.21005848 0.14383356 0.09742524 0.09007806
-0.20769267 0.123309955 -0.122214876 0.08998971 -0.18148386 0.3408781 -0.2577496 0.26522022

arith.constant31 f4 [32]
00000000: 6197 b0be 1454 23bd 0b29 b9be 98b8 8740
00000010: a419 bec0 c025 4bc1 6436 22c0 2d04 a0c0
00000020: 8cdf ebc0 5240 f13f 6e15 1240 758c 9ac0
00000030: 8558 a4bf 2ed2 00bf f2cd 5fc0 9862 e3be
00000040: 60a6 f93f 39dd 0040 e7d3 57bf e561 b7c0
00000050: 58da 37be 8e20 ad3f c12c 1fbe 74e4 0641
00000060: 06e8 2ec0 bd03 a9be 65db 21bf d283 4ec0
00000070: f089 0e3d c4e0 d3bf 9a7c 10c0 d946 c03f
-0.34490493 -0.039875105 -0.36164126 4.2412834 -5.94063 -12.696716 -2.5345697 -5.0005097
-7.3710384 1.8847754 2.282558 -4.8296456 -1.2839514 -0.5032071 -3.496945 -0.4441116
1.9503899 2.0135024 -0.8430771 -5.7307 -0.17954385 1.352556 -0.15544416 8.430775
-2.7329116 -0.33010665 -0.63225394 -3.2267957 0.034799516 -1.6552968 -2.257605 1.5021621

arith.constant32 f4 [32]
00000000: f4ff 1c3d 0789 f63b 8a71 a5bd 81f4 833d
00000010: 31b2 353d a897 32be 0740 333c fa33 64bd
00000020: 4ccb e23d f153 9e3d 455e 493e e40f 153e
00000030: ae8e 0f3e 0769 e6bd d01f 6f3e 42af 40be
00000040: 7d50 223e 4169 59bd da87 2abe c7a9 9dbd
00000050: 1f5f 8bbe b083 6f3d 549f ed3c 726d 95bd
00000060: c975 40be 5894 ad3a 28f7 ce3d a811 2ebd
00000070: 51e4 89bd 5bf1 8b3d 909f 28be 8210 29bd
0.038330033 0.007523659 -0.080782965 0.0644312 0.04435939 -0.17440665 0.010940558 -0.05571363
0.11073932 0.07730854 0.19664867 0.14556843 0.14019272 -0.11250501 0.2335198 -0.18816856
0.15851016 -0.053078894 -0.16653386 -0.07698398 -0.2722101 0.058475196 0.029006638 -0.07296266
-0.18794931 0.0013243062 0.10105735 -0.042497307 -0.06733001 0.06833144 -0.16467118 -0.04127551

arith.constant33 f4 [16]
00000000: 89d2 073e a49c aabd 8fae bb38 32e0 87bb
00000010: 9896 4ebe 9ac0 1cbe 007c 943e 224e b33d
00000020: 1dd3 aa3e 5d4f a33d 4e4a 11be 2810 b53e
00000030: 969b 9c3d 1f1a 4ebd f945 49be 628c e53d
0.13263907 -0.08330658 8.949369e-05 -0.004146599 -0.20174634 -0.15307847 0.29000854 0.08755137
0.33364192 0.07974122 -0.14188501 0.3536389 0.07646863 -0.05031788 -0.19655599 0.112084165

arith.constant34 f4 [16]
00000000: b9fc 10be 6d02 5abe 556d bd3e edbc 09be
00000010: c333 42be 13d1 f73d e88d 17be bbd0 83bd
00000020: fc46 99bd da04 b6bd 8da4 a1bd 6b7c 003e
00000030: 14d2 853d 6254 3dbe ead8 b13e ca42 ef3b
-0.14158906 -0.21289988 0.36997476 -0.13450976 -0.18965058 0.121004246 -0.14800227 -0.064362966
-0.07484242 -0.08887644 -0.07892714 0.12547462 0.0653421 -0.1848922 0.34735805 0.007301663

arith.constant35 f4 [3]
00000000: 5b52 08be 7705 f63d d6da 05bf
-0.13312666 0.12012761 -0.5228704
