assets/fsanet-1x1_float32.tflite (tflite, 987044 bytes, 93 tensors)

arith.constant f4 [64]
00000000: 06dd a63e 3170 2d3c 7b97 cebb 9b60 e7bd
00000010: 4fd2 113e d06a d13d decb ae3d 82c8 873e
00000020: cc41 633e b2fa 433d 5c39 dabc 3b14 d6bc
00000030: a012 fdbc 17d4 ebbc 367f 16bc a594 503e
00000040: 1599 be3e f322 e4b9 eecc 013d 790e 843e
00000050: 0eed b33e 8a16 debc 1c92 2f3e 77fe 803e
00000060: f4ba d93d 2c64 b53e cc60 193e 732d 97bc
00000070: 49f0 693e 7af7 e63d 504d 413e ac60 bd3e
00000080: b09f 113d ec7f b53c 1281 523e ca8d 93bc
00000090: 7281 18bd 3524 2e3e 9e28 543e 15f9 583e
000000a0: 4320 4f3e e40c b33e 27f8 57bc 2186 403e
000000b0: 53a1 11bd cbfa 303e 1072 4f3e 31d2 1cbd
000000c0: df44 61bd 915d 223e 9aa1 863e 8aa8 743e
000000d0: 5df3 f63e a19c f2bc b68d d93c 173d 373e
000000e0: 578a 0a3d a09d fe3e 173b b33e 3b30 3d3e
000000f0: e118 453c 4a38 5a3e 3710 8a3e ba28 8f3e
0.32590503 0.010585831 -0.006304679 -0.11297723 0.14240383 0.10225451 0.08534978 0.26520163
0.22193068 0.047846504 -0.02663868 -0.026132694 -0.03089267 -0.028787656 -0.009185603 0.20369203
0.37226167 -0.00043513588 0.031689577 0.25792292 0.35141796 -0.027110357 0.1714558 0.2519414
0.106313616 0.35427988 0.14978331 -0.018454289 0.22845568 0.11277671 0.18877149 0.36987817
0.03555268 0.022155724 0.20557049 -0.018011946 -0.037232824 0.17006 0.20718619 0.21188767
0.2022715 0.34970772 -0.013181723 0.18801166 -0.03555424 0.1728317 0.20258355 -0.03828639
-0.05499732 0.15856005 0.26295167 0.23892418 0.48232546 -0.029615702 0.02655683 0.17894398
0.033823337 0.49729633 0.3500602 0.1847543 0.012029857 0.21310535 0.26965496 0.2796076

arith.constant1 f4 [64]
00000000: 2bcf 8f3e 3928 5ebc a07e d93d ca95 333e
00000010: f86b 793e e3bd c33e 7973 353c 9487 ef3d
00000020: dedc 29bd 2537 9d3e 2522 653e 4b49 8f3e
00000030: 01f5 22bd 73d2 4f3e 8669 103d b9e0 bbbc
00000040: 5823 893e 0377 fd3c b63c 323e bd6c 863e
00000050: 803d 8e3d 4d75 903b 3b20 8a3e b45d 4c3e
00000060: 4470 433c c887 273e fa18 903e cd9b a6bc
00000070: d3bb a5bc 120f e03d 95a2 4a3e 02f3 823e
00000080: 0bc5 efbb d6ce 803e 12fb 123e f151 3b3e
00000090: 0946 723e b5ff 863e e02a c0bc 6471 123e
000000a0: 4fb8 473d 32ff 52ba cf66 d73b 0165 203d
000000b0: 21e7 883e a11e 3c3e 46a9 f53d 5067 673e
000000c0: 2489 063e 18df 5a3e bd47 9a3e 1fa5 9a3d
000000d0: ee2c afbc daa4 20bc cfc7 4e3e 468a b4bb
000000e0: a362 21bc 8661 453e d41f a63e db63 ad3e
000000f0: 3991 13bc 9c52 863e 3777 493e 24a0 273e
0.28087744 -0.0135593945 0.10619855 0.17537609 0.24357593 0.3823081 0.011074894 0.11695781
-0.0414704 0.30706134 0.22376306 0.27985606 -0.039784435 0.20295124 0.035256885 -0.022934305
0.26784778 0.030940538 0.17405972 0.26254836 0.06945324 0.0044085146 0.26977715 0.1995762
0.011928622 0.1636039 0.28144056 -0.020337963 -0.020231163 0.109403744 0.19788583 0.25576025
-0.0073171905 0.25157803 0.14353588 0.18292977 0.23659529 0.26366964 -0.023457944 0.14301068
0.048759755 -0.00080488913 0.006573535 0.039158825 0.26738837 0.18371059 0.11995177 0.22598004
0.13138252 0.21374166 0.30132857 0.075510256 -0.021383729 -0.009804929 0.20193408 -0.0055096475
-0.009850177 0.19275483 0.32446158 0.33865246 -0.009006792 0.262349 0.19674383 0.16369683

arith.constant2 f4 [64]
00000000: 462c b43e 6350 bb3d 4e50 c73d b342 c53e
00000010: bb20 64bc eb76 893e ed49 f93e 6653 6f3e
00000020: 9ca0 0a3e 6240 7f3e bd9e d03e fa39 913e
00000030: 52ee 093f 912e 033e f37b 41bc c4a6 663e
00000040: 7b60 103e d926 0c3d feb0 723e 4061 293e
00000050: e148 6c3e 362c 133e 20b9 393e ed53 9f3e
00000060: 20a9 8b3e fad1 003e 8e94 b23e 96b9 663e
00000070: 9102 3d3e a6a5 a93e 4e47 633e e6cd 143e
00000080: 95e8 943e bf7c 063e bb9b 9b3e eb8a ae3e
00000090: d7c9 5abc 1b89 ba3e e470 313e 88a4 b63d
000000a0: 8a68 343e e0a9 c23e 468b 7dbc e05c fd3e
000000b0: eaae 823e ac36 9d3e 8fc3 3a3e 933b e93e
000000c0: 6bee 6b3e ba08 a73e a8e2 9f3e 8017 fd3e
000000d0: 4d7f 1a3e 7944 b93e 2fd9 eb3d 7a52 9f3e
000000e0: 5d00 9c3d 240a 983e 2f96 443d d3b2 bf3e
000000f0: ecc1 963e a198 8e3e 2ac4 e43d 8fa4 01bd
0.35190028 0.09146192 0.09732114 0.3852745 -0.013923819 0.2684854 0.48689213 0.23371658
0.1353783 0.24926904 0.40746108 0.28364545 0.5387927 0.12810732 -0.011809337 0.22524554
0.14099304 0.034216736 0.2370033 0.16541004 0.23074676 0.14372334 0.18137026 0.31118718
0.2727747 0.125801 0.34878963 0.22531733 0.1845801 0.33134192 0.2219517 0.14531669
0.29083696 0.13133524 0.3039225 0.3409036 -0.013353786 0.36432728 0.1732822 0.089181006
0.17618003 0.3802023 -0.0154751 0.4948492 0.25524074 0.30705774 0.18238662 0.45553264
0.23040168 0.32623845 0.31227612 0.49431992 0.15087624 0.36185053 0.11516034 0.31117612
0.07617257 0.29695237 0.04799479 0.3744112 0.29444826 0.27850822 0.11170228 -0.031651076

arith.constant3 f4 [128]
00000000: 54bf 543f 66ef a43f 7fde d53d 2e0c 7f3f
00000010: 2ba5 cebe f4ab 123d eda5 98be 8c6f 63bf
00000020: 559f 54bf 9402 8d3f 5b0e 023f 9483 ba3e
00000030: 663d 863f d10e 51bf 8cb0 f0bd 5e4c 0cbd
00000040: ebdc 1a40 faff babe 9c1d 193f 0afd 97bf
00000050: 6a0e 87bd e1d2 2a3f c72e 453f 37ef 0fbf
00000060: 3978 5d3e 2179 533f 3a35 cc3e 31b3 a23f
00000070: 8006 66bc 4065 c23e c321 843e 0f0c 883f
00000080: ec83 71be 4cfa dcbe 0afb b8bd 8adc 263f
00000090: f880 953f 9e97 bdbf 86c9 423f 4cb8 513e
000000a0: 9251 783f 8888 b8be a2c8 15bf 81c7 c23f
000000b0: 98be c1be 4631 4c3e 6ba2 413f ab97 1abf
000000c0: e0dc 963e daa1 b4bf 9281 223f 8020 ce3f
000000d0: d153 573f dbd8 9f3f 1863 e03f 1451 0bbf
000000e0: 7fce 83be c03b 613e 4422 e0be aa8d f43e
000000f0: c253 56bf 662a eabe ea72 8cbd 14bc 933e
00000100: 3105 df3f fd01 d03c 6c9b dc3e b1c8 26be
00000110: 9fd3 273f 6647 9d3f a054 ef3e 842d 3c3f
00000120: 936c 08bf 081c dcbb eb92 253e fdd0 253f
00000130: a2b4 98bf d8d9 afbe a59f 333f 3a27 713d
00000140: 13d7 f7be 4ff5 8dbe a486 2ebe c6dc f8be
00000150: 1ae7 5bbe 3ddc adbf 5c11 323f 40cb 2cbc
00000160: 8ccc 773f ca23 123f bc87 613f 1543 293f
00000170: d4be bdbf 5e4a 14bf 8d00 8fbf d164 883f
00000180: 3c27 debf 8802 e3be c4fb 803f 7b5f 06bf
00000190: caa5 ffbe a7d3 4d3f 5e6f 07be 22f4 0d3e
000001a0: 28de 543f c5fd 8ebe ac6c 37be 36e3 87be
000001b0: 097c b23e e91b 033f bc20 6cbf bf7e d53e
000001c0: f273 043f a352 f83e fd3e abbf 3391 8fbf
000001d0: e51e 433e eb6f 873e 080c 7b3f a805 f43d
000001e0: 918d 6dbe 31bc 5840 2215 0d3d d8d8 30bf
000001f0: 0049 3abf 0621 bbbf d7bb 1040 32ac 073f
0.83104444 1.2885559 0.104428284 0.9962796 -0.40360388 0.03580852 -0.2981409 -0.8884208
-0.8305562 1.1016412 0.50803155 0.3642851 1.0487487 -0.81663233 -0.11752424 -0.034252517
2.4197338 -0.3652342 0.59810805 -1.1874096 -0.06594546 0.66728026 0.770245 -0.5622439
0.21627893 0.82606703 0.3988436 1.2710935 -0.014039636 0.37967873 0.25807008 1.062868
-0.2358548 -0.4315971 -0.09032257 0.65180266 1.1679983 -1.4811895 0.7608875 0.2048046
0.96999466 -0.36041665 -0.58509266 1.5217134 -0.37840724 0.19940671 0.75638455 -0.60387677
0.2946539 -1.4111893 0.6347896 1.6103668 0.8411227 1.2488054 1.7530241 -0.5442059
-0.25743482 0.21995449 -0.43776143 0.4776433 -0.83721554 -0.45735472 -0.068578556 0.2885443
1.7423459 0.025391573 0.43087327 -0.16287495 0.65557283 1.2287414 0.4674425 0.7350695
-0.5329067 -0.006717209 0.16169326 0.64772016 -1.1930125 -0.3434589 0.70165473 0.0588753
-0.48406276 -0.27726218 -0.17043549 -0.48605937 -0.21474877 -1.3582836 0.6955774 -0.010546505
0.9679649 0.5708586 0.8809774 0.66117984 -1.4823861 -0.57925975 -1.1172043 1.0655767
-1.7355723 -0.4433787 1.0076833 -0.5248944 -0.49931175 0.8040108 -0.13226077 0.1386266
0.83151484 -0.27927986 -0.17912549 -0.26540536 0.34860256 0.5121446 -0.9223745 0.41698262
0.5173942 0.48500547 -1.3378597 -1.1216186 0.19054754 0.26452574 0.98065233 0.11915141
-0.23198535 3.3864863 0.034443982 -0.6908088 -0.7276764 -1.4619453 2.2614648 0.52997124

arith.constant4 f4 [128]
00000000: 28c4 0d40 3b97 8ebd dc96 0ec0 91b5 babf
00000010: 0956 6cbf 7847 e4be 06d6 9cbd f8d4 8c3f
00000020: 030b eabe 6065 da3c 1112 81be 2e2f 28bf
00000030: 29b5 c8bf dcd9 acbe b9e1 aabf b461 0340
00000040: 7660 22be d06c 1abf cd5c e73f 6ca4 e03d
00000050: aaa3 a5be 406c 7e3f 5b4f 08bf a2ec e43f
00000060: 4f8d 84be e4c5 95bf 3e09 b7be cabe 9bbd
00000070: 6d2d 573f dd91 2a3f 9fb4 dfbe 2ab9 4abf
00000080: e790 7abf 8f1c b4bf cb12 62be 4218 0bbf
00000090: 9a3e 5bbf 74a6 6dbf 9f08 11c0 8ca3 af3d
000000a0: 46a8 243f 0f53 813e 84e4 0ac0 b53d 0b3e
000000b0: a0c7 c3bf 971c 853f 7e80 cfbe 70a2 8d3e
000000c0: c9ef af3e 512f f83e 72aa e93d c692 25c0
000000d0: ce43 60bf 81d8 b7bf c0b7 c93f 81c4 4cbf
000000e0: ad4f 23be bcc7 1c3f e103 5ebf ffec d23f
000000f0: c9a8 c8be 8cfb d73e 2684 a93e 9305 e3be
00000100: e6ac e13e 53e0 de3f f6b8 9f3e f11e 9c3e
00000110: 3371 4c3f f8d0 9a3f ea78 1dbf dd4d 213e
00000120: d65c 44be 94d4 24bf a0b0 a83f 288a 74bf
00000130: 5878 e93f 743e 2f3e 3c48 9e3e ae2d 99bf
00000140: 6814 22c0 bca6 93bf 09eb 033f a72a 0bc0
00000150: a73a b63e bc68 173e 51e9 6dbf 06b2 3a3f
00000160: cc00 6a3d bcf7 45bd 500c 263f cc42 8f3e
00000170: e979 4a3f ae54 8ebf 5a98 f03f eaad 26be
00000180: e44a 1fbf 4f3f 3ebf 7c34 ae3e 8106 b7bf
00000190: 671d 91bf 0dfd 183f ea53 5abf 12a5 97bf
000001a0: 562b 843f 0e9f ad3f e144 803f 4109 e7bf
000001b0: 8252 783e cb3c 83bf f050 163f 91dc 7abe
000001c0: 62e7 c43f 5e7e d3bf 4d54 ba3e f13e 5bbf
000001d0: 0b43 5b3e 8a1d f93d 17df 70bf f74d fe3c
000001e0: 8bcb 363f 519d a0be 168a bd3e a0e0 c33e
000001f0: d890 0c3c ee26 ae3d d6fd 4bbe f7fb 893f
2.2150974 -0.06962439 -2.2279577 -1.458666 -0.9231878 -0.44585776 -0.07658009 1.1002493
-0.45711526 0.026659667 -0.25209096 -0.6569699 -1.5680286 -0.33759964 -1.3350135 2.0528383
-0.1585711 -0.60322285 1.8075196 0.10968861 -0.32351428 0.99383926 -0.53246087 1.7884715
-0.2588906 -1.1701016 -0.3574924 -0.076047495 0.8405369 0.6662882 -0.4369249 -0.7918879
-0.97877353 -1.4071215 -0.22077481 -0.5433389 -0.856424 -0.9283211 -2.2661512 0.08576116
0.64319265 0.2525868 -2.1701975 0.13597758 -1.5295296 1.039935 -0.4052772 0.27662992
0.3436263 0.484736 0.11409463 -2.5870833 -0.8760346 -1.4362947 1.5759201 -0.7998734
-0.15948363 0.6124227 -0.8672467 1.6478575 -0.39191273 0.42184103 0.33108634 -0.4434019
0.44077224 1.7412208 0.31195801 0.30492356 0.7986023 1.2095022 -0.61512625 0.15752359
-0.19176039 -0.6438687 1.3178902 -0.9552331 1.8239851 0.17113668 0.30914485 -1.1967065
-2.5324955 -1.1535258 0.5153051 -2.1744783 0.35591623 0.14786047 -0.9293414 0.7292789
0.057129666 -0.04833196 0.6486254 0.2798065 0.7909227 -1.1119592 1.8796494 -0.1627728
-0.6222365 -0.7431535 0.34024417 -1.429886 -1.1337098 0.59761125 -0.8528429 -1.184725
1.0325725 1.3564165 1.002102 -1.8049699 0.24250224 -1.0252928 0.5871725 -0.24498202
1.5383112 -1.6522939 0.3639244 -0.85642916 0.21412294 0.12163837 -0.9409041 0.031043036
0.7140433 -0.31370023 0.37019414 0.38257313 0.008579455 0.08503519 -0.1992105 1.0780019

arith.constant5 f4 [64]
00000000: 585a 083f f685 48be 347d 663f 4a2b afbe
00000010: 7dba 05bf b32b 57be 56e4 603f e2de 9d3d
00000020: bf16 9e3f 4a62 e23f 99d0 873e 2b24 d93e
00000030: 99fe b43f ba47 8bbe c6d7 36be 2f5a b4bf
00000040: 6096 f1bc b163 97bf 0948 01be 0d40 39bf
00000050: 348c 93bf d375 b43f f5de 99be 983d 963e
00000060: b279 de3e f688 0cbf 680d 483f 127b a2bd
00000070: 3100 fdbe df33 d7be f49f 25be 5003 7d3c
00000080: ace8 ae3e fc21 553f 1009 b4be 608f 0bbe
00000090: e7ca 03bf 4893 ec3d c05a 803e ace1 2dbf
000000a0: 2c48 6bbd b64c 1fbf 4e07 503e 3e63 05bf
000000b0: f710 96be 163a 4fbf ecb5 e1bc 17e7 3fbf
000000c0: a129 3bbf 1f3f 0ebf b044 debe c0ed a63e
000000d0: 7aff 1f3d 98de 633f 9f89 953e 0679 66be
000000e0: c7f9 2c3f 7c8f 01be a077 a73e b80b 9c3e
000000f0: 1516 1d3e 70df 33bf 669f dfbe c9de b6bf
0.53262854 -0.19582352 0.90034795 -0.34212714 -0.52237684 -0.21012764 0.87848413 0.07708527
1.2350692 1.7686245 0.26526335 0.42410406 1.4140197 -0.2720316 -0.17855749 -1.4090022
-0.02949065 -1.1827298 -0.12625135 -0.7236336 -1.1527162 1.4098457 -0.30052915 0.29343867
0.4345222 -0.54896486 0.78145456 -0.0793363 -0.4941421 -0.42031762 -0.16174299 0.015442684
0.3416189 0.8325498 -0.35163164 -0.13628912 -0.5148148 0.11551529 0.25069237 -0.6792247
-0.057441875 -0.62226427 0.20315287 -0.52104557 -0.29309818 -0.8094801 -0.027552567 -0.7496199
-0.73110396 -0.55565065 -0.4341178 0.32603264 0.039062 0.89011526 0.2920656 -0.22507104
0.6756863 -0.12652391 0.32708454 0.3047769 0.15340455 -0.70262814 -0.436763 -1.4286739

arith.constant6 f4 [64]
00000000: f8d2 723f fea7 d13e f596 aebe 80b3 15c0
00000010: 3a81 34bf 3a2d a73e bca1 0fbf ce59 683e
00000020: 0743 e0bf 4461 393e d99f 863f 1267 9c3f
00000030: b8ee febf b6d1 4d3f a3f1 9fbe ea18 e7be
00000040: d645 a4bd 5a3e 533f 5153 76bf 7777 113d
00000050: df99 39bf e9c9 293f f057 24bf a36f b4bd
00000060: 2632 b7be ae5a 703f 8a69 1040 e9d0 bcbe
00000070: 829d 55bd 62dd 7abe fc4f 723f dd61 9cbe
00000080: e71c 0e3f 9fc4 043f 4e32 a13e aad8 743f
00000090: c01f 233e 3491 1bbf b6e4 9cbf b458 21bf
000000a0: 92cf debf c251 d8be cf78 38bf d95a 803e
000000b0: b7e7 e53e b11f cd3f b806 3cbf 57e1 f4be
000000c0: 7a0e 8d3e 42c3 5a3e d67d ac3e 7a15 34bf
000000d0: 2dd7 dbbf dd74 203e 5036 a63f 400f ee3d
000000e0: 302b 423f b0b8 d03e 711a 02bf 2d98 05bf
000000f0: 8c29 873f fdc6 76bf 9b16 30bf d53b d3bf
0.9485316 0.4094848 -0.34099546 -2.3390808 -0.70509684 0.32651693 -0.5610616 0.22690508
-1.7520455 0.1810351 1.0517532 1.2218955 -1.9916601 0.8039812 -0.31239042 -0.45136195
-0.08021133 0.82517016 -0.9622088 0.03551432 -0.72500414 0.66323715 -0.6419668 -0.088103555
-0.35780448 0.93888366 2.2564416 -0.36878136 -0.052152164 -0.24498513 0.94653296 -0.30543414
0.5551285 0.5186252 0.31483692 0.95643103 0.1593008 -0.6076844 -1.2257297 -0.63025975
-1.7407095 -0.42249876 -0.7205934 0.2506931 0.44903347 1.6025296 -0.7344775 -0.4782817
0.27550107 0.21363547 0.33689755 -0.7034527 -1.7175041 0.1566958 1.2985325 0.116240025
0.7584715 0.40765905 -0.50821596 -0.52185327 1.0559554 -0.9639738 -0.68784493 -1.6502634

arith.constant7 f4 [32]
00000000: 2b3c 8d3f e3f3 f6bd 3d30 4b3e 3ca8 85be
00000010: 5722 08bf 2a93 5e3f 9606 053f 76a7 df3e
00000020: 0a7d a83f 0a2e d53e b531 abbd 6bbc 933f
00000030: 5d16 16bd ab53 953e d2ea 5ebe 3ff0 9bbe
00000040: 7ed2 ddbe f0a8 1d3e 34f7 f2be 2afd 44bf
00000050: 0b97 a2be a869 abbf 9aec 65bd f65f cebd
00000060: de8a 79be b627 f43d 03db 803e 78c0 983f
00000070: 8cc8 4fbd ccdd 2cbd b868 e5bd a4f7 febd
1.1033987 -0.120582364 0.1984262 -0.26104915 -0.531774 0.86943305 0.51963174 0.4368245
1.3163159 0.41636688 -0.0835909 1.1541876 -0.03664242 0.29165396 -0.21769264 -0.3045673
-0.43324655 0.15396476 -0.47454226 -0.769488 -0.31755862 -1.3391619 -0.056133844 -0.10076897
-0.2436938 0.11921637 0.25167093 1.1933737 -0.050728366 -0.04220371 -0.11201614 -0.124495775

arith.constant8 f4 [32]
00000000: 38cc e2bf 2492 bc3f 5746 2140 b4e1 0640
00000010: a228 2740 e679 1140 1004 9e3f 88af 0a40
00000020: fdd2 e23d 5b88 37be 213f 053f c57f c53f
00000030: dbe2 aebf 736d a93f 1eec 80bf 9abe e13f
00000040: 8488 4b3f e239 c3be 82c5 993f dc4d bbbe
00000050: 9fa7 0fbf 5e1e acbe 0b5c cebf ec57 a83f
00000060: e24d 7d3f 18e8 db3f 19a1 a43f 1ecc 833f
00000070: e256 b5be b31c d2be 200f e3bc 5e90 7240
-1.7718573 1.4732099 2.5199182 2.1075258 2.611855 2.273065 1.234499 2.1669636
0.11075399 -0.17923109 0.5204945 1.5429617 -1.3662981 1.3236526 -1.0072057 1.7636292
0.7950518 -0.381301 1.20134 -0.3658284 -0.56115144 -0.33616918 -1.6121839 1.3151832
0.98946965 1.7180204 1.2861663 1.0296667 -0.3541785 -0.4103752 -0.027717173 3.7900615

arith.constant9 f4 [16]
00000000: 2d82 f03e 74b9 0abe 02be 643e 5abc b73d
00000010: 5f79 26be 84af 27bf 1f02 c63c 82ee 2d3f
00000020: e2c0 e5be fc09 ffbe 0446 b9bd 28db 313e
00000030: b1ec e53d 42d3 4abf 3ca6 e73e 7932 343f
0.46974316 -0.13547307 0.22338107 0.08971472 -0.16257237 -0.6550219 0.024170933 0.6794206
-0.4487372 -0.49812305 -0.090465575 0.17368758 0.11226786 -0.79228604 0.45244014 0.70389515

arith.constant10 f4 [16]
00000000: 8e0d 4c3f 00a9 d2bb 2d48 04bf 6e0b 883e
00000010: 4064 d23c 0070 f6bc 165a 8d3e 404e 133f
00000020: 039e 98be 13ea 1dbf a7b0 a6bd dc4c 4abe
00000030: 8171 cd3e a9ce e9be 065d 21bf 4eea 793f
0.7970818 -0.006428838 -0.5167263 0.2657122 0.025682569 -0.030082703 0.27607793 0.57541275
-0.29808053 -0.61685294 -0.081391625 -0.19755882 0.4012566 -0.45665482 -0.6303257 0.97623146

arith.constant14 f4 [64]
00000000: a1d1 4f3e c6a7 a3be 04e2 853b 85bd de3c
00000010: b4b1 a9bd 532b 87be da85 d9bc f011 83be
00000020: 9525 72be b52e 16bc 515a e93a 577d 473c
00000030: 9790 153c e04f c9b8 92f1 513b 48a3 723d
00000040: cb35 013d 2c5f 8f3c df69 163e 5861 493e
00000050: 3f40 41be 132b da3b 8e7c 58be 5245 01bd
00000060: 4261 01be c391 963e 0f1a 1cbe 8687 463c
00000070: 8451 7ebe 517e 13be 5f97 01be 772e 9c3d
00000080: 271f 97be efdc 3fbd 67c4 afbd b415 8bbc
00000090: 4ed4 013c 6ba0 54bd 8905 213c 26fc cebd
000000a0: 31f6 00be bc61 093e e305 8d3a 48ce 19bc
000000b0: b613 5d3c 03ed 5abd efa4 373e eab7 53ba
000000c0: a7b9 a6bd 0b8f 89be 0307 10be 0ed9 22be
000000d0: 8b83 c63d 6b5f e4bb a7ab d5bd 8602 1ebe
000000e0: 2652 a6bd 9c6a c73d d571 cbbd 7626 713d
000000f0: 22bc b43d 0d81 08be ee01 653e b5ed 7b3e
0.20294811 -0.31963938 0.004085781 0.02718998 -0.08285847 -0.2640024 -0.026553083 -0.25599623
-0.23647149 -0.009166409 0.0017803406 0.012175879 0.009128711 -9.599305e-05 0.0032034856 0.05923775
0.03154544 0.017501436 0.14688824 0.1966604 -0.18872164 0.006657967 -0.21141264 -0.03156025
-0.12634757 0.29408082 -0.15244316 0.012117272 -0.24835783 -0.14403655 -0.126554 0.0762605
-0.29515955 -0.046841558 -0.08582383 -0.016978122 0.007924153 -0.0519108 0.00982798 -0.10106687
-0.12593915 0.13416189 0.0010759201 -0.00938756 0.013493469 -0.05344869 0.17934011 -0.00080764166
-0.08140879 -0.26866946 -0.14065175 -0.15903112 0.096930586 -0.0069693825 -0.10433131 -0.1543065
-0.08121137 0.09737131 -0.09933821 0.05887457 0.08824946 -0.13330479 0.22364017 0.24602397

arith.constant15 f4 [64]
00000000: 1f46 99bd d862 43bd 72bc 1dbc b7d8 403d
00000010: a23c 1abe d464 5f3c e7b3 1abe 8131 e33c
00000020: 9c89 fb3b ca41 c8bd 1f62 debc 4a70 c1bc
00000030: 28d9 c0bb 2cd0 5dbc 0590 17be 173d 0abc
00000040: cb08 bebd 81ee a7bd db30 a8bd e60d 203e
00000050: a473 3cbe b90a 693c 8267 2b3e ef64 543e
00000060: 401b 023c 0d37 43bd b3b4 b23c 2d23 b2bb
00000070: 5a69 5dbb 1204 58be 1d7c bd3c b6e1 d13d
00000080: 0b4d 64bc cb22 3c3d 7151 c2bd b076 49bd
00000090: 6f7e f1bd 6739 fdbc c500 0bbc 4aa1 4f3d
000000a0: 5348 533b b660 df3a 7917 dabd 9d47 793c
000000b0: eedb 8fbd b311 e13c cb03 79be 51ab 813d
000000c0: e58a da3b 00e9 2dbe 6499 28bd 1585 80bd
000000d0: c6ff cfbc 1023 0c3b 36fb 393d 3dc2 3b3c
000000e0: 6e96 d73b 3ed4 a5bd 7a72 273d 4fc6 bc3c
000000f0: 035d 47bc 4a08 1e3e c923 82be b4e7 713a
-0.07484078 -0.047701687 -0.009627448 0.047081675 -0.15062192 0.013634879 -0.1510769 0.027733566
0.0076763164 -0.09778173 -0.027146397 -0.023613114 -0.005885262 -0.013538402 -0.14801033 -0.0084374165
-0.09279021 -0.08199788 -0.082124434 0.15630302 -0.18403488 0.014223748 0.16738704 0.20741628
0.007941067 -0.047659922 0.02181468 -0.005436322 -0.0033784718 -0.21095303 0.02313047 0.10248129
-0.013934384 0.04593162 -0.0948819 -0.049185455 -0.117916934 -0.03091116 -0.00848407 0.050690927
0.0032239154 0.0017042372 -0.10649008 0.015214828 -0.0702437 0.02747426 -0.24317853 0.06331504
0.0066693895 -0.16983414 -0.04116191 -0.062753834 -0.025390517 0.0021383204 0.04540559 0.011459884
0.006579212 -0.080971226 0.040880658 0.02304378 -0.012168172 0.1543285 -0.25417927 0.0009227947

arith.constant17 f4 [64]
00000000: fd92 bcbd a770 0fbf 345f 5b3e d987 e93c
00000010: 0669 2f3c 504e 0c3e 51c9 693e 9f78 a0bd
00000020: 48d4 e6be dada 22be 12b9 43be db75 03bf
00000030: ca0c 91bd 1d33 a6bc 0498 e13b 76d7 643d
00000040: 2b36 823e a2be 853e 118b 81be 8ff5 0d3d
00000050: 9f00 563e 91ab 88bb 5882 8bbe fc92 50bd
00000060: 908c 9dbe 9b67 f63c cb05 013e 36b6 a63d
00000070: 482f 0abe bf0f 893d 5aa6 b2bc cfa8 e33d
00000080: cc4e 61be 38ab 7fbc 99d0 99be a67e 11be
00000090: 32d5 46bc 0c96 7aba 700f a13d a808 2d3e
000000a0: 0486 533e bc06 d0be 3b28 293c 62c5 2dbe
000000b0: 2a4c 75bd c124 e6be 08cb 813d 8601 69be
000000c0: 1a2a d8bd 2de9 2ebe dd78 1bbe d3ed da3e
000000d0: f786 923d b4c5 df3e 414a cd3e 9bb8 b53d
000000e0: 169d 9e3e 4955 c7bd ff12 95be 3b14 863d
000000f0: a763 0fbe 7b70 473d ef52 513e 3fd5 af3e
-0.09207723 -0.5603127 0.21423036 0.02850716 0.010706192 0.13701749 0.22830702 -0.07835507
-0.45083833 -0.15903798 -0.19113567 -0.5135171 -0.070825174 -0.020288045 0.0068845768 0.055869542
0.25431952 0.26122004 -0.25301412 0.03465801 0.20898674 -0.004170843 -0.27247882 -0.050921425
-0.30771303 0.0300787 0.12599866 0.08140223 -0.13494599 0.066924565 -0.021807838 0.11116182
-0.22002715 -0.015604787 -0.3004196 -0.14208469 -0.012135791 -0.0009559102 0.078642726 0.16897833
0.20656592 -0.40630138 0.010324533 -0.16969827 -0.05988709 -0.44949916 0.06337553 -0.22754487
-0.10554905 -0.17081137 -0.15182824 0.4275957 0.07154649 0.43705523 0.40095714 0.08873101
0.30979222 -0.09733064 -0.29116055 0.065468274 -0.14002858 0.048691254 0.20441793 0.3434238

arith.constant18 f4 [128]
00000000: 0ace 703e eee6 9e3d ea4d 393f 1ac6 4d3e
00000010: 434b a83d 7fbd 8ebb b7f5 153e 9839 bcbb
00000020: dfae 19bd 5a7e 7abc 17de 2cbe 3f24 a43e
00000030: 400b ba3c fd7b f1bd d167 8fbd 9cee b8bd
00000040: d4c3 a5bd ee7d 0b3d a20a d43d fc88 8f3b
00000050: fff7 033d ca2b 163d dc7a abbd 61c7 69bc
00000060: 5909 02be 82cb 343e f904 833e 6fae 8abd
00000070: f8a3 2fbe 9abc 7abe b271 9abd 67e5 f93b
00000080: 6766 113f 3b00 773c e803 4e39 88d3 4fbc
00000090: f83f 2bbe 539d f4be 795e b53e 7282 fa3c
000000a0: 3598 6b3e a04d e2bd f29e 6f3d e645 afba
000000b0: 54a9 cdbd 9b3e edbd 06b5 ad3d e191 c83d
000000c0: 9d37 863d 6988 8ebe 76c9 afbc 0d9a 2f3d
000000d0: aa42 24bf eaf5 17be 0b55 87be cce1 c23d
000000e0: 6cd9 943c 4cd8 fc3e 3778 5a3e 7ad8 76be
000000f0: 98eb c5bc 94a5 033c b0d8 1dba 8ea6 893d
00000100: a45e 85bc ec3a 293d 281e 5cbe dfac e83d
00000110: 2912 9ebd 66e4 5abd 3bc4 98bd 5439 62bb
00000120: 7476 623f 5a84 ccbd 5433 043d 8c1c d6bc
00000130: 528d 483e eac2 a7bb d888 873c 90e8 563e
00000140: c349 9b3d d1de 333f 831d 033f 832e 443d
00000150: 4bfb f43d 8f5e 8b3c a572 1c3e 983b 533d
00000160: 4651 b8bd 5121 48bd da49 f2bd d06f 7b3b
00000170: 67af f6bd 4ad5 1c3f ddf5 a03d fcea b93a
00000180: 0390 be3d 6344 8abd a002 be3e 5784 e43f
00000190: 94d7 043e e601 04be 4828 883c 73c5 e23e
000001a0: 08ed dcba c8d5 cf3c 6cf4 33bd 4cbf d6bd
000001b0: 0806 6bbc 2371 c53d 7e21 933d 45b3 053c
000001c0: ae0e cf3d c230 4c3d 3026 3d3e a039 8dbd
000001d0: 9fd1 f2be 8a36 943e a624 1b3d 4f95 11bf
000001e0: f116 20bb cd02 843e 229e 6f3b 9093 143d
000001f0: 6c94 ae3d b400 b13e 6c0c 0b3e abff 83be
0.23516098 0.0775889 0.7238451 0.20095101 0.0821748 -0.004356086 0.14644514 -0.0057441704
-0.037520286 -0.015288914 -0.16881596 0.32058904 0.022710443 -0.11791227 -0.07002223 -0.09029886
-0.08093992 0.034055643 0.103535905 0.0043803435 0.03221893 0.036662854 -0.08373043 -0.014268727
-0.12698878 0.17655757 0.2558973 -0.06771552 -0.17152393 -0.24486008 -0.07541217 0.007626224
0.5679688 0.015075739 0.00019647146 -0.01268471 -0.16723621 -0.4777628 0.3542364 0.03057978
0.23007281 -0.11049962 0.05850119 -0.0013372272 -0.100420624 -0.11584207 0.08481793 0.09793449
0.06553576 -0.27838448 -0.021458369 0.042871524 -0.6416422 -0.14839903 -0.2643207 0.095157236
0.018170081 0.4938377 0.21334921 -0.24106017 -0.024160191 0.008035082 -0.00060213637 0.06721221
-0.01628048 0.041315958 -0.21495879 0.113610975 -0.077183075 -0.053440474 -0.07459303 -0.0034519034
0.88461995 -0.099861816 0.032275513 -0.02613666 0.1958516 -0.005119671 0.016544744 0.20987153
0.07582428 0.70261866 0.51216906 0.04789592 0.11961993 0.017012862 0.15278108 0.051570505
-0.08999877 -0.048859898 -0.11830492 0.0038366206 -0.12045174 0.61262953 0.07859395 0.0014184411
0.09304812 -0.06751325 0.37111378 1.7852887 0.12972862 -0.12891349 0.01662077 0.44291267
-0.0016855309 0.025370494 -0.04393427 -0.10485706 -0.0143447 0.0964072 0.071841225 0.008160417
0.10110222 0.049851187 0.18471599 -0.06895757 -0.47425553 0.2894786 0.037876748 -0.5686845
-0.0024427737 0.25783387 0.003656276 0.03627354 0.08524403 0.3457085 0.13578957 -0.25780997

arith.constant19 f4 [128]
00000000: 97d5 f13d 1f8a 9f3c 7a25 83bc 600d b73e
00000010: a06e 84bd f1dc 3fbe ecb1 72bd 4cd3 0eba
00000020: 9a5a 193e 3e44 533d 9bab 173d f62a 373d
00000030: c792 65bc e808 8cbd 52be 113e af08 873d
00000040: 7364 d0bd c9e1 7bbd 7107 013e da60 02be
00000050: 2b04 453d 92b6 0e3d f4d3 1dbd e120 51bc
00000060: f8f2 d7bd 63bc c73c b10d 203e d6bd bd3d
00000070: be6f ef3b 3933 1a3e bf23 0a3e b31f 38be
00000080: 51c0 14bb 4d39 923d aa49 e43b 4b7a 773e
00000090: 5ec2 1e3d 77b0 d1bd 44d1 03bd b66d 093e
000000a0: a380 e6bd 0e0b 243e f59c 2fbd fd88 9a3d
000000b0: 778b 69bd dc9e 913e d37a 93bd 6985 8ebc
000000c0: b2bf 70bd dfc0 473d 0eec 4eba 141a 23bc
000000d0: 7aee 44bd 9ba1 06be 2a12 dcbd a512 113e
000000e0: 7d11 843d b2be 493d 7d64 dd3d 1240 a43c
000000f0: 3bd6 9ebd f905 a1bc c52a 67bd 30d7 89bd
00000100: 67aa 1f3e 2612 63bd 38c4 e13d 2dcb 0f3d
00000110: 8d84 b93d 1400 763c 89ec 3fbe 8b69 b73d
00000120: 5b07 4d3c 8560 df3d abc9 983d f5b7 2b3e
00000130: b776 56bd 35bc c3bc e1b7 94bc b252 1fbe
00000140: 7d81 d73d 01fb 453d 38cd cbbd 9f24 c73d
00000150: 6831 88bd 9fc1 7dbe e039 ea3d 0323 183d
00000160: a5a6 7bbd cecb 313b 6c2a 153e d9b9 533d
00000170: 262c 073e b31b 923d efaa 053e afce 003d
00000180: fcd6 b23d 8cfc ff3c 6296 433d 3b6a 72be
00000190: ab89 1ebd 0d17 9dbc e534 9e3d fa01 4c3d
000001a0: dcc1 f1bd 1ceb 6abd 8017 e33d a2ae 7b3d
000001b0: d1a9 3fbd 6e31 5e3c 7622 243e 86cc e23d
000001c0: b615 e13d 6936 cbbd d7d4 243d 1fe0 0d3d
000001d0: 6c8e 873d 351d 8dbd 0b37 c53d 59a1 17be
000001e0: ed19 30be 9b6b bfbd c35d 05be a085 cfbd
000001f0: b709 093d 47be 20be 52a9 3ebd 0f89 ee3d
0.11808317 0.019475041 -0.016009081 0.35752392 -0.064664125 -0.18736626 -0.05925171 -0.0005448356
0.14975968 0.051578753 0.03702889 0.044718705 -0.014012045 -0.06837636 0.14232758 0.06593453
-0.10175409 -0.061494622 0.12600495 -0.12732258 0.048099678 0.03484208 -0.038532212 -0.012764187
-0.105443895 0.024381822 0.15630223 0.09264724 0.007307022 0.15058602 0.13490199 -0.17980842
-0.0022697637 0.071398355 0.0069667893 0.24167745 0.03875958 -0.10238736 -0.032181993 0.13420758
-0.11255004 0.16019842 -0.042874295 0.0754566 -0.05701777 0.28441513 -0.07201161 -0.0173976
-0.058776565 0.04876792 -0.0007893451 -0.009954948 -0.04807899 -0.13147585 -0.10745652 0.14167269
0.06448648 0.049254127 0.10810182 0.020050082 -0.07755705 -0.019656168 -0.056437273 -0.06730497
0.15592347 -0.05543723 0.11023754 0.035105873 0.09058485 0.015014667 -0.18742575 0.089556776
0.012513961 0.109070815 0.0746034 0.16769393 -0.05235931 -0.023893455 -0.018154087 -0.1555889
0.10522745 0.04833508 -0.09951252 0.09723782 -0.066500485 -0.24780892 0.1143682 0.037142765
-0.06143822 0.0027129534 0.14566964 0.05169091 0.13200435 0.071341895 0.13053487 0.03144711
0.08732411 0.031248353 0.047750838 -0.23673336 -0.03870551 -0.01917603 0.077249326 0.049806572
-0.11804554 -0.057353124 0.11088467 0.06144584 -0.04679281 0.01356159 0.16028771 0.11074166
0.10990469 -0.09922487 0.040242042 0.034637567 0.06618962 -0.068903364 0.09629639 -0.14807643
-0.1719739 -0.09346696 -0.13024049 -0.10132909 0.03345653 -0.15697585 -0.046548195 0.116472356

arith.constant20 f4 [128]
00000000: 2535 2d3e 9880 68be 8e54 2d3e c0de 67bc
00000010: bae5 803e d243 9ebd 30f4 0dbf e26f 23be
00000020: 0c46 0f3f 1e55 833f 2d68 7fbf 0ca8 b6be
00000030: 0e69 de3e 4615 1abe 064a ed3f b025 063f
00000040: c462 cb3f bf8f 5a3f 7ce5 8b3f 3a56 c4bf
00000050: 00de 4dbd 8c3f 79bf c99d 2b3e 24c0 7dbf
00000060: aa82 91bf aeab 31bf 4b70 2cbf 3c97 b6bd
00000070: 5afc da3f e71c 02bf 822f 82bf 2344 0cbf
00000080: 6044 fabc b937 b93e 36d7 52be 5ce8 243f
00000090: e0b3 9abc 8019 41bd 0bda 2b3f 12f8 853e
000000a0: eaa9 c7be e0b0 f0bc 6070 943b e09c 173f
000000b0: 1ba3 0f40 0aa4 d13f 02af 8fbd 8416 c4be
000000c0: f0de 5fbd 2ada d73f 480f 153d a0b5 d73d
000000d0: e6e2 d23e 9226 cbbf 0e50 a83f 0b57 393e
000000e0: 40ac adbc 6200 943e 80c6 c2ba 32a4 06bf
000000f0: eae3 fa3e 7619 a1be b886 fb3e 98fe 913f
00000100: 126e 0f3e 5058 583f 3f82 9ebf 9710 11bf
00000110: fede bbbe 4a94 b63f 6495 cabc 8c31 91be
00000120: bae9 08be 0eb6 5abf 5d74 85bf 77de 00bf
00000130: b029 acbd 642a 75bf 0aa9 b2bf 7247 8dbe
00000140: 9b3e 373f 6b04 85bf 0098 7d3d 6e48 673f
00000150: f86a abbe c69f 833f bff1 8bbf 1cae c83c
00000160: fd38 03be c2b6 cabe 1869 7f3d 1ee6 3cbf
00000170: 7588 a33e ae41 ce3e 67b7 933e d97b b2be
00000180: edc1 8c3e 00b2 2e3d 9275 62bd 2ebc bfbf
00000190: b5f1 34bf e22a 3fbf f9f0 5d3f 9843 11bf
000001a0: 4682 82bf 199a 92bd 5444 ea3e e27f 603f
000001b0: bde1 54be d8a7 363c c46b 83be 6f60 20bf
000001c0: bdea 3e3f f415 46bf 9046 4cbe 1a58 5cbf
000001d0: c5aa 2940 d8ff 493d 36f8 94be 6180 8dbe
000001e0: 3179 f7be c441 543e 1096 70bf e8da 74bf
000001f0: 5831 b8be 6c29 ab3e 1a50 f8be 194c c8be
0.16914804 -0.22705305 0.16926786 -0.014152229 0.25175267 -0.077277794 -0.55450726 -0.15960649
0.5596626 1.0260351 -0.99768335 -0.35675085 0.43439525 -0.15047178 1.8538215 0.52401257
1.5889516 0.8537559 1.0929408 -1.5338814 -0.050260544 -0.9736259 0.16759409 -0.9912131
-1.1368 -0.6940259 -0.67358845 -0.089155644 1.7108262 -0.5082535 -1.0170748 -0.5479147
-0.030550182 0.36175326 -0.20589909 0.6441705 -0.0188846 -0.04714346 0.6712958 0.26165825
-0.38996822 -0.029381216 0.0045299977 0.5922375 2.2443302 1.6378186 -0.07015802 -0.38298428
-0.05465597 1.6863453 0.036391526 0.10532689 0.41188735 -1.5871146 1.3149431 0.1809961
-0.0212003 0.28906542 -0.0014860183 -0.5259429 0.4900201 -0.31464738 0.4912622 1.1405821
0.14006832 0.84509754 -1.2383498 -0.5666594 -0.36693567 1.4264004 -0.024729438 -0.28358114
-0.1337041 -0.85434043 -1.0426136 -0.50339454 -0.08406389 -0.9576781 -1.3957837 -0.2759357
0.71579903 -1.0391973 0.061912537 0.90344894 -0.33480048 1.0283134 -1.093315 0.024497084
-0.12814708 -0.39592558 0.062356085 -0.7378863 0.31940046 0.40284485 0.28850862 -0.34860113
0.27491704 0.042650223 -0.055287905 -1.4979303 -0.70681316 -0.7467481 0.8669582 -0.56743765
-1.0196006 -0.07158298 0.45755255 0.87695134 -0.20789237 0.0111484155 -0.25668156 -0.62647146
0.7457693 -0.7737725 -0.19948792 -0.8607193 2.651048 0.049316257 -0.2909562 -0.27637008
-0.4833465 0.20728213 -0.9397898 -0.95646524 -0.35975146 0.3343004 -0.48498613 -0.39120558

arith.constant21 f4 [64]
00000000: feb1 d9bc bf3d 2c3e b053 643e 904f 15be
00000010: 7f5c 12be 8e36 a0bd 5fd0 89bd 74fb 3fbe
00000020: 96d8 c5bd 34c5 50be aa29 01be 9de0 153e
00000030: c406 b73d 8659 e5bc ae88 453c f962 733d
00000040: ec7c 8cbc 5140 8a3d 05ca 4a3d 336b a6bd
00000050: a57f d13d 12e3 c1bd 6398 003e 1a39 b7bc
00000060: 660e 6bbd a8b4 833d b05f 07be 648f 43bd
00000070: 76c5 08bd 0018 4dbe 1a22 c3bd 4ca1 d23c
00000080: 88a0 27bd 7295 493d bcfe 3ebe 6c5c 2a3e
00000090: f468 f73d 20a9 aabd 91bd 123d c1ea 1e3e
000000a0: 1352 ff3d 5e83 993d 08a2 b93d 66fd 2fbe
000000b0: a0d9 913e d063 ba3e 877b bdbb 211d 13bd
000000c0: 5763 47be 1d13 0c3e dea0 7ebd d5d9 343c
000000d0: fb1a b1bd 24a5 b83d 6dbb f8bd 2ad7 433e
000000e0: b8f5 b8bd 4856 13be 9a3d 9f3d 3067 d2bd
000000f0: 0b81 793c bbfa 023f 671f 903d 3b15 c6bb
-0.026574131 0.1682043 0.22297549 -0.14581132 -0.14293097 -0.078229055 -0.06729197 -0.18748266
-0.09660451 -0.20387727 -0.1261355 0.14636464 0.08936837 -0.02799679 0.012056513 0.05942056
-0.017149411 0.06750549 0.049509067 -0.081259154 0.102294244 -0.09467138 0.12558131 -0.022366095
-0.05738678 0.06430942 -0.13220096 -0.04774417 -0.03339144 -0.20028687 -0.09527989 0.025711678
-0.04092458 0.049214788 -0.18651861 0.16636819 0.12080565 -0.08333039 0.035825316 0.15519239
0.12466826 0.074957594 0.09064108 -0.17186508 0.28486347 0.36404276 -0.005782548 -0.03591645
-0.19471489 0.13679166 -0.062165134 0.011038263 -0.08647724 0.09015873 -0.12145124 0.19125047
-0.09031242 -0.14388382 0.077754214 -0.10273588 0.01522852 0.51163834 0.070372395 -0.0060450113

arith.constant22 f4 [64]
00000000: 972c 2c3e cf65 d2bf 56db dbbd c4d5 ccbe
00000010: c37e cbbe a0ab 4cbe 48e1 193d 2297 023f
00000020: 6432 5f3e f29e af3e 70ca e63e 9196 1f3e
00000030: 479d 0dbe edc3 34be fffd f93e ed47 2b3f
00000040: 653b c7be 927b 453f d481 88bf 99c0 d23d
00000050: 77c7 023e be07 2f3f e7f5 ab3e bab9 77bf
00000060: 062b 35bf c2a8 993e 207c 153d 64be ae3d
00000070: da65 8dbf 122c 61be b033 7dbe 5879 bf3d
00000080: 7487 cfbe 3695 b0bf 0b73 8ebe 8677 40bf
00000090: 5c77 80be 22ce 8abf cfec 9bbe 78fc 60be
000000a0: 9407 83bf fe0e 923e 6fcb 123f 83db 9cbd
000000b0: 508f 5bbc 0074 2c3b 5410 ecbd 2009 90be
000000c0: 43b8 8e3e a615 f13d 000c c3bb 68b7 ffbe
000000d0: ac9b 6f3f 65e2 8c3e 2f6d a93e e2a6 2cbf
000000e0: e5b9 cebe 7938 6cbe e301 f6be 49f1 823e
000000f0: 76df 97be d4a8 443f 6466 d1bd 5001 8abf
0.16813885 -1.643732 -0.107351944 -0.4000684 -0.3974515 -0.19987345 0.03756836 0.5101186
0.21796566 0.34300953 0.45076323 0.1558478 -0.13829528 -0.17652865 0.48826596 0.66906625
-0.38912502 0.7714168 -1.066462 0.10290641 0.12771402 0.6837119 0.33586046 -0.9676777
-0.70768774 0.30011564 0.036495328 0.08532408 -1.1046708 -0.21989468 -0.24726748 0.09349316
-0.4053303 -1.3795536 -0.27822146 -0.7518238 -0.25091064 -1.0844157 -0.30454108 -0.21971309
-1.0236688 0.28527063 0.57341665 -0.07659056 -0.013400868 0.0026314259 -0.11526552 -0.28131962
0.27874956 0.11771707 -0.0059523582 -0.49944615 0.9359691 0.27516475 0.33091113 -0.6744214
-0.403762 -0.23068418 -0.48048314 0.2557471 -0.29662675 0.7682011 -0.102246076 -1.078165

arith.constant23 f4 [64]
00000000: 7b7a 57bc fc3c ccbd cabd a8bc 5889 debd
00000010: 9f6b b03e b7bf 853e ac36 2b3e 9dec d7bd
00000020: f808 88bc da56 87bd c9a3 10be 64b4 a4bc
00000030: ca43 5dbe 5eaa fabd d84c a13d 2e24 1f3e
00000040: e27b 80bd 6d84 bfbd c6ad debd 33b1 b5bc
00000050: 0446 9a3d 5e9c 9cbc c0b5 923d fcfa 03be
00000060: 72e4 ce3d da50 bcbe 81cc 82be 859a 56be
00000070: 030d af3d aec2 4d3d faaf afbd 5048 593c
00000080: d383 6e3e fcaf 59be e888 8dbd 2278 be3c
00000090: 4b1d 7cbc fee6 d23d 7a8b c93d 76cb e53d
000000a0: 5d5f 4cbd 1bdf 963e ca11 0c3c 4628 82be
000000b0: 9fd1 29bc 63b9 e8bd 715a 073c 78f0 613e
000000c0: 2069 80bd a7c4 a7be d374 b3bd b5ff b5bc
000000d0: 7527 013e 9430 e03c fa34 6d3c 70f2 c2bd
000000e0: eef7 e2bd 5257 c03e b99c f3bd 84c7 8d3d
000000f0: 61bf bdbd 0e62 453e 4483 4ebd 319b 21be
-0.01315176 -0.09972569 -0.020598311 -0.1086604 0.34457108 0.2612283 0.16720074 -0.10543177
-0.01660584 -0.066083625 -0.14124979 -0.020105548 -0.2160789 -0.12239526 0.07875985 0.15541145
-0.06273629 -0.0935143 -0.108729884 -0.022179222 0.07532886 -0.01911753 0.07163572 -0.12888712
0.10102166 -0.36780435 -0.2554665 -0.20957382 0.08547404 0.05023449 -0.08578487 0.01326187
0.23292474 -0.21258539 -0.069108784 0.023250643 -0.015387843 0.102979645 0.09841056 0.11220448
-0.049895633 0.2946709 0.008549163 -0.2542135 -0.010364919 -0.11363485 0.008261309 0.22064388
-0.06270051 -0.3276722 -0.08762517 -0.022216657 0.12612708 0.027366914 0.014477963 -0.095188975
-0.11082445 0.3756662 -0.11895127 0.0692282 -0.09265018 0.19275686 -0.050418153 -0.15781857

arith.constant24 f4 [64]
00000000: 46c7 bfbf 2dfe 033f 6886 f8be 1ed5 2cbf
00000010: 1a57 d23e 4a24 773f 46c2 643f 2648 853f
00000020: 35f3 6f3f 497d 7abe d8e9 8bbf 1116 2bbf
00000030: 8ef7 e13e d4c4 203e 604f b3bd 0064 febb
00000040: 1c43 75be 79ad d0be 6a75 c03e a501 8d3d
00000050: 5a54 cebe c22f 04be 3e93 e63d e390 893e
00000060: 39fb 34bf 7c0e 2b3f 5c66 a23e a2e1 36bf
00000070: 6903 d53e 7ef1 f43d 5428 cd3e 2ec6 04bd
00000080: d007 0d3f c074 adbe 0009 df3e 53af a0be
00000090: ec32 8fbf 2911 abbe 4359 47bf a7df 923e
000000a0: d253 00bf 801d 103f 3244 00bf 65a0 4a3e
000000b0: 98f5 913d ce50 43bd fce2 ef3e 8f61 4cbf
000000c0: ecd8 333f 2cf1 7c3f 547c dfbe 33b3 9abf
000000d0: 4a2d a53f 9f2a e63e 10e4 b0bf ea5c b13e
000000e0: 2847 7dbf f71d f4bd a2ea 573f 538a 393f
000000f0: 135a 4abf 1885 b33c 159e d3bf 0ee2 7abf
-1.4982688 0.51559716 -0.48540044 -0.6751269 0.41082078 0.9653975 0.8935894 1.0412643
0.9373048 -0.24461855 -1.0930738 -0.66830546 0.44134182 0.15700084 -0.08755374 -0.007763386
-0.23951381 -0.4075735 0.3758958 0.06885079 -0.4029873 -0.12908843 0.11258553 0.26868352
-0.70695835 0.66818976 0.3171872 -0.7143804 0.41604164 0.119601235 0.4006983 -0.03241556
0.55090046 -0.33878136 0.43561554 -0.31383762 -1.1187415 -0.3341153 -0.7787058 0.28686258
-0.501279 0.56295013 -0.5010406 0.19787748 0.071269214 -0.047684483 0.46852863 -0.7983636
0.7025287 0.988055 -0.43649542 -1.2085937 1.2904446 0.44954392 -1.3819599 0.346412
-0.989367 -0.11919778 0.84342396 0.7247669 -0.7904369 0.02191405 -1.6532618 -0.9800118

arith.constant25 f4 [32]
00000000: 08e8 9dbc c8ff 96be d727 ab3e 1c69 b6bd
00000010: 57b6 b43e 1420 b9be eb69 623d 0c0d 3dbd
00000020: 839d 03bd fd0a 81be a371 f5bd e580 643d
00000030: 1551 bdbd 9b75 a2bd 7b1f e43c 0ff9 5d3e
00000040: 6eee f4bd bb4e 5dbe 9194 3c3d 48ac 18be
00000050: 5f10 3ebe 8eb5 3fbe 4d85 59be bfec 7c3d
00000060: 5420 893b 960c 40bd ca39 2ebe b585 323e
00000070: bdde 28be 7193 d2bd 2a22 383d e72e 08be
-0.01927568 -0.2949202 0.33428833 -0.08906767 0.35295364 -0.36157286 0.055276792 -0.04615502
-0.032132637 -0.25203696 -0.11984565 0.055786986 -0.09243981 -0.07932588 0.027847042 0.2167704
-0.11959539 -0.21612065 0.04604012 -0.1490947 -0.18560933 -0.18721601 -0.21242256 0.061749216
0.004184762 -0.046887003 -0.17014232 0.17433818 -0.16491218 -0.102820285 0.044954456 -0.13299142

arith.constant26 f4 [32]
00000000: a1a0 43be 4051 32bf 8a35 f23e 4072 3cbf
00000010: 801c 00c0 d667 c4bf 93ce 233e 7b4f 6bbf
00000020: d611 8cbf 08d7 c2bf 9827 013d e4ba 84be
00000030: b7b5 913e bea2 3d3d daf7 a5bf 3c7c d7bf
00000040: 06e5 1abf 4c66 8abf 60d7 a9bc 7871 84be
00000050: 6cdf 0b3f f541 30bf e692 56be 58cf afbf
00000060: 536e c4bf 9a56 cebf 2f5f 8dbf ddba a3bd
00000070: b2ec 013f f051 c9bc e22a 4ebe 5ca6 1d3f
-0.19104244 -0.6965523 0.47306472 -0.7361183 -2.0017395 -1.5344188 0.1599677 -0.9191815
-1.0942943 -1.5221872 0.0315319 -0.25923836 0.2845895 0.04629778 -1.2966263 -1.6834788
-0.6050571 -1.0812469 -0.020732582 -0.2586782 0.5463779 -0.6885064 -0.20954475 -1.3735151
-1.5346168 -1.6120179 -1.1044673 -0.07994626 0.50751793 -0.024575204 -0.20133546 0.6158197

arith.constant27 f4 [128]
00000000: 7729 58be d75e 953c 9d23 a33d 65d9 863e
00000010: d3a6 a7be 03a8 8fbe 2ba4 dc3c fcfd dbbd
00000020: fc43 7c3d 6588 603c 3190 85bc 497c 61bc
00000030: 2473 5d3e ce16 333e 5fbc 5a3e 71f5 bfbe
00000040: 09ec c6bd 7b6d c13d cc10 d1bd 9f38 103e
00000050: 83d9 2f3c 2b12 423e 675b 0abe 11e2 afbd
00000060: 265e 773e c5b0 c0bd 3f44 1cbe 6860 a2bd
00000070: f5f8 193e d0b2 3e3e 7a1d 753c 2659 39bd
00000080: 129e 65bd 11df 61bd afb8 613d b2da 91be
00000090: 6516 1f3e 529b b9bd 768c 76be 54f1 163e
000000a0: 30ab a8bb ce2f 0ebe 574f b73d d98c 47be
000000b0: 7a8f f03c 80f4 803d f563 32be 6749 f23e
000000c0: a6ea 16be e50a 1dbe c63a 513e 62d5 b13c
000000d0: 4313 e73d ebdc 06bd 8b9a 103e 6b77 4e3e
000000e0: 1ced a33c 68ed 2a3e d28c 203e a906 da3d
000000f0: 11f2 e53d 4d5f 243e 4ec5 29be d5de d23d
00000100: e3eb 623d a350 05be 9240 3a3d 6243 c0be
00000110: 14bc a1bd e477 d93c a560 1abc 5410 32be
00000120: 67c0 3ebc 6c21 d1bd 7d06 28be c0d0 a4be
00000130: 8e46 0bbe 05a1 15bd ade4 b53d 9057 a5bd
00000140: 6db5 44be 36a8 173e 4215 3dbe 08df 933e
00000150: 46d9 0abd aaa7 d5bc 57e5 b83d 6a12 86bd
00000160: 0a95 3abe 0a66 d93d df29 a2be 732e d73d
00000170: fd2c e33d bf6d b33c ad05 cbbb 0dc1 883b
00000180: 318e 213e e3ec 973d a059 18be cd2c ae3e
00000190: dbc6 563e eb5d f0bc 2f8d 863d 899a a23e
000001a0: 74a2 943d 44df 873d 59dc e23d 6bfe 733e
000001b0: 8a0d 5cbd fc12 22be cfe0 26be c7b4 38be
000001c0: 5214 9b3d b67b 2ebe 51d3 85bd 52aa 2ebe
000001d0: d87b d9bd 7ebf bbbd 01c4 92be c6ac 933d
000001e0: 06ab a1bb 2f2e c53b 2eb9 ff3d ecb5 9e3d
000001f0: fc06 8cbe 8064 00be beb1 7e3e 50db 43bc
-0.21109568 0.0182337 0.07965777 0.26337734 -0.32744464 -0.2805787 0.02693375 -0.10741803
0.061588272 0.013704394 -0.016304107 -0.013762542 0.21625954 0.17489168 0.2136092 -0.37491944
-0.09712989 0.0944471 -0.10208282 0.14084099 0.010733011 0.18952243 -0.1351143 -0.085880406
0.24157009 -0.09408716 -0.15260409 -0.07928544 0.15036376 0.18622899 0.014960641 -0.045251034
-0.05605895 -0.055144373 0.05510777 -0.28487164 0.15535887 -0.09062828 -0.24077019 0.14740497
-0.0051473603 -0.13885424 0.0895068 -0.19487323 0.02936529 0.06296635 -0.17420943 0.47321627
-0.14737949 -0.15336187 0.20432577 0.021708194 0.11282971 -0.032925528 0.14121453 0.20162742
0.020010523 0.16692126 0.15678719 0.106458016 0.11227811 0.1605198 -0.16579172 0.10296408
0.05540074 -0.13019042 0.045471735 -0.3755141 -0.07897201 0.026546426 -0.009422456 -0.17389041
-0.011642552 -0.10211453 -0.16408725 -0.32190514 -0.13601133 -0.036530513 0.08881507 -0.08073342
-0.19209833 0.14810261 -0.1846514 0.28881097 -0.033898614 -0.026080925 0.09028118 -0.06546481
-0.18220916 0.106151655 -0.3167257 0.10506906 0.11092565 0.021902917 -0.006195745 0.004173404
0.15776898 0.074182294 -0.14877939 0.34018555 0.20974295 -0.029341659 0.065698974 0.31758526
0.07257548 0.066343814 0.11077184 0.23827522 -0.05372385 -0.15827554 -0.16296695 -0.18037711
0.07572235 -0.1703938 -0.06534446 -0.1705716 -0.106193244 -0.091673836 -0.28665164 0.07210688
-0.0049337177 0.0060174684 0.12486492 0.077495426 -0.2734908 -0.12538338 0.24872491 -0.011954144

arith.constant28 f4 [64]
00000000: e5f5 8bbd ea52 d63d 4d88 24be 94b6 5d3e
00000010: 7005 403d e103 26bc 1d8b febd 28e4 12bd
00000020: 6d1e 913e 8c69 a4bd a24d 173e 51bb f73d
00000030: 169d c03d 7599 42bc 39d4 54be ed75 d3bd
00000040: 81d7 f7bd 3996 e1bd 4f98 61be fd78 803d
00000050: 1ce9 113e 9c59 96be b79e c1be b008 06bd
00000060: 40db c93c 3cb8 e3be 301e 2f3e 215a bb3d
00000070: 2b2e a1be 6eb4 22be 7aad 1e3d 6e6e 1a3e
00000080: c9b2 42be c09a 193d b99f 31be 8120 de3c
00000090: 31d2 2c3f 4c07 10be 382b 313e bc87 343e
000000a0: 4d81 303e 581b 48be ffc2 3d3e f9a6 6a3e
000000b0: e717 ac3d 12ea 8fbe ac73 c73e 6527 89bd
000000c0: 6d84 87be 9e31 813d 0ed1 a1be 4137 913e
000000d0: 3858 313d 0068 83bd b45e 47be 6cfb 423d
000000e0: 523e 8dbe 9a1c 813c 0fdb 8a3d bb7a 2c3e
000000f0: 59bc cb3d 9440 743d c0ea ef3c 215f 9fbe
-0.0683401 0.10465033 -0.1606762 0.2165168 0.046880186 -0.010132761 -0.124288775 -0.035862118
0.28343526 -0.08027944 0.14775708 0.12096275 0.09404962 -0.011877407 -0.20784082 -0.10325227
-0.12101651 -0.11014981 -0.22030757 0.06273077 0.1424908 -0.29365242 -0.37816402 -0.03272313
0.02464068 -0.44476497 0.1710136 0.0914805 -0.31480536 -0.15889141 0.03873966 0.15081188
-0.19013514 0.037501097 -0.17346086 0.027115108 0.67508227 -0.14065284 0.17301643 0.17629904
0.17236824 -0.19541681 0.18531416 0.22915258 0.084029965 -0.2810827 0.38955438 -0.06696967
-0.2646822 0.06308292 -0.3160481 0.28362468 0.043297023 -0.06416321 -0.1946972 0.047603056
-0.2758661 0.015760709 0.06780063 0.16843693 0.09948034 0.0596319 0.029286742 -0.31127265

arith.constant29 f4 [64]
00000000: 1600 0a3e f79f cabd 1307 c23d 00ee 79bd
00000010: 1759 04be 521f 22be a87b 23bd 1f1d f8bd
00000020: b96f 46be 0ab6 babc a629 eebc 9c22 803e
00000030: 9ed4 b43d 3bad a3be 1102 e6bc 576d 8fbd
00000040: 3e1e be3e 732e a4bd 72d1 13be fa55 cdbd
00000050: a763 c43d 9e41 25be 489b 653c 38ab 113c
00000060: f903 e3bc 8364 e73d bb67 0a3e 598c 703c
00000070: d59b b9be 2e01 803e f61a f1bd 69c1 6abe
00000080: 54e3 803d 26f2 d3bb 3acb 8ebd b6e3 2639
00000090: 70f4 ee3d 4962 703d 976f 74be 5a65 b1bd
000000a0: 45f1 93be edd7 903d 4a8c a0bd 1274 b6bd
000000b0: 45b3 1bbe 9297 57be 6115 f73d 2cec 28be
000000c0: 8ee3 743e 5b8b 4dbd ef7c 693e d28c 143e
000000d0: 4589 143e aae3 863e 1e2e 8fbc eb8c a4bb
000000e0: 7d4f 6cbe 8f91 ff3c e751 9e3c 081c 1c3d
000000f0: 848d 963e c112 49bd b1a5 c0be ad32 ed3d
0.13476595 -0.09893792 0.094740056 -0.06101799 -0.1292461 -0.1583226 -0.03991285 -0.121149294
-0.19378556 -0.022791881 -0.029072594 0.25026405 0.08829616 -0.31968102 -0.028077157 -0.07003277
0.37132448 -0.08016672 -0.14435366 -0.10026164 0.0958932 -0.16138312 0.014014073 0.008890919
-0.027711855 0.11298468 0.13516133 0.014681899 -0.36251703 0.250009 -0.117727205 -0.22925343
0.062933594 -0.0064680753 -0.06972356 0.00015915823 0.116677165 0.058687482 -0.23870693 -0.086619094
-0.28895012 0.070724346 -0.07839258 -0.089088574 -0.15205105 -0.21053913 0.120646246 -0.16496342
0.2391493 -0.050181728 0.22801565 0.14506844 0.14505489 0.2634557 -0.017478045 -0.0050216815
-0.23077197 0.031197337 0.019326163 0.03811267 0.29404843 -0.04909015 -0.37626413 0.11581931

arith.constant30 f4 [32]
00000000: f3ca b7be a4bf 2a3e be51 3dbd 623b 533d
00000010: 3137 363d 5c3a d63e 5547 b63d e6e2 0dbe
00000020: aca8 943e 7766 c93c d8d8 dd3d e1e1 3f3e
00000030: 6d8f 063e 0485 7e3d 320d 8ebc b229 1e3e
00000040: 0835 2b3e 3964 0cbe aa33 dfbc 19ac 25bc
00000050: d178 993e bc29 7dbe 3a45 163e b4f7 bfbd
00000060: 7f77 863e 97f2 963e 9ca6 87be 88e7 86be
00000070: ec38 71be 29fc 3a3e acab 573e ff79 5d3e
-0.35897025 0.16674668 -0.046220534 0.051570304 0.04448623 0.418414 0.08900324 -0.13856086
0.29034936 0.024584992 0.10832375 0.1873851 0.1314065 0.062138572 -0.017340276 0.15445593
0.16719449 -0.13710107 -0.027246315 -0.010111832 0.29974988 -0.24722952 0.14674845 -0.093734175
0.26263043 0.29481956 -0.264943 -0.2634852 -0.2355687 0.18260254 0.21061581 0.21628569

arith.constant31 f4 [32]
00000000: f2f4 4ebe eac1 b03e d80a ca3d 1ce2 4bbe
00000010: de01 96bd 2095 15bc 812b ffbd c303 32bd
00000020: 3579 4cbe 516c 903c 5194 95bd 813b 3abd
00000030: 8a5e 233e 15b0 6e3c c38c 20bc 0c28 5abe
00000040: 9223 393d b8fd 333c 6388 5f38 a014 45be
00000050: 3430 00be 1f29 0b3e ad52 85be 6c7a 4bbe
00000060: 37fb ef3c 31e4 26be 4d04 d2bc 69d8 a53c
00000070: 6213 ccbd f630 13bd 0df3 03be b01e f73d
-0.20210627 0.34522945 0.098653495 -0.19910473 -0.07324575 -0.009129792 -0.124594696 -0.04346062
-0.19968112 0.017629774 -0.0730368 -0.045466904 0.15954033 0.014568348 -0.009799185 -0.21304339
0.045199938 0.010985784 5.3294363e-05 -0.19246149 -0.12518388 0.13589905 -0.2603964 -0.19870919
0.029294593 -0.16297986 -0.025636816 0.020244794 -0.099646345 -0.035935365 -0.12885685 0.120664

arith.constant32 f4 [32]
00000000: 340b 1140 1ae4 99bf 7de8 6bbf 9c01 94bd
00000010: 03b3 733f 486f ddbf 3bae 0fc0 8882 843d
00000020: 0808 db3e b5cd b6be 08e2 fb3f 67b8 9cbe
00000030: 651b f2bf d6e9 5ebf a676 003e f616 0f40
00000040: f3f8 223f 9fef cebe 7e99 8bbf bab2 efbe
00000050: d8ac d83e c826 143e c6c8 49bf cfc1 cb3f
00000060: d220 d5bf 803f aabc 181b 36bf 538e c2be
00000070: fe98 813f 9fd5 95bf 661e e7be 7e55 d1be
2.2663088 -1.2022736 -0.92151624 -0.072268695 0.95195025 -1.7299585 -2.2450092 0.06470209
0.42779565 -0.35703817 1.9678354 -0.30609438 -1.891461 -0.87075555 0.12545261 2.2357764
0.63661116 -0.4041719 -1.0906217 -0.46816045 0.4231937 0.14467919 -0.7882198 1.5918521
-1.6650641 -0.020782232 -0.7113509 -0.3799921 1.0124815 -1.1705817 -0.4514038 -0.40885538

arith.constant33 f4 [32]
00000000: 6261 af3d 9bf8 5b3e 932f 9ebd 4874 b73c
00000010: a846 cf3d 6290 293e 6d8b 283e 7d4e 08bd
00000020: bd41 873e 3fb3 40be 45d3 35bd 4250 3f3e
00000030: 29e0 2e3c c1fc 473d f66a 313e 177b b1bc
00000040: e157 123e 7879 5c3e 4caa 7e3e 199d a03d
00000050: f298 aa3d d8b7 e9bd 280c 5d3e 4e3a 2cbc
00000060: 48f8 d23a 978d 493d 27eb 773e 3360 3dbe
00000070: 2777 193e a8a5 95bd e341 bc3d ac27 9c3d
0.08563496 0.21481554 -0.07723918 0.022394314 0.101208985 0.16558984 0.16459437 -0.033277977
0.26417342 -0.18818377 -0.044390935 0.1868296 0.010673561 0.04882503 0.17325959 -0.02166514
0.14291336 0.21530712 0.2486965 0.07842464 0.08329953 -0.114120185 0.21586668 -0.010511948
0.0016095722 0.049207296 0.24210797 -0.18493728 0.1498686 -0.07306987 0.091922544 0.07624754

arith.constant34 f4 [16]
00000000: 44d0 41be eea6 983e 8bb6 963e 8637 f0bd
00000010: e3a7 343e a9b4 e8bd a8d2 4bbe 5c74 12be
00000020: c2a9 0abf 1313 08be 4d18 15be 0bcb 133d
00000030: b883 3b3c 3536 cd3d a6b3 083b 2e8b af3d
-0.18927103 0.29814857 0.29436144 -0.1172934 0.17642169 -0.11362583 -0.19904578 -0.143022
-0.5416528 -0.13288526 -0.14560051 0.03608231 0.011444978 0.10020105 0.0020859032 0.08571468

arith.constant35 f4 [16]
00000000: 60a1 3cbe a1d2 9e3e a1e4 9f3d 8701 b43e
00000010: 9643 013e cc56 bbbd e71b a63d 8e9d fe3d
00000020: 6824 b43b 95d8 2cbd 1c57 a4be dbb7 803e
00000030: 8a55 54b8 7627 f83e 063a fd3e 673c 643b
-0.18420935 0.31020072 0.078072794 0.35157415 0.12623438 -0.091474146 0.08110791 0.12432395
0.005497504 -0.042198736 -0.3209771 0.2514027 -5.0624403e-05 0.48467606 0.4945833 0.0034826042

arith.constant36 f4 [3]
00000000: 2ec4 8fbe 8e15 27be 2d25 7d3d
-0.2807936 -0.16316816 0.06180303
