assets/fsanet-1x1_float16.tflite (tflite, 527344 bytes, 85 tensors)

arith.constant1 f2 [1, 3, 3, 3]
000000 ae a5 6b 9e a7 2e 08 22 04 30 c8 af 66 21 99 b0
       -0.02219 -0.006268 0.10394 0.01178 0.1255 -0.1216 0.010544 -0.1437
000010 b9 b0 52 28 32 31 83 31 d7 b5 f5 ad 91 ae 4d 35
       -0.1476 0.03375 0.1624 0.1722 -0.365 -0.0931 -0.1026 0.3313
000020 2c b4 d4 b5 02 32 2e 33 7e 31 4f b3 e7 ae 54 ab
       -0.2607 -0.3643 0.1877 0.2244 0.1716 -0.2284 -0.10785 -0.05725
000030 75 2d 5e b4 98 af
       0.08527 -0.273 -0.11865

arith.constant5 f2 [9]
000000 59 2b ab a9 de a8 46 22 66 aa 3a a9 5c 1d 22 a0
       0.0574 -0.04428 -0.03802 0.01225 -0.05 -0.04083 0.005234 -0.00807
000010 27 30
       0.1298

arith.constant8 f2 [9]
000000 07 32 2b 25 5d 34 58 34 59 a9 ef 32 41 30 37 34
       0.1884 0.02019 0.2727 0.2715 -0.04178 0.2167 0.1329 0.2634
000010 05 2d
       0.0784

arith.constant11 f2 [35]
000000 a6 b2 db 31 9f af eb b0 94 a4 50 b4 69 31 0a ae
       -0.2078 0.183 -0.1191 -0.1537 -0.01788 -0.2695 0.1691 -0.09436
000010 a0 b0 be ab 1f 9f 52 a9 61 ae 66 b1 19 b1 fd b0
       -0.1445 -0.0605 -0.006954 -0.04156 -0.0997 -0.1687 -0.1593 -0.1559
000020 c6 22 36 aa a4 b1 6e aa 98 29 be b1 97 b4 2a ad
       0.01323 -0.04852 -0.1763 -0.05023 0.0437 -0.1794 -0.2869 -0.0807
000030 e2 a0 5e 32 bb b0 f3 b6 7a 9d b5 ad ba ac 59 30
       -0.00954 0.199 -0.1478 -0.4343 -0.00535 -0.0892 -0.07385 0.1359
000040 62 ad 87 b1 97 ad
       -0.0841 -0.1727 -0.08734

arith.constant12 f2 [9]
000000 a3 a9 b8 2d f6 30 8e a9 11 33 82 a8 2b a5 6f a8
       -0.04404 0.08936 0.155 -0.0434 0.2208 -0.03522 -0.02019 -0.03464
000010 43 a9
       -0.0411

arith.constant15 f2 [960]
000000 d3 b2 8d b0 47 aa 29 a5 5c b6 ca b1 da ab d5 31
       -0.2133 -0.1422 -0.04904 -0.02016 -0.3975 -0.1809 -0.06134 0.1823
000010 09 ae d7 2e b4 b4 62 b1 35 ad 3d b6 99 b8 29 af
       -0.0943 0.1069 -0.294 -0.1682 -0.08136 -0.39 -0.5747 -0.1119
000020 96 b5 d5 31 3c ac 39 2b 05 32 19 b7 ce 29 c5 aa
       -0.349 0.1823 -0.06616 0.05643 0.1881 -0.4436 0.04535 -0.0529
000030 c3 2e 13 30 7a a9 91 ae b0 30 8d b0 fe af 97 ac
       0.10565 0.1273 -0.0428 -0.1026 0.1465 -0.1422 -0.1249 -0.0717
000040 13 25 a2 26 73 ae 21 b2 83 b9 00 b1 f3 2d 10 30
       0.01982 0.02591 -0.10077 -0.1915 -0.689 -0.1562 0.09296 0.127
000050 fa 2b 96 b6 cf b8 2f a9 ca 20 17 26 86 2c 93 31
       0.06232 -0.4116 -0.601 -0.0405 0.00935 0.02379 0.0707 0.1742
000060 b0 a6 16 ad 60 ae 6d b3 35 b0 df a1 22 33 5f a7
       -0.02612 -0.07947 -0.0996 -0.232 -0.1315 -0.01147 0.2229 -0.0288
000070 56 35 23 b4 24 2f 57 25 37 28 5d ab b2 34 04 31
       0.3335 -0.2585 0.1116 0.02086 0.03293 -0.05753 0.2935 0.1567
000080 41 bc f4 b4 02 b6 95 b3 ff ba 03 b2 34 b2 02 ba
       -1.063 -0.3096 -0.3755 -0.2369 -0.8745 -0.1879 -0.1938 -0.751
000090 91 b6 7d b5 5c b5 b2 b0 66 b6 93 b1 4a bd 63 b8
       -0.4104 -0.343 -0.335 -0.1467 -0.4 -0.1742 -1.322 -0.5483
0000a0 b9 b4 c2 b2 b3 b4 55 b7 55 b8 52 b6 8c b5 0b b1
       -0.2952 -0.2112 -0.2937 -0.4583 -0.5415 -0.395 -0.3467 -0.1576
0000b0 37 b6 b6 b4 de b4 8a ba 64 b8 cf b6 3a ba 29 b6
       -0.3884 -0.2944 -0.3042 -0.8174 -0.549 -0.4255 -0.7783 -0.385
0000c0 18 b6 17 b2 f4 b1 7c b6 66 b6 6f b1 79 b6 2b b8
       -0.3809 -0.1903 -0.186 -0.4053 -0.4 -0.1698 -0.4045 -0.521
0000d0 23 b3 3d b6 2e b7 cf b9 78 ba 52 b9 6e b6 1a b6
       -0.223 -0.39 -0.4487 -0.726 -0.8086 -0.665 -0.4019 -0.3813
0000e0 09 b9 49 b9 20 b7 a3 b9 6c bc 61 b8 a3 b2 6b b8
       -0.6294 -0.6606 -0.4453 -0.7046 -1.105 -0.5474 -0.2074 -0.5522
0000f0 bb b7 d1 bc 76 b5 c5 ba 8f b6 90 b5 e6 b3 80 b5
       -0.4832 -1.204 -0.3413 -0.846 -0.41 -0.3477 -0.2468 -0.3438
000100 1c b2 3a bc 22 b8 54 b6 53 ba f8 b8 85 ba f9 b6
       -0.1909 -1.057 -0.5166 -0.3955 -0.7905 -0.621 -0.815 -0.4358
000110 a6 b8 45 b6 c0 b8 c0 b8 65 b6 69 b6 bb ba de ba
       -0.581 -0.3918 -0.5938 -0.5938 -0.3997 -0.4006 -0.8413 -0.8584
000120 cc b3 4b b6 1e b9 6a b8 24 bc ce b6 1e bb e9 b7
       -0.2437 -0.3933 -0.6396 -0.552 -1.035 -0.4253 -0.8896 -0.4944
000130 13 bc 65 b0 9d bc fa b6 15 bd 41 b8 a6 ba b0 b3
       -1.019 -0.1373 -1.153 -0.436 -1.2705 -0.5317 -0.831 -0.2402
000140 24 b9 9a b9 21 b9 ca b8 21 b7 ea b6 eb b9 da b9
       -0.6426 -0.7 -0.641 -0.5986 -0.4456 -0.4321 -0.7397 -0.7314
000150 19 ba b9 b5 84 b6 41 b4 f6 b8 1a bc e4 b9 73 b9
       -0.762 -0.3577 -0.4072 -0.2659 -0.62 -1.025 -0.7363 -0.681
000160 37 bb 3c b9 3c b9 a7 ba 18 b4 d9 b8 28 ba e8 bb
       -0.902 -0.6543 -0.6543 -0.8315 -0.2559 -0.606 -0.7695 -0.9883
000170 e4 bc 28 b4 ce b3 87 b8 bc b8 62 bc 40 b4 46 b0
       -1.223 -0.2598 -0.2439 -0.566 -0.592 -1.096 -0.2656 -0.1335
000180 98 b0 2c 34 d1 b2 83 af bb bc 5d 31 35 30 f8 b1
       -0.1436 0.2607 -0.213 -0.1174 -1.183 0.1676 0.1315 -0.1865
000190 ef b5 42 28 a9 37 c8 38 1e 2a 4f bd b2 bc 8d a8
       -0.3708 0.03326 0.4788 0.5977 0.0478 -1.327 -1.174 -0.03555
0001a0 9a ad 83 b0 38 b3 de b5 47 32 4e a8 77 b3 7e b1
       -0.0875 -0.141 -0.2256 -0.3667 0.1962 -0.03363 -0.2333 -0.1716
0001b0 39 b7 4e a8 87 28 a0 b1 26 b1 4f a6 4c 2c 45 b8
       -0.4514 -0.03363 0.03537 -0.1758 -0.1609 -0.02464 0.06714 -0.5337
0001c0 95 b3 8a ac 74 2b 7a 2c d3 bc 89 2e d6 a3 4d b1
       -0.2369 -0.0709 0.05823 0.06995 -1.206 0.1021 -0.015305 -0.1656
0001d0 70 b4 59 34 04 bd 95 1f 46 2d c7 2f c9 a9 0a a8
       -0.2773 0.2717 -1.254 0.007404 0.0824 0.1215 -0.0452 -0.03156
0001e0 22 b0 72 33 2f 2c 68 2f 83 b5 79 29 30 ad a3 aa
       -0.1292 0.2327 0.06537 0.1157 -0.3445 0.04276 -0.08105 -0.05185
0001f0 b5 ad 5d 31 91 b5 df b4 13 ab a9 b4 37 b0 db b2
       -0.0892 0.1676 -0.348 -0.3044 -0.05527 -0.2913 -0.1317 -0.2142

arith.constant17 f2 [1, 3, 1, 21]
000000 55 35 55 35 55 35 55 35 55 35 55 35 55 35 55 35
       0.3333 0.3333 0.3333 0.3333 0.3333 0.3333 0.3333 0.3333
000010 55 35 55 35 55 35 55 35 55 35 55 35 55 35 55 35
       0.3333 0.3333 0.3333 0.3333 0.3333 0.3333 0.3333 0.3333
000020 55 35 55 35 55 35 55 35 55 35 55 35 55 35 55 35
       0.3333 0.3333 0.3333 0.3333 0.3333 0.3333 0.3333 0.3333
000030 55 35 55 35 55 35 55 35 55 35 55 35 55 35 55 35
       0.3333 0.3333 0.3333 0.3333 0.3333 0.3333 0.3333 0.3333
000040 55 35 55 35 55 35 55 35 55 35 55 35 55 35 55 35
       0.3333 0.3333 0.3333 0.3333 0.3333 0.3333 0.3333 0.3333
000050 55 35 55 35 55 35 55 35 55 35 55 35 55 35 55 35
       0.3333 0.3333 0.3333 0.3333 0.3333 0.3333 0.3333 0.3333
000060 55 35 55 35 55 35 55 35 55 35 55 35 55 35 55 35
       0.3333 0.3333 0.3333 0.3333 0.3333 0.3333 0.3333 0.3333
000070 55 35 55 35 55 35 55 35 55 35 55 35 55 35
       0.3333 0.3333 0.3333 0.3333 0.3333 0.3333 0.3333

arith.constant20 f2 [3, 21, 64, 16]
000000 ec aa 85 b1 76 ad bf 2d b4 b4 53 21 f8 b1 97 2a
       -0.05408 -0.1725 -0.0853 0.0898 -0.294 0.0104 -0.1865 0.05148
000010 55 b3 1d ae ce b1 80 ac 08 2d 78 30 5a a4 80 ab
       -0.2291 -0.0955 -0.1814 -0.0703 0.0786 0.1396 -0.017 -0.0586
000020 85 21 c2 28 30 b3 4e 27 49 ab 54 a8 61 b4 6f 2f
       0.01078 0.03717 -0.2246 0.02853 -0.05692 -0.0338 -0.2737 0.11615
000030 ab a9 5b 35 d0 0a 9c 23 59 a2 5d 2d c2 a5 c1 26
       -0.04428 0.3347 0.0002079 0.01486 -0.0124 0.0838 -0.02249 0.02638
000040 5c 31 e5 31 c7 b1 32 b0 28 2a 62 30 cd 22 2f 33
       0.1675 0.1842 -0.1805 -0.1311 0.0481 0.137 0.01328 0.2245
000050 6e 32 a9 af 9e 31 37 98 80 34 43 af ec b2 b5 2d
       0.2009 -0.1197 0.1755 -0.002058 0.2812 -0.11346 -0.2163 0.0892
000060 94 31 71 23 7a b6 80 b2 99 2e d2 32 6e 2d c4 31
       0.1743 0.014534 -0.4048 -0.2031 0.1031 0.2131 0.08484 0.1802
000070 d8 ac 93 ae a9 2a f3 2d 09 35 2e b1 be a9 eb ab
       -0.0757 -0.1027 0.05203 0.09296 0.3147 -0.1619 -0.04486 -0.06186
000080 d3 ac 72 af 45 b0 a4 ae 91 a7 c6 25 50 2d 3f 2d
       -0.0754 -0.11633 -0.1334 -0.10376 -0.02956 0.02255 0.083 0.082
000090 01 9e e5 14 bc 27 bc 2a 47 2c 67 b4 16 2b 6c b0
       -0.005863 0.001195 0.03021 0.0526 0.06683 -0.2751 0.05536 -0.1382
0000a0 72 b2 14 20 fa 25 b0 2d d7 a8 99 2d d5 22 6c 9f
       -0.2014 0.007965 0.02335 0.08887 -0.0378 0.08746 0.01334 -0.007248
0000b0 76 ad ee 2a 6e 29 0a af 75 b0 78 b1 a3 ac a4 af
       -0.0853 0.05414 0.04242 -0.11 -0.1393 -0.1709 -0.07245 -0.1194
0000c0 0e 2f ce 29 15 b0 b8 b2 15 92 bd b0 da 28 30 b4
       0.1102 0.04535 -0.1276 -0.21 -0.0007424 -0.1481 0.0379 -0.2617
0000d0 f6 b0 9f 33 b5 ae f2 2e ca a7 a8 2e c9 1e 32 2e
       -0.155 0.2382 -0.1048 0.1085 -0.03043 0.104 0.006626 0.0968
0000e0 49 34 7d 30 40 2e b5 b4 4d a8 df 2b de af 28 ae
       0.2678 0.1403 0.09766 -0.2942 -0.0336 0.0615 -0.1229 -0.0962
0000f0 bd 30 bb 2d 29 30 a2 a9 f9 30 30 2b 2f b0 70 31
       0.1481 0.08954 0.13 -0.044 0.1554 0.05615 -0.1307 0.1699
000100 bc 2e 54 31 15 b6 19 19 bd 2e 38 ac 08 33 26 ad
       0.1052 0.1665 -0.3801 0.00249 0.1053 -0.0659 0.2197 -0.08044
000110 7d 2c ab 2b 4a ad f4 2d 1f ae 25 ac b7 26 3c a9
       0.0701 0.0599 -0.08264 0.093 -0.09564 -0.06476 0.02623 -0.0409
000120 0f b4 3f b4 44 2d 35 b1 ea b5 60 b1 55 1d 0d a7
       -0.2537 -0.2654 0.0823 -0.1627 -0.3696 -0.168 0.005207 -0.02754
000130 0d 32 e4 37 69 b0 27 2f fd b4 6e b1 ad 2e 14 a6
       0.1891 0.4932 -0.1378 0.11176 -0.3118 -0.1697 0.1043 -0.02374
000140 6e 33 64 ae 12 a1 45 b4 7a ac 9f b2 12 b1 21 b0
       0.2322 -0.09985 -0.0099 -0.2668 -0.06995 -0.2069 -0.1584 -0.129
000150 67 32 ed b0 2e b1 e7 31 25 27 11 33 b3 26 20 35
       0.2001 -0.1539 -0.1619 0.1844 0.02791 0.2208 0.02617 0.3203
000160 c1 36 9b 30 9b b0 35 ac a5 30 61 93 cd 31 25 2c
       0.422 0.1439 -0.1439 -0.06573 0.1451 -0.0009007 0.1813 0.06476
000170 7a 2d 06 2d 98 2c 3a 2d 2d 17 2e 2d 35 2c 0e ac
       0.0856 0.0785 0.0718 0.08167 0.001752 0.08093 0.06573 -0.06335
000180 47 33 13 a6 3b 30 45 b1 07 2d b0 b2 b4 31 dd b2
       0.2274 -0.02373 0.1322 -0.1647 0.07855 -0.209 0.1782 -0.2145
000190 53 2f 61 31 3c 8d 6f 9f cf 2f da ae 90 a5 8d 30
       0.11444 0.1681 -0.0003195 -0.00726 0.122 -0.10706 -0.02173 0.1422
0001a0 77 9a 17 2a a2 2c 5c ae 26 ac 3f 2e a2 a3 eb 12
       -0.003157 0.04758 0.0724 -0.09937 -0.0648 0.0976 -0.01491 0.0008445
0001b0 03 ad 58 2d 9c 2b 4f b0 d6 a4 bb b0 3a 26 61 af
       -0.0783 0.0835 0.05945 -0.1346 -0.01889 -0.1478 0.02432 -0.1153
0001c0 c1 b0 9a 28 b4 ad a9 b1 3d 31 dc a9 1b ab ad b0
       -0.1486 0.03595 -0.0891 -0.1769 0.1637 -0.04578 -0.0555 -0.1461
0001d0 79 a8 dc 33 c7 a8 28 ad 84 a5 a2 ad df ac 8a 30
       -0.03494 0.2456 -0.03732 -0.08057 -0.02155 -0.088 -0.0761 0.1418
0001e0 c3 2d ab 26 93 b2 c5 ae 86 37 48 aa 40 24 0e ae
       0.09 0.02605 -0.2054 -0.1058 0.4702 -0.04907 0.0166 -0.0946
0001f0 a1 28 0f a8 37 ac 98 26 02 ae 73 ad 7d 24 8f ac
       0.03616 -0.0317 -0.06586 0.02576 -0.0939 -0.08514 0.01753 -0.0712

arith.constant35 f2 [960, 64]
000000 8e 13 a6 34 ac 33 a3 af ed ae 09 a9 15 28 f6 1d
       0.000922 0.2905 0.2397 -0.1193 -0.1082 -0.03934 0.0319 0.00582
000010 44 2f 6d 33 f8 35 da 28 c2 b5 e9 b6 f3 a5 b5 a8
       0.1135 0.232 0.373 0.0379 -0.3599 -0.432 -0.02324 -0.03677
000020 9a 30 c4 34 77 32 a3 b5 dc b7 49 b1 c6 29 5f a8
       0.1438 0.2979 0.202 -0.3523 -0.4912 -0.1652 0.0451 -0.03415
000030 35 32 b3 31 26 31 b9 b3 be b4 e8 9d ee 35 0c a8
       0.194 0.1781 0.1609 -0.2413 -0.2964 -0.005768 0.3706 -0.03162
000040 6d 2e e0 2a fd 2a ac b4 2d b2 aa 34 d7 2d db 25
       0.1004 0.0537 0.0546 -0.292 -0.193 0.2915 0.09125 0.02287
000050 12 2f a2 a9 87 2c 9c ad 20 b1 f9 31 06 97 35 af
       0.1105 -0.044 0.07074 -0.08765 -0.1602 0.1866 -0.001715 -0.1126
000060 99 34 56 ad ad ac 47 b1 62 b3 1a 34 4c af 12 b4
       0.2874 -0.0834 -0.07306 -0.1649 -0.2307 0.2563 -0.114 -0.2544
000070 ca 2c 06 29 68 35 84 b5 9f b5 10 b0 19 b5 21 b3
       0.0748 0.03925 0.338 -0.3447 -0.3513 -0.127 -0.3186 -0.2228
000080 1a b1 0d b2 3b b1 f3 b4 c3 b0 c8 28 77 ae f3 2e
       -0.1594 -0.1891 -0.1635 -0.3093 -0.1488 0.03735 -0.101 0.1086
000090 48 2c 29 34 6c 37 38 33 bf 9a 50 2a 11 30 fe 2e
       0.0669 0.26 0.4639 0.2256 -0.003294 0.04932 0.1271 0.10925
0000a0 af ac 4a 2e 78 2f 17 1e 8c 2b 2d 33 b3 33 c2 ac
       -0.0732 0.09827 0.1167 0.005947 0.05896 0.2242 0.2406 -0.07434
0000b0 66 ad 48 2a bc a9 b6 ad 4e b1 ca 32 af 35 84 32
       -0.08435 0.04907 -0.0448 -0.08923 -0.1658 0.2122 0.3552 0.2036
0000c0 23 ab f6 35 12 33 8a af 19 9f 62 2f bf 34 79 28
       -0.05576 0.3726 0.221 -0.1178 -0.00693 0.11536 0.2966 0.03494
0000d0 a4 2d 29 30 76 36 0c 28 da a4 65 29 7b 36 71 a6
       0.08813 0.13 0.4038 0.03162 -0.01895 0.04214 0.405 -0.02516
0000e0 15 30 1f 32 a3 37 80 b3 60 b2 be 35 53 36 f7 a8
       0.1276 0.1913 0.4773 -0.2344 -0.1992 0.359 0.3953 -0.0388
0000f0 2f 39 7a 37 0e 2c d8 b0 b0 b4 cc 33 e7 34 96 b0
       0.648 0.4673 0.06335 -0.1514 -0.293 0.2437 0.3064 -0.1433
000100 94 b2 fc b0 c5 ad 01 b3 74 ac d4 b4 b6 22 8e ab
       -0.2056 -0.1558 -0.09015 -0.2189 -0.0696 -0.3018 0.01311 -0.05902
000110 b7 a5 60 9d e0 29 96 2e d8 29 2c ad d1 2f bf 2a
       -0.02232 -0.00525 0.0459 0.1029 0.04565 -0.0808 0.12213 0.0527
000120 95 31 d0 2f 77 28 4b 33 1c 34 50 b4 50 32 67 2e
       0.1744 0.1221 0.03488 0.2279 0.2568 -0.2695 0.1973 0.10004
000130 36 30 af 2d bb 33 55 39 2f 39 61 b2 51 2c 6c 2b
       0.1316 0.0888 0.2416 0.6665 0.648 -0.1993 0.06744 0.05798
000140 c3 27 c3 34 5a 34 78 36 2d 36 26 af 07 28 48 ad
       0.03032 0.2976 0.272 0.4043 0.386 -0.1117 0.03146 -0.0825
000150 f0 af c4 33 ff 32 ac 32 2a 02 5e 29 2e 2c a1 2b
       -0.124 0.2427 0.2186 0.2085 3.3e-05 0.04193 0.0653 0.0596
000160 2e b4 91 9c 1c af 8f b3 8f ae 02 2d 95 35 a2 a2
       -0.2612 -0.00446 -0.1111 -0.2362 -0.1025 0.07825 0.3489 -0.012955
000170 e2 ab ad ae 37 b5 47 b3 11 a2 11 17 69 27 73 33
       -0.06158 -0.1043 -0.326 -0.2274 -0.01185 0.001725 0.02895 0.2328
000180 ed 2e b8 30 58 30 19 34 91 34 34 b4 ee b3 a4 31
       0.1082 0.1475 0.1357 0.256 0.2854 -0.2627 -0.2478 0.1763
000190 b7 2a da ab 0b b2 5e 34 55 35 d6 28 d5 28 82 b6
       0.05246 -0.06134 -0.1888 0.273 0.3333 0.03778 0.03775 -0.4067
0001a0 3d 9b fa b4 c8 25 cd 31 ac af b0 b4 d2 ac 7a ad
       -0.003534 -0.311 0.02258 0.1813 -0.1199 -0.293 -0.0753 -0.0856
0001b0 d8 b0 93 34 2c 36 eb 32 64 b0 c6 b7 1b b6 f0 28
       -0.1514 0.286 0.3857 0.2162 -0.1372 -0.4858 -0.3816 0.03857
0001c0 fd b1 07 a8 0c 2c c5 b3 63 b7 b8 b2 28 b6 be 2b
       -0.1871 -0.03146 0.06323 -0.2428 -0.4617 -0.21 -0.3848 0.0605
0001d0 00 b6 85 30 28 af 11 b8 25 b8 b9 ae 32 28 23 1f
       -0.375 0.1412 -0.1118 -0.5083 -0.518 -0.10504 0.03278 0.00697
0001e0 0c b1 33 b1 89 b1 04 35 ab 29 1b 22 14 ad 52 aa
       -0.1577 -0.1625 -0.173 0.3135 0.04428 0.011925 -0.07935 -0.04938
0001f0 f9 ad 0a b2 03 2c 40 32 9a 2e a6 ac f3 b4 2f 30
       -0.0933 -0.1887 0.0627 0.1953 0.10315 -0.07263 -0.3093 0.1307

arith.constant36 f2 [35, 192]
000000 7f 35 55 b2 67 b5 9c ae 60 b2 a1 2f 3f b3 fc a4
       0.3435 -0.1979 -0.3376 -0.1033 -0.1992 0.1192 -0.2264 -0.01947
000010 43 31 7e b6 89 b8 99 34 f3 38 88 2f 37 b2 e7 b5
       0.1644 -0.4058 -0.567 0.2874 0.6187 0.1177 -0.1942 -0.369
000020 ab 32 b8 ad 1a b7 12 33 9b 36 43 3a b5 32 e4 b4
       0.2084 -0.08936 -0.4438 0.221 0.4128 0.7827 0.2096 -0.3057
000030 ee 34 2f ad 84 b4 24 b0 ee 28 e6 37 93 2c c2 2c
       0.308 -0.081 -0.2822 -0.1294 0.0385 0.4937 0.0715 0.07434
000040 c3 a4 63 ac 72 b3 a4 b5 10 b1 ed 30 4d 32 d2 32
       -0.0186 -0.06854 -0.2327 -0.3525 -0.1582 0.1539 0.1969 0.2131
000050 a5 b1 13 b0 8e b0 76 b0 53 b5 79 35 fc 30 f5 b0
       -0.1764 -0.1273 -0.1423 -0.1394 -0.3328 0.342 0.1558 -0.1549
000060 19 21 04 2e 95 b4 a4 ac be b6 0d 31 e6 21 12 ae
       0.00996 0.094 -0.2864 -0.0725 -0.4214 0.1578 0.01152 -0.09485
000070 80 b4 ca 2c 5c a6 c4 9e 5b b7 71 9b 99 30 28 30
       -0.2812 0.0748 -0.02484 -0.006607 -0.4597 -0.003633 0.1437 0.1299
000080 d5 a2 94 35 92 a7 39 34 e5 2f 47 ae b7 b4 71 35
       -0.01334 0.3486 -0.02957 0.264 0.12335 -0.0981 -0.2947 0.34
000090 81 b2 60 90 16 30 08 b0 af 30 49 ac 02 b5 03 35
       -0.2032 -0.000534 0.1277 -0.126 0.1464 -0.06696 -0.313 0.3132
0000a0 b5 ae 76 b3 dc af 31 b6 3b b2 f6 ae ad 32 88 b0
       -0.1048 -0.2332 -0.1228 -0.387 -0.1947 -0.10876 0.2086 -0.1416
0000b0 6b 98 9b a5 f7 30 fb b1 77 b6 ad b1 4b 35 26 b1
       -0.002157 -0.0219 0.1552 -0.1869 -0.404 -0.1774 0.3308 -0.1609
0000c0 e9 b5 ae a2 3e ab 44 b6 7e 2e 2c 30 04 34 86 34
       -0.3694 -0.01305 -0.05658 -0.3916 0.10144 0.1304 0.251 0.2827
0000d0 81 ac c4 25 d1 2f 01 ac 1e ad f9 24 19 23 45 ae
       -0.0704 0.02252 0.12213 -0.06256 -0.07996 0.01942 0.01386 -0.09796
0000e0 7f a9 98 a3 8d ae 7a b7 bd ab 27 24 8c 32 cf b5
       -0.04294 -0.01483 -0.10236 -0.4673 -0.06046 0.01622 0.2046 -0.363
0000f0 fc b1 c7 31 4c ac 96 b7 99 2e e5 29 e6 32 12 a2
       -0.187 0.1805 -0.06714 -0.474 0.1031 0.04605 0.2156 -0.011856
000100 3a 26 f5 95 9d a8 33 b6 55 b4 91 b4 b2 a9 a6 2b
       0.02432 -0.001454 -0.03604 -0.3875 -0.2708 -0.2854 -0.0445 0.05975
000110 a4 ad 39 aa a4 b2 5f b0 24 b3 91 b0 8a 2d 85 34
       -0.08813 -0.0486 -0.2075 -0.1366 -0.2231 -0.1427 0.08655 0.2825
000120 ed 2c 45 33 82 b6 36 b7 a1 b0 e8 2d 7f 32 5b 30
       0.07697 0.2272 -0.4067 -0.4507 -0.1447 0.0923 0.203 0.1361
000130 2e 32 6f 34 17 2a 12 b4 86 b3 86 a4 d7 19 60 aa
       0.1931 0.277 0.04758 -0.2544 -0.2351 -0.01767 0.002851 -0.0498
000140 63 32 81 b2 3c b5 2d b0 a4 2f 1f b2 fe 31 6f 2b
       0.1996 -0.2032 -0.3271 -0.1305 0.1194 -0.1913 0.1873 0.05807
000150 40 30 63 af 98 b4 b7 30 c6 1b 2a b3 23 af 1d b5
       0.1328 -0.1154 -0.287 0.1473 0.003796 -0.2239 -0.1115 -0.3196
000160 be 28 4a 2f b5 b4 08 ac 4b 2c 43 ae e1 b0 5e b1
       0.03705 0.1139 -0.2942 -0.063 0.0671 -0.09784 -0.1525 -0.1677
000170 bb 34 0b 33 a4 ad bc 2d 80 37 80 ac 68 b2 27 b1
       0.2957 0.2201 -0.08813 0.0896 0.4688 -0.0703 -0.2002 -0.161
000180 4e b7 5a ac 0d ad 62 a9 b9 a1 00 35 ef b2 12 ae
       -0.4565 -0.068 -0.0789 -0.04205 -0.01118 0.3125 -0.2167 -0.09485
000190 a0 33 db 35 10 36 46 b5 2e b8 fa b4 1c 34 a4 28
       0.2383 0.366 0.379 -0.3296 -0.5225 -0.311 0.2568 0.03625
0001a0 2c a8 a1 37 53 ae 1e af f6 b7 db b3 c5 b1 26 b0
       -0.0326 0.4768 -0.0988 -0.1112 -0.4976 -0.2455 -0.1803 -0.1296
0001b0 ee 29 14 30 63 96 60 b4 f5 b5 42 b8 12 b7 97 b1
       0.04633 0.1274 -0.001559 -0.2734 -0.3723 -0.532 -0.442 -0.1747
0001c0 90 aa 0d 21 a2 2d b9 b1 00 b6 54 b8 5f b5 e8 10
       -0.05127 0.009865 0.088 -0.1788 -0.375 -0.541 -0.3357 0.000599
0001d0 c3 b3 9d 32 08 30 80 b4 c5 25 23 b1 55 b7 cd b2
       -0.2426 0.2067 0.126 -0.2812 0.02254 -0.1605 -0.4583 -0.2125
0001e0 e3 2f f1 32 07 34 b4 2d 56 38 56 35 97 ac c4 2b
       0.1232 0.2169 0.2517 0.0891 0.542 0.3335 -0.0717 0.06067
0001f0 8d b5 87 37 21 b4 69 b0 43 32 98 28 9f b1 7b a9
       -0.347 0.4705 -0.258 -0.1378 0.1957 0.0359 -0.1757 -0.04282

arith.constant37 f2 [3, 4]
000000 ea ac 0d 28 1e 2d c2 2e 41 a9 90 2b bd 25 78 ac
       -0.0768 0.03165 0.07996 0.1056 -0.04105 0.05908 0.02242 -0.0698
000010 3b 25 b6 35 7f 2c 5d b4
       0.02043 0.357 0.07025 -0.2727

arith.constant38 f2 [9, 8]
000000 34 9e 7f a6 88 a2 a6 a3 72 a6 50 aa d4 27 12 aa
       -0.006058 -0.02538 -0.01276 -0.01494 -0.02518 -0.04932 0.03058 -0.04742
000010 af 2b 7e 37 52 38 c2 12 7b 34 2c b6 b2 b0 29 b4
       0.06003 0.4683 0.54 0.000825 0.28 -0.3857 -0.1467 -0.26
000020 4b b5 a7 a0 f7 b4 1c b4 50 b4 42 31 46 34 e1 2c
       -0.3308 -0.00909 -0.3103 -0.2568 -0.2695 0.1643 0.267 0.07623
000030 cf a4 77 a6 b0 26 f5 1d 07 26 08 a7 c7 27 24 a6
       -0.01878 -0.02525 0.02612 0.005817 0.02354 -0.02747 0.03038 -0.02399
000040 7f 30 64 30 19 2f ac 37 6f b6 75 b1 1e ba 10 1c
       0.1405 0.1372 0.1109 0.4795 -0.402 -0.1705 -0.7646 0.003967
000050 0c a3 d3 24 71 25 e0 a2 cc a7 6d 9d 6d 24 90 a7
       -0.01376 0.01884 0.02126 -0.01343 -0.03046 -0.0053 0.01729 -0.02954
000060 9d ae 3f ad 6e ac 03 2d 91 b4 b8 ad 51 b2 51 b8
       -0.10333 -0.082 -0.0692 0.0783 -0.2854 -0.08936 -0.1974 -0.5396
000070 2f 28 16 25 b0 a7 49 9c a6 8d d9 a8 62 25 40 a6
       0.03268 0.01987 -0.03003 -0.004185 -0.0003448 -0.03787 0.02103 -0.02441
000080 cd 1a ab 35 3f 30 ad 28 5d ae 8d 2b c8 b2 89 b0
       0.00332 0.3542 0.1327 0.03653 -0.0994 0.059 -0.2119 -0.1417

arith.constant39 f2 [3, 4]
000000 70 2c 1f af f7 31 79 b4 b4 32 5f a7 9f b1 1d b3
       0.06934 -0.11127 0.1864 -0.2795 0.2095 -0.0288 -0.1757 -0.2223
000010 89 b6 df b9 be 31 59 b6
       -0.4084 -0.734 0.1794 -0.3967

arith.constant40 f2 [3, 4]
000000 34 2f 16 38 97 31 a3 2f 56 bb 53 38 c4 b5 19 29
       0.11255 0.5107 0.1747 0.1193 -0.917 0.5405 -0.3604 0.03983
000010 8c ba a6 36 d1 3b 94 b2
       -0.8184 0.4155 0.977 -0.2056

arith.constant41 f2 [9, 8]
000000 a2 31 c1 34 78 b4 66 b2 5c 1a ba 37 79 b5 0e 37
       0.176 0.297 -0.2793 -0.2 0.003105 0.483 -0.342 0.441
000010 4b a8 24 b1 3b b8 6d 38 ef 2c 1b 30 4b 34 f6 24
       -0.03354 -0.1606 -0.529 0.553 0.0771 0.1283 0.2683 0.01938
000020 37 2c 3e 32 3d 2d d8 ad 66 b7 31 b6 35 37 81 b6
       0.06586 0.1951 0.08185 -0.0913 -0.4624 -0.387 0.4504 -0.4065
000030 98 aa 3f 28 8b 35 78 b8 b8 28 aa ad 11 b0 b2 aa
       -0.0515 0.03317 0.3464 -0.5586 0.03687 -0.0885 -0.1271 -0.0523
000040 33 b8 08 34 af 30 88 b0 12 b2 5c ae 09 2a 94 b1
       -0.525 0.252 0.1464 -0.1416 -0.1897 -0.09937 0.04715 -0.1743
000050 e2 a5 0c 1f c4 b5 1d 38 cd 21 34 31 58 32 09 a6
       -0.02298 0.00688 -0.3604 0.514 0.01133 0.1626 0.1982 -0.02357
000060 79 21 ae 95 94 37 06 2f 8a a9 aa 33 72 2e 99 ae
       0.01069 -0.001387 0.4736 0.10974 -0.04327 0.2395 0.1007 -0.1031
000070 f1 b6 94 ae a4 b8 95 34 7a ad a8 37 69 35 c3 b3
       -0.4338 -0.1028 -0.58 0.2864 -0.0856 0.4785 0.3381 -0.2426
000080 5b b0 4d a9 fe b5 af b4 d2 a6 7b aa 73 ac e3 a7
       -0.1361 -0.0414 -0.3745 -0.2927 -0.02664 -0.05063 -0.0695 -0.0308

arith.constant42 f2 [3, 4]
000000 fc 26 37 9e e1 b2 fe 35 a4 b0 17 b0 85 2d 85 b1
       0.02728 -0.00607 -0.215 0.3745 -0.145 -0.1278 0.08624 -0.1725
000010 c1 ac be b0 5a 2e a0 a3
       -0.0743 -0.1482 0.09924 -0.01489

arith.constant43 f2 [3, 4]
000000 cc b2 c8 a8 56 af 82 3a 6f 37 6e 26 ba ba 9d 34
       -0.2124 -0.03735 -0.1146 0.8135 0.4646 0.02512 -0.841 0.2883
000010 83 36 f9 35 d6 ba cb 33
       0.407 0.3733 -0.8545 0.2435

arith.constant44 f2 [9, 8]
000000 f6 2f 85 36 8f b2 f2 34 b7 b4 d0 2d 60 34 96 2d
       0.1244 0.4075 -0.205 0.309 -0.2947 0.0908 0.2734 0.0873
000010 25 b3 2a 35 d1 34 7f 2e 6b b6 11 b4 c3 b3 d5 a9
       -0.2233 0.3228 0.301 0.1015 -0.4011 -0.2542 -0.2426 -0.04556
000020 81 a2 8a 28 80 1a 81 a6 fd 25 0a 28 83 90 10 25
       -0.0127 0.03546 0.003174 -0.0254 0.02339 0.03156 -0.0005507 0.01978
000030 e6 a7 38 b0 f6 30 50 b2 b9 2f 3f b1 5a 35 d9 38
       -0.03085 -0.1318 0.155 -0.1973 0.12067 -0.164 0.3345 0.606
000040 0d a0 2d 99 54 9f 54 23 15 27 31 a4 94 17 ff 1c
       -0.00791 -0.002527 -0.007156 0.01431 0.02766 -0.01637 0.00185 0.00488
000050 3a 20 8f 29 13 28 85 a7 8f 25 97 26 4c 9e ea a6
       0.008255 0.04343 0.03183 -0.02937 0.02171 0.02574 -0.00615 -0.02701
000060 ad 2f e9 b4 76 ad 40 2d bb 23 1b 30 68 2a e2 3c
       0.11993 -0.307 -0.0853 0.08203 0.0151 0.1283 0.05005 1.221
000070 e6 b1 57 36 7f b1 06 b1 e8 2b 01 b3 bc ad 88 b2
       -0.1843 0.3962 -0.1718 -0.157 0.06177 -0.2189 -0.0896 -0.2041
000080 4a ad cd 38 46 ad 98 b0 5e 23 30 af c7 a8 2e b7
       -0.08264 0.6 -0.0824 -0.1436 0.01439 -0.1123 -0.03732 -0.4487

arith.constant45 f2 [3, 4]
000000 07 34 ae b5 f9 b4 0a 36 c2 a9 92 b8 5f b8 f7 ae
       0.2517 -0.355 -0.3108 0.3774 -0.04498 -0.5713 -0.5464 -0.1088
000010 bf b5 43 30 6e 30 e1 2a
       -0.3591 0.1332 0.1384 0.05374

arith.constant46 f2 [1, 3, 3, 3]
000000 ac 30 27 ae 9e 2e 75 2c 41 b5 5d 35 d7 b1 01 b2
       0.146 -0.0961 0.1034 0.06964 -0.3284 0.3352 -0.1825 -0.1876
000010 ea 30 c7 32 89 2f 07 a1 6e a4 84 35 8a b5 71 b2
       0.1536 0.2118 0.11774 -0.00982 -0.0173 0.3447 -0.3462 -0.2013
000020 d2 30 5f b3 2c a2 cc a2 30 a9 54 b1 4d 9e 7d a5
       0.1506 -0.2303 -0.012054 -0.013275 -0.04053 -0.1665 -0.006153 -0.02144
000030 0a 31 9d 1e d7 2a
       0.1575 0.00646 0.05344

arith.constant47 f2 [16, 1, 1, 3]
000000 d6 2d df bd 9e 3c 2c bb 0b 31 11 39 61 3d 21 3b
       0.0912 -1.468 1.154 -0.8965 0.1576 0.6333 1.345 0.891
000010 fc 26 83 c1 85 9e d4 ad 14 3f 28 b1 28 ae 3f b8
       0.02728 -2.756 -0.006367 -0.09106 1.77 -0.1611 -0.0962 -0.531
000020 c5 39 57 bc 20 b8 ff 9e 54 b9 7a b2 17 bb c4 30
       0.721 -1.085 -0.5156 -0.006832 -0.666 -0.2024 -0.886 0.1489
000030 0a 3c 80 30 e4 b7 8a 2b c8 3e 22 bc ab b2 08 ad
       1.01 0.1406 -0.4932 0.0589 1.695 -1.033 -0.2084 -0.0786
000040 5d 3a 9b 2f 27 3d 30 bf e5 c0 05 b6 c7 30 85 38
       0.7954 0.11884 1.288 -1.797 -2.447 -0.3762 0.1493 0.565
000050 f7 3d 5c be 3f 42 1d 3a 14 b3 ae ba c6 bf e8 3d
       1.491 -1.59 3.123 0.764 -0.2212 -0.835 -1.943 1.477

arith.constant48 f2 [1, 3, 3, 16]
000000 44 2e 6d 2f 88 84 b4 ac f3 29 35 21 ce 2e 14 37
       0.0979 0.116 -6.914e-05 -0.0735 0.04648 0.01017 0.1063 0.4424
000010 a8 25 8f af 2d b5 c5 ac 91 b0 26 b0 85 27 de 2f
       0.0221 -0.1181 -0.3235 -0.0745 -0.1427 -0.1296 0.02937 0.1229
000020 63 ac 09 ae 3f b1 7d 35 b2 ae 7d 30 74 af 1c b4
       -0.06854 -0.0943 -0.164 0.343 -0.1046 0.1403 -0.11646 -0.2568
000030 8d b3 c0 b4 50 ac fc ab 94 2a fc 25 32 38 8c b2
       -0.236 -0.2969 -0.0674 -0.06238 0.0514 0.02338 0.5244 -0.2046
000040 8b ad 8b b2 67 30 dd 91 d4 1c af b2 89 af 65 b0
       -0.0866 -0.2045 0.1376 -0.0007157 0.004715 -0.2089 -0.11774 -0.1373
000050 56 20 c8 28 97 27 c5 29 c8 2d 01 2c 10 2c 83 1a
       0.00847 0.03735 0.02965 0.04507 0.09033 0.06256 0.0635 0.00318
000060 fa b1 a8 b1 36 30 e8 aa b4 b3 8c b0 be b5 3f ae
       -0.1868 -0.1768 0.1316 -0.05396 -0.2407 -0.1421 -0.359 -0.0976
000070 99 2c 47 34 00 b6 8c a8 7c b2 fa b5 3e 24 74 35
       0.07184 0.2673 -0.375 -0.03552 -0.2026 -0.3735 0.01657 0.3408
000080 f9 b6 44 37 95 b4 0f 36 9b 37 37 a2 c8 34 ed ad
       -0.4358 0.454 -0.2864 0.3787 0.4753 -0.01214 0.2988 -0.0926
000090 c0 b4 09 34 af 2c dd b6 26 b6 e6 31 97 33 a2 b0
       -0.2969 0.2522 0.0732 -0.429 -0.3843 0.1843 0.2372 -0.1448
0000a0 b0 30 dd 2f b0 26 b1 a8 77 29 29 b5 47 32 5a 2b
       0.1465 0.12286 0.02612 -0.03665 0.0427 -0.3225 0.1962 0.05743
0000b0 c0 a9 0e b0 6f b2 24 19 80 af 58 ac 3d 29 ac b3
       -0.04492 -0.1267 -0.201 0.00251 -0.1172 -0.0679 0.04092 -0.2397
0000c0 0b 30 64 aa fd ae d4 ad 95 ae a4 30 89 b1 ec 2c
       0.1263 -0.04993 -0.1092 -0.09106 -0.10284 0.145 -0.173 0.0769
0000d0 40 b3 d2 aa 72 a2 c6 32 27 aa 3f af 48 ae 79 2c
       -0.2266 -0.05328 -0.01259 0.2117 -0.04807 -0.1132 -0.09814 0.0699
0000e0 f2 a2 fe b0 8a b4 63 26 bc aa 1a 22 a6 2c da 2a
       -0.013565 -0.156 -0.2837 0.02495 -0.0526 0.01192 0.07263 0.05353
0000f0 5d a8 54 2d 28 34 c8 35 e7 9d 48 35 04 ae 44 9d
       -0.0341 0.08325 0.2598 0.3613 -0.005764 0.33 -0.094 -0.005142
000100 dc 2c af 29 f3 30 dc ac a7 ac 80 35 d8 2d 6d a2
       0.0759 0.0444 0.1547 -0.0759 -0.0727 0.3438 0.0913 -0.01255
000110 19 27 37 ae 7f 33 fa 25 c7 84 a1 26 b0 ab dc a6
       0.02773 -0.0971 0.2343 0.02335 -7.29e-05 0.0259 -0.06006 -0.0268

arith.constant49 f2 [16, 1, 1, 3]
000000 4c 40 1e bb 6e 39 8d be 3e 3c 58 b7 33 bb b7 44
       2.148 -0.8896 0.6787 -1.638 1.061 -0.459 -0.9 4.715
000010 a1 44 4e 3c 1c c4 fc c5 e5 3d cb c5 83 c5 c2 c0
       4.63 1.076 -4.11 -5.984 1.474 -5.793 -5.51 -2.379
000020 17 34 30 30 8d 30 59 38 e1 40 26 40 0c 3b 2c 2b
       0.2556 0.1309 0.1422 0.5435 2.44 2.074 0.881 0.05603
000030 57 b6 b1 be a2 3e 8d bf 2d 34 87 b6 21 35 be b1
       -0.3962 -1.673 1.658 -1.888 0.261 -0.408 0.3206 -0.1794
000040 86 3f ed 20 15 c2 63 c2 b6 bd 7a 45 1e 46 47 bf
       1.881 0.00962 -3.041 -3.193 -1.428 5.477 6.117 -1.819
000050 cb bf 08 b2 46 30 de 3e 85 bc 61 3c da 40 aa ad
       -1.948 -0.1885 0.1335 1.717 -1.13 1.095 2.426 -0.0885

arith.constant50 f2 [1, 3, 3, 16]
000000 57 a2 55 2d fc 26 1d a1 e3 a9 99 96 b5 2f 56 21
       -0.01238 0.0833 0.02728 -0.00999 -0.046 -0.001611 0.1204 0.01042
000010 61 a9 77 20 28 a8 b4 31 98 98 29 2c 38 ac eb 28
       -0.04202 0.00872 -0.03247 0.1782 -0.002243 0.065 -0.0659 0.03842
000020 15 2d e3 b5 60 b0 14 2d 0c ac 3d b7 b2 37 9c b0
       0.0794 -0.368 -0.1367 0.07935 -0.06323 -0.4524 0.481 -0.144
000030 c5 33 fd 29 e6 9e fe 32 52 30 ef 2b 26 33 ba b4
       0.2428 0.04678 -0.006737 0.2185 0.135 0.06198 0.2234 -0.2954
000040 3a 34 70 b3 6a 33 fd ae 41 2a b7 b4 1f ac f0 b1
       0.2642 -0.2324 0.2317 -0.1092 0.04886 -0.2947 -0.0644 -0.1855
000050 d5 29 ca ab 15 b4 66 35 1d 2d 85 ab f2 31 69 ae
       0.04556 -0.06085 -0.2551 0.3374 0.0799 -0.05875 0.1858 -0.10016
000060 8c 29 a4 a8 4a b0 b5 a5 10 ad a5 aa 2c 30 49 ad
       0.04333 -0.03625 -0.134 -0.0223 -0.0791 -0.0519 0.1304 -0.0826
000070 6a a9 82 ab f1 31 2b 9b bb a1 5d af bf ad 69 aa
       -0.0423 -0.05865 0.1857 -0.0035 -0.01119 -0.11505 -0.0898 -0.05008
000080 be 36 b4 b5 47 b4 43 38 f4 ac ca 9c 0b b1 bf b0
       0.4214 -0.3564 -0.2673 0.5327 -0.0774 -0.004677 -0.1576 -0.1483
000090 99 39 40 b2 5e 32 2e 28 2f 37 19 b8 40 34 ef b5
       0.6997 -0.1953 0.199 0.03265 0.449 -0.512 0.2656 -0.3708
0000a0 90 35 7b 27 47 2f 72 b1 23 34 87 28 d6 ad 53 ac
       0.3477 0.02922 0.1137 -0.1702 0.2585 0.03537 -0.0912 -0.06757
0000b0 d4 30 67 b4 2d b5 db 2b 7d 33 f6 af fb 36 63 b2
       0.1509 -0.2751 -0.3235 0.06137 0.234 -0.1244 0.4363 -0.1996
0000c0 4b a5 14 b2 da b2 72 2d 83 aa 53 22 f7 2c 07 a5
       -0.02068 -0.19 -0.2141 0.0851 -0.05087 0.01235 0.0776 -0.01964
0000d0 84 27 6d 28 5d 29 ec ad 72 a5 78 a9 9f 29 44 b1
       0.02936 0.03458 0.0419 -0.0925 -0.02127 -0.04272 0.0439 -0.1646
0000e0 8b 30 16 b0 bf 2c 06 88 57 35 40 32 70 a7 6c b1
       0.142 -0.1277 0.07416 -0.0001228 0.3337 0.1953 -0.02905 -0.1694
0000f0 0e 2a c4 b4 82 2d 10 b0 ad 2d c2 b3 9b b2 41 b2
       0.0473 -0.2979 0.08606 -0.127 0.0887 -0.2424 -0.2064 -0.1954
000100 be 22 a0 aa d2 2d b9 ad 5a 34 f5 21 7a a9 11 b6
       0.01317 -0.05176 0.09094 -0.0894 0.272 0.011635 -0.0428 -0.3792
000110 62 a5 12 b0 fa 31 a8 b4 88 2a 6e 95 5b a4 9f a6
       -0.02103 -0.1272 0.1868 -0.291 0.05103 -0.001326 -0.01701 -0.02586

arith.constant51 f2 [32, 1, 1, 16]
000000 57 b0 eb b1 67 be 35 39 c0 3a 5f b5 12 39 90 36
       -0.1356 -0.1849 -1.601 0.651 0.8438 -0.3357 0.634 0.4102
000010 ae 36 3f 2c 41 c2 60 31 0e 2f 5b 3b 59 ae 81 32
       0.4175 0.06635 -3.127 0.168 0.1102 0.9194 -0.0992 0.2032
000020 a5 3c 61 41 95 bd 7a 3c 91 c3 cd 40 17 c0 9f c0
       1.161 2.69 -1.3955 1.119 -3.783 2.4 -2.045 -2.31
000030 c3 b7 0f 3f 36 39 e3 bc 81 41 af 3c 55 be df b6
       -0.485 1.765 0.6514 -1.222 2.752 1.171 -1.583 -0.4294
000040 b5 41 fe 3d 37 b4 6e bd 51 bf 3b b2 e6 b8 be bd
       2.854 1.498 -0.2634 -1.357 -1.829 -0.1947 -0.6123 -1.436
000050 c3 2d be 3f 88 38 ef bd 8c ba 91 33 56 bc a1 b4
       0.09 1.936 0.5664 -1.483 -0.8184 0.2365 -1.084 -0.2893
000060 56 b5 81 bf db b3 10 b7 fc bd 50 ba 94 b9 7d b0
       -0.3335 -1.876 -0.2455 -0.4414 -1.496 -0.789 -0.6973 -0.1403
000070 c5 af 69 b4 63 39 7f 3e dd bd d9 c0 8b b9 20 b9
       -0.1214 -0.2756 0.6733 1.624 -1.466 -2.424 -0.693 -0.6406
000080 f0 b9 69 b0 5c 3f 06 ad 66 24 69 39 ea bc 54 be
       -0.742 -0.1378 1.84 -0.0785 0.01718 0.6763 -1.229 -1.582
000090 a7 18 09 bd 85 3d 3f be e3 ab ff be b3 b8 8b bc
       0.002272 -1.259 1.38 -1.562 -0.0616 -1.749 -0.5874 -1.136
0000a0 2f 3c 64 0c 82 39 96 bd b4 31 e2 bb c8 ab b2 ae
       1.046 0.000268 0.6885 -1.396 0.1782 -0.9854 -0.0608 -0.1046
0000b0 69 3b 84 32 7c b7 5a 30 b9 3f e8 ba c1 bf 44 3d
       0.9263 0.2036 -0.4678 0.136 1.931 -0.8633 -1.938 1.316
0000c0 16 b5 1a 31 c3 3c 81 b8 47 3d 42 3a bd b9 a6 44
       -0.3179 0.1594 1.19 -0.563 1.319 0.782 -0.7173 4.65
0000d0 8c 37 c8 3e 87 3b 0d ba 69 b2 21 b9 98 bd fb b2
       0.4717 1.695 0.941 -0.7563 -0.2003 -0.641 -1.398 -0.2181
0000e0 06 39 2a c0 34 c0 5f c0 2c ad d9 3b 95 2c 06 b8
       0.628 -2.082 -2.102 -2.186 -0.0808 0.981 0.0716 -0.503
0000f0 c4 b5 a1 3b 06 c1 75 3d a9 3a 84 b4 fb be d0 3a
       -0.3604 0.9536 -2.512 1.364 0.8325 -0.2822 -1.745 0.8516
000100 67 b4 66 ac 53 35 99 b9 59 b9 20 3d 73 a7 75 37
       -0.2751 -0.0687 0.3328 -0.6997 -0.6685 1.281 -0.0291 0.466
000110 f5 3c ea b7 08 b3 29 3e 7d 34 1b 31 61 b5 44 2b
       1.239 -0.4946 -0.2197 1.54 0.2805 0.1595 -0.3362 0.05676
000120 7a 2e b0 37 5e b9 17 40 77 ba 6d b3 9b 36 0f bb
       0.1012 0.4805 -0.671 2.045 -0.808 -0.232 0.4128 -0.8823
000130 0e bb f8 35 43 38 03 b3 7c 35 fb ad 44 b6 3d b0
       -0.882 0.373 0.5327 -0.2191 0.3428 -0.09344 -0.3916 -0.1324
000140 51 40 c2 36 7c 3d 77 39 8c 3f bb b6 fe c0 f2 bf
       2.158 0.4224 1.371 0.683 1.887 -0.4207 -2.496 -1.986
000150 72 2c 7a 3c 79 35 0a 3c f8 41 dd b5 d6 37 15 c3
       0.06946 1.119 0.342 1.01 2.984 -0.3665 0.4897 -3.541
000160 0c 40 d8 ab e8 34 df b9 b5 ba 36 34 39 c0 e3 24
       2.023 -0.06128 0.3066 -0.734 -0.8384 0.2632 -2.111 0.01909
000170 23 2f 53 2f 43 31 a8 ab cb 35 3f b7 c2 b1 79 bc
       0.1115 0.11444 0.1644 -0.0598 0.362 -0.453 -0.1799 -1.118
000180 15 ba df 3e 58 be 0b b1 f3 bd 8a bf 12 38 e7 be
       -0.7603 1.718 -1.586 -0.1576 -1.487 -1.885 0.509 -1.726
000190 74 3a 0e ba 9a b4 0b 3c 89 38 98 3d b5 a4 3d b2
       0.8066 -0.757 -0.2876 1.011 0.567 1.398 -0.01839 -0.195
0001a0 aa 39 04 b9 8e 30 f5 32 4b ae 99 ba 3c b7 9e 31
       0.708 -0.627 0.1423 0.2174 -0.0983 -0.8247 -0.4521 0.1755
0001b0 49 2d 8c 37 8b 38 06 c1 13 19 65 b4 cd b0 42 b4
       0.0826 0.4717 0.568 -2.512 0.002478 -0.2747 -0.15 -0.266
0001c0 8a 38 fe 35 a7 2c 18 34 b6 bc fc 28 0e b8 10 40
       0.5674 0.3745 0.0727 0.2559 -1.178 0.03894 -0.507 2.031
0001d0 7f b0 5a 33 3e 38 46 ba 85 3d 22 41 9d 30 5d 3c
       -0.1405 0.2297 0.5303 -0.784 1.38 2.566 0.1442 1.091
0001e0 50 39 74 b7 20 b7 2b ba 7e 38 57 b5 80 b2 90 36
       0.664 -0.4658 -0.4453 -0.771 0.5615 -0.3337 -0.2031 0.4102
0001f0 ff 34 02 b4 1b b2 59 31 44 3e 2d a9 ce c0 d2 36
       0.3123 -0.2505 -0.1908 0.1671 1.566 -0.04044 -2.402 0.4263

arith.constant52 f2 [1, 3, 3, 32]
000000 06 a0 b2 ae bb ac 56 30 4a 34 bc ac 47 29 f1 af
       -0.00786 -0.1046 -0.0739 0.1355 0.268 -0.074 0.04123 -0.1241
000010 e8 ac b1 2d a0 af bb b0 fb a9 f9 b2 00 2c cd af
       -0.07666 0.0889 -0.11914 -0.1478 -0.04672 -0.2179 0.0625 -0.1219
000020 36 35 18 a5 51 30 3e b3 92 b5 20 27 aa af 0c ae
       0.3257 -0.0199 0.1349 -0.2263 -0.3481 0.02783 -0.11975 -0.0945
000030 ec 23 dc a7 ae b2 57 a9 89 ac a5 ac 9f a4 14 30
       0.01547 -0.0307 -0.2087 -0.04172 -0.07086 -0.0726 -0.01805 0.1274
000040 b2 a2 3d 35 67 b6 e1 b0 d8 ad bf a4 66 02 83 35
       -0.01308 0.3274 -0.4001 -0.1525 -0.0913 -0.01854 3.66e-05 0.3445
000050 ec a9 7a b4 a6 b2 31 22 5b 2f a7 b0 c0 ad 1c 2c
       -0.04626 -0.2798 -0.2078 0.01209 0.1149 -0.1454 -0.08984 0.0642
000060 48 35 43 b2 7a 35 01 35 c8 b4 47 35 d0 af 59 b2
       0.33 -0.1957 0.3423 0.3127 -0.2988 0.3298 -0.1221 -0.1984
000070 ca 29 ec 9c 64 2d d4 36 57 b1 db ac 2b 35 5e ae
       0.04523 -0.004807 0.0842 0.4268 -0.1669 -0.07587 0.323 -0.0995
000080 7c b1 11 b3 84 26 a9 b4 89 b5 f1 af bb 30 70 b2
       -0.1714 -0.2208 0.02545 -0.2913 -0.346 -0.1241 0.1478 -0.2012
000090 07 35 e9 ad f5 34 cf b4 f6 2f 89 2d 06 b4 c5 32
       0.3142 -0.09235 0.3098 -0.3005 0.1244 0.0865 -0.2515 0.2115
0000a0 9e b0 ea a8 d1 30 a7 31 09 2e 18 2e b6 28 cb 29
       -0.1443 -0.0384 0.1505 0.1766 0.0943 0.0952 0.0368 0.04526
0000b0 ef 28 10 34 14 27 69 1c 7a b3 ea b5 7f 31 e9 b5
       0.03854 0.254 0.02765 0.004307 -0.2336 -0.3696 0.1718 -0.3694
0000c0 35 ac 19 31 5d b1 70 29 1c ad f0 2b d3 33 e2 ac
       -0.06573 0.1593 -0.1676 0.04248 -0.07983 0.062 0.2445 -0.0763
0000d0 c9 b0 fa ad da 31 a5 2f 10 2d 51 b4 80 af 98 2d
       -0.1495 -0.0934 0.1829 0.11945 0.0791 -0.2698 -0.1172 0.0874
0000e0 98 34 98 aa 8c 18 3f ae ca 35 e5 96 ac b4 94 28
       0.287 -0.0515 0.00222 -0.0976 0.3618 -0.001683 -0.292 0.03577
0000f0 25 2a 80 2c 81 2f 54 b1 56 b6 33 ad 06 ae 11 36
       0.048 0.0703 0.11725 -0.1665 -0.396 -0.08124 -0.0941 0.3792
000100 61 b2 10 b4 fc 34 c3 32 fd b3 03 b0 cc 33 1a 30
       -0.1993 -0.254 0.3115 0.2113 -0.2496 -0.1254 0.2437 0.1282
000110 33 a6 a6 b0 4b b1 2c 2e 9f 35 dc ad 26 b2 e4 34
       -0.02422 -0.1453 -0.1654 0.09644 0.3513 -0.09155 -0.1921 0.3057
000120 3c 35 8d ad e3 30 a1 b2 b7 31 66 2c 1f b5 8d 31
       0.3271 -0.08673 0.1527 -0.2072 0.1786 0.0687 -0.32 0.1735
000130 94 33 53 2b bc b4 a2 aa 72 b2 86 b0 46 ad f7 2a
       0.2368 0.05722 -0.296 -0.05182 -0.2014 -0.1414 -0.0824 0.0544
000140 a0 b3 7d a6 8d 30 10 b3 31 33 52 31 a9 b5 b7 30
       -0.2383 -0.02534 0.1422 -0.2207 0.2247 0.1663 -0.3538 0.1473
000150 43 34 f1 ad 86 b1 55 b3 05 ac 38 b2 ec b4 6f 34
       0.2664 -0.09283 -0.1726 -0.2291 -0.0628 -0.1943 -0.3076 0.277
000160 16 2d 38 b3 a0 a3 09 30 db 27 34 b0 bf 2a 5f ac
       0.07947 -0.2256 -0.01489 0.1261 0.03069 -0.1313 0.0527 -0.0683
000170 89 b4 a6 a8 e5 31 57 31 3b b4 bc b0 4c 30 ee b1
       -0.2834 -0.03632 0.1842 0.1669 -0.2644 -0.148 0.1343 -0.1853
000180 a7 af cc a8 60 32 34 2c 37 b1 7d 31 d1 b1 20 31
       -0.11957 -0.03748 0.1992 0.0657 -0.163 0.1715 -0.1818 0.1602
000190 c4 b3 f0 ad ae aa 63 2d 35 b5 dd af c3 21 cb a9
       -0.2427 -0.0928 -0.0522 0.08417 -0.3254 -0.12286 0.01125 -0.04526
0001a0 92 a6 fd 34 55 31 08 2d 46 ac 13 2d d0 ad e0 b3
       -0.02567 0.3118 0.1666 0.0786 -0.0668 0.0793 -0.0908 -0.2461
0001b0 df ab 5d aa 46 30 dd 2b e7 af 6f 2c 5c ad 7a ac
       -0.0615 -0.0497 0.1335 0.06143 -0.1235 0.0693 -0.08374 -0.06995
0001c0 c6 b2 c5 ae ad a8 5c 33 71 30 a2 b6 e9 b2 22 b6
       -0.2117 -0.1058 -0.03653 0.23 0.1388 -0.4146 -0.216 -0.3833
0001d0 85 af 4a a5 89 34 6a 33 36 ae 47 b1 6a a9 23 32
       -0.1175 -0.02066 0.2834 0.2317 -0.09705 -0.1649 -0.0423 0.1918
0001e0 78 28 db 2c db 2e 4f b3 19 2a 7a b4 4a 2b 87 aa
       0.0349 0.07587 0.1071 -0.2284 0.04764 -0.2798 0.05695 -0.051
0001f0 0b 34 ef 34 d8 b4 d4 b4 d1 b0 31 b3 c8 ae 28 31
       0.2527 0.3083 -0.3027 -0.3018 -0.1505 -0.2247 -0.10596 0.1611

arith.constant53 f2 [32, 1, 1, 16]
000000 2c bc 7f bd 09 c3 4c 3b f1 be 82 b9 0b 40 a6 bc
       -1.043 -1.374 -3.518 0.912 -1.735 -0.6885 2.021 -1.162
000010 52 be d0 38 18 42 79 bf 74 c0 77 bf 7a c1 76 36
       -1.58 0.6016 3.047 -1.868 -2.227 -1.866 -2.738 0.4038
000020 cd 3e be ba 35 41 aa 3d 3c 29 d7 3c 5c bf e9 3e
       1.7 -0.843 2.604 1.416 0.0409 1.21 -1.84 1.728
000030 06 b9 db b8 75 b9 f9 34 41 34 9b 3f b3 bc 04 3a
       -0.628 -0.607 -0.682 0.3108 0.2659 1.901 -1.175 0.752
000040 81 37 c4 39 b1 b9 da b5 e1 b8 f6 b8 5f be 9c ba
       0.469 0.7207 -0.7114 -0.3657 -0.61 -0.62 -1.593 -0.826
000050 95 bc fd bc b5 3b 94 bd 6b 39 e4 aa 0a be 0c 3f
       -1.1455 -1.247 0.9634 -1.395 0.6772 -0.05383 -1.51 1.762
000060 73 c0 5c 3d 6b 2c 0c bf 43 37 99 b7 f4 bf 6c be
       -2.225 1.34 0.06903 -1.762 0.4539 -0.4749 -1.988 -1.605
000070 cc 3e 65 3d 48 36 81 39 92 3b 22 c1 5e 39 33 b4
       1.699 1.349 0.3926 0.688 0.9463 -2.566 0.671 -0.2625
000080 8f bb f3 3d 33 ba 68 3a 02 2f c6 43 6b 34 35 32
       -0.945 1.487 -0.775 0.801 0.1095 3.887 0.2761 0.194
000090 1e 37 36 3c 42 34 2b bd e3 2a 1c 37 37 aa d5 bc
       0.4448 1.053 0.266 -1.292 0.0538 0.4443 -0.04855 -1.208
0000a0 a6 b9 dc bc 5e 32 28 40 61 30 df 3a 8f c1 4e bc
       -0.706 -1.215 0.199 2.078 0.1368 0.859 -2.78 -1.076
0000b0 a5 c0 b7 b0 10 3c c3 a8 08 39 2a ba b2 bd 62 b3
       -2.322 -0.1473 1.016 -0.0372 0.629 -0.7705 -1.424 -0.2307
0000c0 72 36 df 40 19 3f 38 bc ab bd 1e a9 2a b8 4d b5
       0.4028 2.436 1.774 -1.055 -1.417 -0.03998 -0.5205 -0.3313
0000d0 bd bf de b2 e0 c0 d9 bb 25 39 89 bf 12 3b 34 3a
       -1.935 -0.2146 -2.438 -0.981 0.643 -1.884 0.884 0.7754
0000e0 9f c0 3c 41 59 34 6d b8 5b 3c 2b bc a1 b9 22 3d
       -2.31 2.617 0.2717 -0.553 1.089 -1.042 -0.7036 1.283
0000f0 d6 3b 49 44 ef b8 00 38 e2 ad 6a c0 3c 2e e6 be
       0.9795 4.285 -0.6167 0.5 -0.0919 -2.207 0.0974 -1.725
000100 ee b5 33 36 3b bb e1 37 93 c4 4f 3b 0f bb e4 b9
       -0.3706 0.3875 -0.904 0.4924 -4.574 0.9136 -0.8823 -0.7363
000110 f1 b4 e9 b5 05 38 45 43 da 39 50 bc a0 30 71 2d
       -0.3088 -0.3694 0.5024 3.635 0.7314 -1.078 0.1445 0.085
000120 ad 34 3d ae 06 b7 ad b9 c8 b0 99 bd ac 39 2e 33
       0.2922 -0.0975 -0.439 -0.7095 -0.1494 -1.399 0.709 0.2244
000130 51 ba ec b7 f0 39 e6 b3 d0 b8 3e 41 08 b8 8a 40
       -0.7896 -0.495 0.742 -0.2468 -0.6016 2.621 -0.504 2.27
000140 50 3a c7 b9 07 36 4c 36 b9 b9 a5 3a 0a 3b e9 3b
       0.789 -0.722 0.3767 0.3936 -0.7153 0.8306 0.88 0.989
000150 44 41 9a 39 2d b7 5c b4 c5 3c 3b 35 0f 36 0f b4
       2.633 0.7 -0.4485 -0.2725 1.192 0.327 0.3787 -0.2537
000160 fc 39 cf b2 34 36 01 27 61 b3 26 b8 27 b8 f1 2b
       0.748 -0.2128 0.3877 0.02736 -0.2306 -0.5186 -0.519 0.06204
000170 65 b6 10 2c 63 36 a5 33 50 3e f2 b1 45 35 dc 26
       -0.3997 0.0635 0.3992 0.2389 1.578 -0.1858 0.3293 0.0268
000180 24 bc 10 30 f1 3b 6f be 7c 33 52 b5 44 31 97 bd
       -1.035 0.127 0.9927 -1.608 0.2339 -0.3325 0.1646 -1.397
000190 94 bc a6 a9 bd c0 e1 b5 06 bf ec 35 80 3b c6 bd
       -1.145 -0.04413 -2.37 -0.3674 -1.756 0.37 0.9375 -1.443
0001a0 56 c1 8b b0 74 3d 9a 3f 0f bc e5 3b ba bc 90 b6
       -2.668 -0.142 1.363 1.9 -1.015 0.987 -1.182 -0.4102
0001b0 04 ba 6a 2d 02 36 c9 40 29 bc 9d 2e dc 3d 20 be
       -0.752 0.0846 0.3755 2.393 -1.04 0.10333 1.465 -1.531
0001c0 a6 b2 f5 38 a6 38 16 b8 76 40 43 22 b8 b2 10 bb
       -0.2078 0.6196 0.581 -0.5107 2.23 0.01223 -0.21 -0.883
0001d0 da a8 ae 2f c5 31 f5 c1 bb 37 9d be f1 b4 01 2c
       -0.0379 0.12 0.1803 -2.979 0.4832 -1.653 -0.3088 0.06256
0001e0 58 bd ef 1f 36 be b1 42 6f 39 30 bf a0 3b 2e 3f
       -1.336 0.007748 -1.553 3.346 0.679 -1.797 0.953 1.795
0001f0 40 42 a6 3b bd 3e 9d 35 3a 3e 5c 39 68 b9 c4 bd
       3.125 0.956 1.685 0.3508 1.557 0.67 -0.676 -1.441

arith.constant54 f2 [1, 3, 3, 32]
000000 ca 99 d3 26 28 a3 6d 30 3e 34 78 a9 1b 31 78 2a
       -0.002827 0.02666 -0.01398 0.1383 0.2651 -0.04272 0.1595 0.05054
000010 1d ae af b5 41 b3 43 34 d3 b3 2b ac 46 2b 62 34
       -0.0955 -0.3552 -0.2267 0.2664 -0.2445 -0.0651 0.05682 0.274
000020 0e ae 23 24 51 ac 39 27 c4 b2 8c 2b 46 b0 b7 b1
       -0.0946 0.01616 -0.06744 0.02821 -0.2114 0.05896 -0.1335 -0.1786
000030 fa 2d 96 a8 5d b1 c2 a5 e9 b2 2e af 87 b1 74 ad
       0.0934 -0.03583 -0.1676 -0.02249 -0.216 -0.1122 -0.1727 -0.0852
000040 f3 30 6d 36 75 29 b8 ae e3 35 34 b5 bc 2f 35 30
       0.1547 0.4016 0.04263 -0.105 0.368 -0.3252 0.12085 0.1315
000050 b4 2d 18 b5 e0 b5 b8 af a1 b1 67 32 54 aa a7 30
       0.0891 -0.3184 -0.3672 -0.1206 -0.1759 0.2001 -0.04944 0.1454
000060 f5 ad 30 b3 a3 30 17 b6 bc a9 a4 a9 45 b4 1e b0
       -0.0931 -0.2246 0.1449 -0.3806 -0.0448 -0.04407 -0.2668 -0.1287
000070 87 35 cd ae 44 ac aa af 9d aa cb 2c 0b b5 00 b2
       0.3455 -0.10626 -0.06665 -0.11975 -0.05167 0.0749 -0.3152 -0.1875
000080 83 ac 06 31 b3 b2 08 ad 42 30 59 b3 b9 ae f8 2e
       -0.0705 0.157 -0.2094 -0.0786 0.133 -0.2296 -0.10504 0.1089
000090 e2 26 66 b0 d0 b3 a6 af 01 af 13 31 d5 9e d6 af
       0.02689 -0.1375 -0.2441 -0.1195 -0.10944 0.1586 -0.00667 -0.12244
0000a0 4c 31 09 b1 bb 30 a7 b4 a7 a4 60 ad b6 b2 8d b1
       0.1655 -0.1573 0.1478 -0.2908 -0.01817 -0.084 -0.2097 -0.1735
0000b0 aa 2d 5d b6 77 a9 1a b1 df 33 5a 36 44 b1 89 af
       0.0885 -0.3977 -0.0427 -0.1594 0.246 0.397 -0.1646 -0.11774
0000c0 13 32 99 2f a8 33 7b b0 44 2a e7 ae e6 a8 38 34
       0.1898 0.1187 0.2393 -0.14 0.04895 -0.10785 -0.03827 0.2637
0000d0 c7 b3 36 b0 a5 99 36 34 e0 a9 e3 2c 2a 28 bd 30
       -0.243 -0.1316 -0.002756 0.2632 -0.0459 0.07635 0.03253 0.1481
0000e0 f3 b1 6f b4 ac b4 0d 31 68 2b 16 a7 30 30 e8 b0
       -0.1859 -0.277 -0.292 0.1578 0.05786 -0.02768 0.1309 -0.1533
0000f0 6d b6 c7 b2 a8 30 fd 34 6f 0f 81 b1 75 af cb b1
       -0.4016 -0.2118 0.1455 0.3118 0.0004537 -0.172 -0.1165 -0.181
000100 9d 2e 5d 30 52 2f 0f 2f 04 32 ea b5 5d b0 f1 34
       0.10333 0.1364 0.1144 0.1103 0.188 -0.3696 -0.1364 0.3088
000110 1d b3 42 2e 50 32 ad ac 40 b0 ec 32 54 30 44 2c
       -0.2223 0.0978 0.1973 -0.07306 -0.1328 0.2163 0.1353 0.06665
000120 35 34 2a b4 6e 31 9b 28 aa b0 b1 b2 71 34 a4 27
       0.263 -0.2603 0.1697 0.03598 -0.1458 -0.2091 0.2776 0.02985
000130 02 b7 d8 b1 6e 2f c6 31 89 32 9e a4 85 ae d5 b5
       -0.438 -0.1826 0.1161 0.1804 0.2042 -0.01804 -0.10187 -0.3645
000140 99 b3 53 b0 2c b0 cc 35 3c 30 03 b1 d8 ac 34 ac
       -0.2374 -0.1351 -0.1304 0.3623 0.1323 -0.1566 -0.0757 -0.0657
000150 9f b2 81 32 34 32 fd b0 a9 b3 b5 2f 7d 2c df a9
       -0.2069 0.2032 0.1938 -0.1559 -0.2394 0.1204 0.0701 -0.04587
000160 59 34 2e 20 d7 30 d1 b1 df b2 7a b3 8d 31 f5 31
       0.2717 0.00816 0.1512 -0.1818 -0.2147 -0.2336 0.1735 0.1862
000170 9d ad f7 b3 f0 a6 fb 31 c8 32 4c 2d 83 33 08 b3
       -0.0877 -0.2489 -0.0271 0.1869 0.2119 0.08276 0.2347 -0.2197
000180 10 2c 56 33 1c 37 9d aa 98 a8 b0 b3 58 a8 f6 35
       0.0635 0.2292 0.4443 -0.05167 -0.0359 -0.2402 -0.03394 0.3726
000190 19 a3 11 34 0a 32 3f b3 54 30 3e 2f 1e 35 cf 2b
       -0.01386 0.2542 0.1887 -0.2264 0.1353 0.11316 0.3198 0.061
0001a0 3d b4 5b 30 88 b2 28 2f 60 31 6a ad 66 a6 e0 34
       -0.265 0.1361 -0.2041 0.1118 0.168 -0.0846 -0.025 0.3047
0001b0 0c 35 52 20 30 30 72 b1 e4 ac 4c af b3 28 f9 b1
       0.3154 0.00844 0.1309 -0.1702 -0.0764 -0.114 0.0367 -0.1866
0001c0 b6 b0 64 ab ce 32 f6 b0 b7 ad 21 b0 63 b6 74 2f
       -0.1472 -0.05774 0.2126 -0.155 -0.0893 -0.129 -0.3992 0.11646
0001d0 96 a8 d8 31 ab 34 ee b3 72 2c 21 2e b7 36 d4 2f
       -0.03583 0.1826 0.2917 -0.2478 0.06946 0.09576 0.4197 0.1223
0001e0 66 30 5a 2b 22 32 03 35 dc 32 c3 b0 d3 b2 58 31
       0.1375 0.05743 0.1917 0.3132 0.2144 -0.1488 -0.2133 0.167
0001f0 2e 36 21 b4 4c 32 d6 b3 69 b4 11 b0 62 ac d4 b4
       0.3862 -0.258 0.1968 -0.2449 -0.2756 -0.1271 -0.0685 -0.3018

arith.constant55 f2 [32, 1, 1, 32]
000000 3e b9 3f 32 23 39 ee 39 8b 33 a3 b2 3c 3b 73 39
       -0.6553 0.1952 0.642 0.741 0.2357 -0.2074 0.9043 0.681
000010 de b6 2b 3d b4 34 49 b9 56 2b ce b9 f8 38 94 36
       -0.4292 1.292 0.294 -0.6606 0.0573 -0.7256 0.621 0.4111
000020 85 b7 57 bc a2 be d2 b4 45 22 18 b2 e0 2c d4 be
       -0.47 -1.085 -1.658 -0.3013 0.012245 -0.1904 0.0762 -1.707
000030 c4 ab 5b b9 1a ba cc b9 c8 37 9e 3d a6 35 3f 31
       -0.06067 -0.6694 -0.7627 -0.7246 0.4863 1.404 0.353 0.164
000040 90 34 a4 a6 a0 a4 c5 37 79 2e 46 3c d7 b7 62 3d
       0.2852 -0.02594 -0.01807 0.4856 0.10114 1.068 -0.49 1.346
000050 fe 30 f8 39 3f 3c 4d 2e b9 b5 c2 19 34 b2 56 37
       0.156 0.746 1.062 0.09845 -0.3577 0.002811 -0.1938 0.4585
000060 51 33 38 3c d5 b8 90 bc 2d a6 09 b7 ae 3a f2 34
       0.2286 1.055 -0.604 -1.141 -0.02412 -0.4397 0.835 0.309
000070 4e 31 8a 32 8f b6 08 b9 0a a0 f6 b1 66 b0 08 bf
       0.1658 0.2043 -0.41 -0.629 -0.00789 -0.1863 -0.1375 -1.758
000080 2b 3b 7e a8 b5 b0 aa b9 b3 b3 33 2c c9 b2 40 b5
       0.896 -0.0351 -0.1471 -0.708 -0.2406 0.0656 -0.212 -0.3281
000090 58 b6 27 2b 88 b6 3d 2b 06 34 c5 ad 4e 31 c0 29
       -0.3965 0.05588 -0.4082 0.05655 0.2515 -0.09015 0.1658 0.04492
0000a0 44 b7 d6 2c 2e b3 6b 36 6c 32 32 23 2e 3c d1 38
       -0.454 0.07556 -0.2244 0.4011 0.2007 0.01405 1.045 0.602
0000b0 0e 35 a2 b6 00 ad 4a 9c c8 b7 76 b6 cb 37 fd 38
       0.316 -0.4146 -0.0781 -0.00419 -0.4863 -0.4038 0.487 0.6235
0000c0 0e 2b a5 ae d4 ac 50 b9 e3 ad e8 ac 96 b1 d5 38
       0.0551 -0.1038 -0.07544 -0.664 -0.092 -0.07666 -0.1746 0.604
0000d0 57 9c 6f 30 d8 be c5 37 4c ad c1 35 47 38 8b 2a
       -0.00424 0.1385 -1.711 0.4856 -0.08276 0.3596 0.5347 0.05112
0000e0 5b b5 eb 39 60 b5 1b ba a8 ae 17 a9 07 36 17 39
       -0.3347 0.7397 -0.336 -0.763 -0.104 -0.03976 0.3767 0.636
0000f0 88 36 62 b4 bf 2b 54 38 5f 31 87 b4 85 38 00 31
       0.4082 -0.274 0.06052 0.541 0.1678 -0.283 0.565 0.1562
000100 97 30 96 a5 c3 35 aa 38 97 9d 59 ab ad 35 65 b5
       0.1434 -0.02182 0.36 0.583 -0.00546 -0.0574 0.3547 -0.3372
000110 ef 3b 09 30 bc 36 ef b4 d0 b9 08 33 05 32 b1 b4
       0.9917 0.1261 0.421 -0.3083 -0.7266 0.2197 0.1881 -0.2932
000120 6f 30 86 b4 d3 b2 ea b4 b4 b5 c1 b2 e6 3c 54 b8
       0.1385 -0.2827 -0.2133 -0.3071 -0.3564 -0.211 1.225 -0.541
000130 39 36 79 b4 76 b9 03 be a1 33 85 29 fe 37 e4 35
       0.389 -0.2795 -0.6826 -1.503 0.2384 0.04312 0.4995 0.3682
000140 1d 26 11 c0 5e ae eb 2f 4d b9 17 35 d7 b4 39 a9
       0.02388 -2.033 -0.0995 0.1237 -0.6626 0.318 -0.3025 -0.0408
000150 a1 34 24 38 00 28 44 b3 11 aa 90 2e 73 b6 44 2c
       0.2893 0.5176 0.03125 -0.227 -0.0474 0.10254 -0.403 0.06665
000160 da b0 b3 32 76 b5 b1 2f 77 33 29 3b 8b a5 c1 38
       -0.1516 0.2094 -0.3413 0.1202 0.2333 0.895 -0.02165 0.594
000170 64 b8 77 33 00 b7 35 35 36 35 55 39 ba ae 02 36
       -0.549 0.2333 -0.4375 0.3254 0.3257 0.6665 -0.1051 0.3755
000180 ed af 0b 38 d0 32 ad 36 30 36 cd ab 6f a5 f7 30
       -0.12384 0.5054 0.2129 0.4172 0.3867 -0.06094 -0.02122 0.1552
000190 21 b1 38 34 30 37 b3 29 c6 38 1b 2f 7f 34 5e b6
       -0.1603 0.2637 0.4492 0.04453 0.5967 0.111 0.281 -0.398
0001a0 a3 a9 a9 26 5e b2 a2 38 6d b1 e7 38 08 b4 0f b4
       -0.04404 0.02602 -0.199 0.579 -0.1696 0.613 -0.252 -0.2537
0001b0 67 b6 f5 b4 a7 2e 3e 35 9c b3 92 aa 95 b8 89 b6
       -0.4001 -0.3098 0.10394 0.3276 -0.2378 -0.05133 -0.5728 -0.4084
0001c0 8b 33 0f af 10 b5 22 b6 7f 2b 52 bd 36 a7 c3 35
       0.2357 -0.1103 -0.3164 -0.3833 0.05856 -1.33 -0.02817 0.36
0001d0 8a ba 59 1a 7d 2a 4e 3a 27 ae a8 b1 3c b7 a2 b5
       -0.8174 0.0031 0.0507 0.788 -0.0961 -0.1768 -0.4521 -0.352
0001e0 df ba 48 b5 bc 24 a6 39 88 b3 a3 b4 72 30 25 ac
       -0.859 -0.33 0.0185 0.706 -0.2354 -0.2898 0.1389 -0.06476
0001f0 3b b9 c4 a6 e5 b0 7c 2c 22 39 7a 34 c5 b3 ed 39
       -0.654 -0.02643 -0.153 0.07007 0.6416 0.2798 -0.2428 0.7407
