assets/pfld_landmarks_float16.tflite (tflite, 549860 bytes, 62 tensors)

arith.constant f2 [16]
000000 01 be 2e b8 a8 bc 57 be ad 3e 3b 3d fe bd eb b8
       -1.501 -0.5225 -1.164 -1.585 1.669 1.308 -1.498 -0.6147
000010 0d bd 29 3e 05 bb ac 3e 3f 3e 94 3d ab 3d aa be
       -1.263 1.54 -0.8774 1.668 1.562 1.395 1.417 -1.666

arith.constant1 f2 [16, 3, 3, 3]
000000 e5 36 31 38 80 ab 2f 32 66 af d2 32 27 2e 32 b0
       0.431 0.524 -0.0586 0.1932 -0.1156 0.2131 0.0961 -0.1311
000010 0a 39 b0 2e 20 3a 8b b8 f1 b6 c0 39 c1 b6 61 b5
       0.63 0.1045 0.7656 -0.568 -0.4338 0.7188 -0.422 -0.3362
000020 96 29 de b4 51 30 fb b3 a4 30 9a 38 0d 38 14 38
       0.04364 -0.3042 0.1349 -0.2494 0.145 0.575 0.5063 0.51
000030 c6 ae 03 37 bf 36 58 bf eb 36 68 be e5 38 66 40
       -0.10583 0.4382 0.4216 -1.836 0.4324 -1.602 0.612 2.2
000040 72 be f3 39 81 3e 20 bd 2b 3c 4a 37 a8 bf 7e 36
       -1.611 0.7437 1.626 -1.281 1.042 0.4556 -1.914 0.4058
000050 c7 40 bc b3 98 3d 19 3c 51 bf 6d 3b 5b 3d 89 3e
       2.389 -0.2417 1.398 1.024 -1.829 0.928 1.339 1.634
000060 0b be 58 34 9e 3b 9b bf c8 bb 99 29 d2 3a 6d 28
       -1.511 0.2715 0.952 -1.901 -0.9727 0.04373 0.8525 0.03458
000070 d6 bc 80 3c 25 bd 42 b9 8d bc 54 ba 8e bd cc 38
       -1.209 1.125 -1.286 -0.657 -1.138 -0.791 -1.389 0.5996
000080 39 3a 3b 3b 52 b0 3b bd 4a 3c e8 3a f2 3c 2d b5
       0.778 0.904 -0.135 -1.308 1.072 0.8633 1.236 -0.3235
000090 da ae cf 2d 97 3d 2c 38 85 3d 34 3a ac 38 08 bb
       -0.10706 0.09076 1.397 0.5215 1.38 0.7754 0.584 -0.879
0000a0 4d 32 85 b8 0e bd 9d a9 b7 3c 28 33 8d 39 fd 3c
       0.1969 -0.565 -1.264 -0.04385 1.179 0.2236 0.694 1.247
0000b0 64 a9 98 3d 5c b3 39 3c 0b 32 47 b8 84 37 3e 37
       -0.0421 1.398 -0.23 1.056 0.1888 -0.5347 0.4697 0.4526
0000c0 84 34 dc b6 f3 39 8c b9 bb bc b9 b8 d7 bb 5b 31
       0.2822 -0.4287 0.7437 -0.6934 -1.183 -0.5903 -0.98 0.1674
0000d0 1b 3a 30 3a c1 3a 03 b9 f6 b8 ce b2 9e bc ac 3a
       0.763 0.7734 0.844 -0.6265 -0.62 -0.2126 -1.154 0.834
0000e0 2f 39 36 3b aa 2d 52 b9 a2 b8 e5 b6 f4 39 13 b9
       0.648 0.9014 0.0885 -0.665 -0.579 -0.431 0.744 -0.6343
0000f0 45 b9 11 39 38 b7 33 b7 57 3c 98 ac 24 a4 d0 b6
       -0.6587 0.6333 -0.4512 -0.45 1.085 -0.0718 -0.01617 -0.4258
000100 69 bc 11 29 0d b8 8f b3 3c b8 44 3b 42 b8 bc 33
       -1.103 0.03958 -0.5063 -0.2362 -0.5293 0.908 -0.532 0.2417
000110 1d 32 1c 34 88 b8 6c bb a3 3b de bc 25 bc 30 35
       0.191 0.2568 -0.5664 -0.9277 0.9546 -1.217 -1.036 0.3242
000120 8d b6 44 b7 2c bb 2e 3a 4b 2f 18 36 f2 3c cf b5
       -0.4094 -0.454 -0.8965 0.7725 0.11395 0.3809 1.236 -0.363
000130 14 35 91 b9 b6 bb 77 b4 c0 b4 59 bc fc 33 1a 36
       0.3174 -0.696 -0.964 -0.279 -0.2969 -1.087 0.2495 0.3813
000140 32 2d d6 2c 23 b8 1b 38 f1 ae 81 b0 a7 a3 3b 36
       0.0812 0.07556 -0.517 0.513 -0.10846 -0.1407 -0.014946 0.3894
000150 45 3a 59 37 d6 9c 23 b6 7c 37 39 35 27 b2 d9 2e
       0.7837 0.4592 -0.004723 -0.3835 0.4678 0.3264 -0.1923 0.107
000160 e0 39 8e 38 1d 32 5e 3a e0 14 2b 33 b3 38 b3 2a
       0.7344 0.5693 0.191 0.796 0.00119 0.224 0.5874 0.05234
000170 64 b6 81 b7 fc b9 34 b3 02 30 65 bd b9 36 43 39
       -0.3994 -0.469 -0.748 -0.2251 0.1252 -1.349 0.4202 0.6577
000180 00 b8 09 be 08 3e 06 be 48 b9 ae 34 8a 38 e4 b6
       -0.5 -1.509 1.508 -1.506 -0.66 0.2925 0.5674 -0.4307
000190 3e 3a 56 be 7b bc 88 b0 e8 3c 75 bb 9d 39 25 37
       0.7803 -1.584 -1.12 -0.1416 1.227 -0.932 0.7017 0.4465
0001a0 32 3d fe 3b 73 3b 02 bd ba 30 9b bb 45 35 a8 3d
       1.299 0.999 0.931 -1.252 0.1477 -0.9507 0.3293 1.414
0001b0 65 39 7d bc 89 b4 5b b9 cf b6 1f 3b b1 ba 2c b8
       0.6743 -1.122 -0.2834 -0.6694 -0.4255 0.89 -0.8364 -0.5215
0001c0 89 3c 72 3c fc 3d a6 38 85 b4 ca 3b 1f b6 2e 3b
       1.134 1.111 1.496 0.581 -0.2825 0.9736 -0.3826 0.8975
0001d0 9c 3d 34 af 2a bc 89 35 e7 bc 63 39 1b b7 6d bb
       1.402 -0.11255 -1.041 0.346 -1.226 0.6733 -0.444 -0.928
0001e0 a1 3c 96 b4 83 38 37 2d 7e b5 e4 b5 ed b7 d7 b1
       1.157 -0.2866 0.564 0.0815 -0.3433 -0.3682 -0.4954 -0.1825
0001f0 73 35 75 31 15 ac 65 31 6c b0 b0 af ee 32 4c b6
       0.3406 0.1705 -0.0638 0.1686 -0.1382 -0.1201 0.2166 -0.3936

arith.constant4 f2 [212]
000000 64 a2 69 24 72 28 1d a9 39 9f 96 2c d5 28 55 26
       -0.01248 0.01723 0.03473 -0.03995 -0.007053 0.07166 0.03775 0.02473
000010 68 2b a9 2d 2d a4 5c 1d 99 2a 09 19 8f 2c 48 2a
       0.05786 0.08844 -0.01631 0.005234 0.05154 0.002459 0.0712 0.04907
000020 d2 2c 50 25 67 9f 73 21 b1 2b bd 26 01 2c c9 a2
       0.0753 0.02075 -0.00723 0.01064 0.0601 0.02632 0.06256 -0.01325
000030 4b a7 35 a1 83 26 72 99 f1 25 3b 24 01 27 a2 9d
       -0.02849 -0.01017 0.02544 -0.002659 0.02321 0.01653 0.02736 -0.0055
000040 f2 25 57 2c 53 23 80 a4 be 2b a1 a1 ad 2a 67 a3
       0.02322 0.0678 0.014305 -0.01758 0.0605 -0.010994 0.05215 -0.01446
000050 08 a5 8f 2c 06 a5 27 28 43 93 60 18 98 2b 61 29
       -0.01965 0.0712 -0.01962 0.03244 -0.0008864 0.002136 0.05933 0.04202
000060 6f 24 bf 2b 09 2d 7d 29 3d 2b b3 a5 ff 1d 14 28
       0.01732 0.06052 0.0787 0.04288 0.05655 -0.02226 0.005856 0.03186
000070 6d 85 c7 26 29 20 67 17 f6 2c 75 23 69 9d 63 2b
       -8.28e-05 0.02647 0.008125 0.001807 0.0775 0.014565 -0.005283 0.0577
000080 02 26 c1 27 a1 2a a6 2c fd 28 57 a4 5c 24 48 28
       0.02347 0.03029 0.0518 0.07263 0.03897 -0.01695 0.01703 0.03345
000090 a1 28 31 1c e3 2a 87 26 b8 25 4d a2 14 a8 7a 2a
       0.03616 0.004093 0.0538 0.0255 0.02234 -0.01231 -0.03186 0.0506
0000a0 98 a5 cd 9a d9 28 a6 29 6a 2b a7 2a 49 a0 3e 26
       -0.02185 -0.00332 0.03787 0.04413 0.05792 0.05197 -0.00837 0.02438
0000b0 2f a7 aa 26 01 29 a9 a9 b1 1e 66 a3 72 a8 26 29
       -0.02806 0.02603 0.0391 -0.04422 0.006535 -0.01445 -0.03473 0.04022
0000c0 7c a8 f3 28 71 a8 4a 8a b4 2b bf a6 76 25 87 28
       -0.03503 0.03867 -0.0347 -0.0001919 0.06018 -0.02635 0.02133 0.03537
0000d0 56 2a 5d 28 a0 21 04 2d 67 1c 26 2a 48 21 be 1d
       0.0495 0.0341 0.01099 0.07837 0.0043 0.04803 0.010315 0.005608
0000e0 5b a9 01 2b 7f a4 14 a5 94 9e 13 2a 64 2c 19 a5
       -0.04184 0.05472 -0.01756 -0.01984 -0.006424 0.04745 0.0686 -0.01991
0000f0 c6 29 d6 24 97 2b d4 18 b9 21 67 2d 68 a8 6a 20
       0.0451 0.01889 0.0593 0.002357 0.01118 0.0844 -0.03442 0.00862
000100 56 a8 1d 2c 1b 29 62 2c ae 23 7e 24 06 a8 27 28
       -0.03387 0.0643 0.0399 0.0685 0.015 0.01755 -0.03143 0.03244
000110 4f 2b 45 a0 51 2a 74 2c f2 2b 8d 2a 83 29 58 29
       0.0571 -0.00834 0.04935 0.0696 0.06207 0.05118 0.04306 0.04175
000120 b2 23 86 a2 8b 2c 43 a1 68 29 35 aa 94 a6 e0 29
       0.01503 -0.01274 0.071 -0.01028 0.04224 -0.0485 -0.0257 0.0459
000130 7d a6 1b 1c 9c 21 99 29 5e 1c 76 24 6d 24 48 95
       -0.02534 0.00401 0.010956 0.04373 0.004265 0.01743 0.01729 -0.001289
000140 58 22 50 a6 91 28 0f 2c 3a 2a f1 28 cf 28 73 27
       0.01239 -0.02466 0.03568 0.0634 0.04865 0.0386 0.03757 0.0291
000150 2c 2d 05 28 4e 2d dd 28 0d a4 53 a6 46 a4 b6 24
       0.0808 0.0314 0.0829 0.038 -0.01582 -0.0247 -0.0167 0.0184
000160 83 2c e0 29 af 2c f5 2a 3d 2d 8c 9d f1 a0 5f a3
       0.0705 0.0459 0.0732 0.05435 0.08185 -0.005417 -0.00965 -0.0144
000170 81 1b 10 2b 2c 22 0a a9 17 2d 17 a4 56 2b 18 29
       0.003664 0.05518 0.012054 -0.03937 0.0795 -0.01598 0.0573 0.0398
000180 c8 29 86 a3 25 2c ec 27 1f 27 da 24 66 2d 1f a9
       0.04517 -0.014694 0.06476 0.03094 0.02782 0.01895 0.08435 -0.04
000190 fa 1e 41 2a 42 2a da 24 c5 28 04 27 3a 2b 0f a5
       0.006813 0.04886 0.0489 0.01895 0.03726 0.0274 0.05646 -0.01976
0001a0 58 28 ef a6 17 2c 43 2c
       0.03394 -0.02708 0.0639 0.0666

arith.constant8 f2 [212, 208]
000000 5c 1f 7d 99 cd 9e a1 1f 4e 1b 30 90 6a 20 c2 17
       0.007187 -0.00268 -0.00664 0.00745 0.003567 -0.000511 0.00862 0.001894
000010 07 22 4a 98 7b 21 21 8c ff 1f 4a 11 ef 9b 97 1c
       0.01177 -0.002094 0.010704 -0.000252 0.00781 0.0006456 -0.003874 0.004482
000020 0a 9f b1 a8 46 a7 9c a4 dc 94 32 a0 ad 17 28 ad
       -0.006874 -0.03665 -0.02841 -0.018 -0.001186 -0.008194 0.001874 -0.08057
000030 e5 98 5b a7 73 aa d1 23 0d 23 69 ac 93 26 2d a0
       -0.00239 -0.02873 -0.05038 0.01527 0.01377 -0.0689 0.02568 -0.008156
000040 47 28 bc a8 9e 24 6e a6 b4 24 6b 29 93 1f 94 aa
       0.03342 -0.037 0.01804 -0.02512 0.01837 0.04233 0.007397 -0.0514
000050 54 2b 0c aa e4 20 a0 a1 b1 22 2b 2c 35 21 3b 2a
       0.05725 -0.04724 0.00955 -0.01099 0.01307 0.0651 0.01017 0.04868
000060 9a a4 f3 a5 3f 26 76 25 ca a7 b7 a2 2b 2c 33 2a
       -0.01797 -0.02324 0.0244 0.02133 -0.03043 -0.013115 0.0651 0.04843
000070 d5 29 96 a1 77 2a 9b aa 2f b0 5b 2a e1 2b bb 25
       0.04556 -0.01091 0.0505 -0.0516 -0.1307 0.04965 0.06155 0.02238
000080 2c 28 91 a6 dd a0 ac a7 5a a0 5a 9e 62 22 17 27
       0.0326 -0.02565 -0.0095 -0.02997 -0.0085 -0.006203 0.01247 0.0277
000090 a1 a5 e9 9d ba 1a 05 26 66 8f 60 24 30 21 55 a3
       -0.02199 -0.00577 0.003284 0.02351 -0.0004516 0.01709 0.01013 -0.01432
0000a0 10 a5 f4 26 8f a9 08 30 c4 2a 31 28 ff 29 b7 29
       -0.01978 0.02716 -0.04343 0.126 0.05286 0.03275 0.04684 0.04465
0000b0 65 a8 d8 b2 52 ae 09 24 6c ad f7 b1 87 b5 04 aa
       -0.03433 -0.2139 -0.09875 0.01576 -0.0847 -0.1864 -0.3455 -0.047
0000c0 69 2c 94 ad dd b0 89 28 b8 a4 86 aa 9c 21 bf 28
       0.0689 -0.08716 -0.152 0.03543 -0.01843 -0.05096 0.010956 0.03708
0000d0 8d 2d 6c 26 34 2d f0 2c cd a7 f5 a8 87 28 2f 2f
       0.08673 0.02509 0.0813 0.07715 -0.03047 -0.03873 0.03537 0.11224
0000e0 70 29 55 2e e4 1a 2f a4 a8 a9 a7 2c 7e 20 6b b0
       0.04248 0.09894 0.003365 -0.01634 -0.0442 0.0727 0.00877 -0.1381
0000f0 ec 29 4f 0e 95 2e 05 2c 04 15 06 2d f7 ac c8 a2
       0.04626 0.000385 0.10284 0.0628 0.0012245 0.0785 -0.0776 -0.013245
000100 12 2f 85 ad d3 aa 26 2b 99 ae 2f b3 32 21 0b 2b
       0.1105 -0.08624 -0.0533 0.05585 -0.1031 -0.2245 0.01015 0.05502
000110 0e 1e ad b0 53 ac d8 a9 37 a5 77 a4 a7 2d f9 1f
       0.005913 -0.1461 -0.06757 -0.04565 -0.02037 -0.01744 0.0883 0.007786
000120 53 26 b4 a2 76 2e 19 30 eb a5 d1 ad 08 2a 20 2c
       0.0247 -0.01309 0.10095 0.128 -0.02312 -0.0909 0.04712 0.06445
000130 43 33 39 30 77 31 c0 98 f9 2a c8 ae 23 ac 23 2c
       0.2269 0.132 0.1708 -0.00232 0.05447 -0.10596 -0.06464 0.06464
000140 bc a7 a6 aa 8a aa d2 2a 29 a4 2b 31 3e 2b e0 25
       -0.03021 -0.05194 -0.0511 0.05328 -0.01625 0.1615 0.05658 0.02295
000150 ae 2d ed 1b 6b a0 38 31 6c a3 9b 2d 12 22 6f a4
       0.08875 0.00387 -0.00863 0.1631 -0.014496 0.0876 0.011856 -0.01732
000160 04 30 5a a4 84 23 53 af 0c 24 5e 2e d1 2c 1d 22
       0.1255 -0.017 0.01468 -0.11444 0.01581 0.0995 0.07526 0.01194
000170 8f 20 1e 28 b6 a9 d2 22 01 2c a7 a7 5f b2 9a ad
       0.0089 0.03217 -0.04462 0.01332 0.06256 -0.02989 -0.1991 -0.0875
000180 20 af c9 a4 11 9c 65 30 fa a0 0a a8 68 9f 79 ab
       -0.1113 -0.01869 -0.00397 0.1373 -0.00972 -0.03156 -0.007233 -0.05838
000190 da a3 d6 a8 3f 2e 33 aa 58 ab 56 2d 75 30 3a 19
       -0.015335 -0.03778 0.0976 -0.04843 -0.05737 0.0834 0.1393 0.002552
0001a0 57 91 95 9a f4 9d b1 9d 8d 1a fc 10 30 9f c4 9b
       -0.000652 -0.003214 -0.005814 -0.005558 0.003199 0.0006084 -0.00702 -0.003792
0001b0 44 a1 28 99 83 1e 60 9b a7 20 52 9d 55 10 4d a0
       -0.010284 -0.002518 0.00636 -0.003601 0.00909 -0.005196 0.000529 -0.0084
0001c0 92 9e 38 ac 09 ac e0 a5 d7 a9 53 10 87 23 97 11
       -0.006416 -0.0659 -0.06305 -0.02295 -0.04562 0.000528 0.0147 0.0006824
0001d0 d5 a1 a9 ac d6 ab 14 27 e8 26 50 a8 1f aa 2c ad
       -0.01139 -0.0728 -0.06122 0.02765 0.02698 -0.0337 -0.04782 -0.0808
0001e0 74 25 41 a4 02 af e3 a8 94 9f be a0 71 2b 23 32
       0.0213 -0.01662 -0.1095 -0.03818 -0.0074 -0.00926 0.05814 0.1918
0001f0 ba 14 09 2a b9 21 02 a2 71 19 41 1f 82 24 0b 28
       0.001154 0.04715 0.01118 -0.011734 0.002657 0.007084 0.01761 0.0316

arith.constant9 f2 [1, 3, 3, 16]
000000 d3 b8 80 ba 47 38 1b 37 d9 b6 ea b0 ae 35 a0 ba
       -0.603 -0.8125 0.5347 0.444 -0.428 -0.1536 0.355 -0.828
000010 15 40 56 b4 ec 3f 74 40 e2 bf f7 bc 18 3b 20 42
       2.041 -0.271 1.98 2.227 -1.971 -1.241 0.8867 3.062
000020 15 b9 18 bf 06 36 1f b8 71 af 5e b7 ae 38 cb bb
       -0.6353 -1.773 0.3765 -0.515 -0.1163 -0.4604 0.585 -0.974
000030 73 a0 30 b8 14 3e ca c0 b3 bf d5 3f e4 3d 72 3e
       -0.00869 -0.5234 1.52 -2.395 -1.925 1.958 1.473 1.611
000040 7e b9 9d 3f 89 3c 04 b6 d2 ad be 25 8f b5 22 3c
       -0.6865 1.903 1.134 -0.376 -0.09094 0.02243 -0.3474 1.033
000050 ef bd bd 2d d3 bc 40 c4 1d b8 f5 c3 e4 b4 d0 37
       -1.483 0.08966 -1.206 -4.25 -0.514 -3.979 -0.3057 0.4883
000060 3e b3 be a6 de 32 f4 ac 88 b8 6c b8 22 36 f1 39
       -0.2263 -0.02634 0.2146 -0.0774 -0.5664 -0.5527 0.3833 0.7427
000070 50 38 1e 9f db 3d 11 40 b0 b9 24 3d 73 bd fc bd
       0.539 -0.00695 1.464 2.033 -0.711 1.285 -1.362 -1.496
000080 0d b0 07 bb 9f b1 e7 b8 52 b2 bb b6 f6 a6 db ae
       -0.1266 -0.8784 -0.1757 -0.613 -0.1975 -0.4207 -0.02719 -0.1071
000090 66 3e 55 af 13 bd 4d be 13 bd e3 44 7f b5 33 c1
       1.6 -0.11456 -1.269 -1.575 -1.269 4.887 -0.3435 -2.6
0000a0 ad bb eb 3b 4a ba 66 39 f9 af f1 b6 7e 38 d9 3c
       -0.9595 0.9897 -0.786 0.675 -0.1246 -0.4338 0.5615 1.212
0000b0 c2 b9 06 36 8f be 11 34 b3 3f d9 40 ee bc ea c0
       -0.7197 0.3765 -1.64 0.2542 1.925 2.424 -1.232 -2.457
0000c0 94 34 27 bf 79 ba 08 b5 1c ad c6 b2 2f b2 e6 39
       0.2861 -1.788 -0.809 -0.3145 -0.07983 -0.2117 -0.1932 0.7373
0000d0 dc a7 e4 b6 aa 38 2e b6 58 3f df b4 ac 3d 09 bc
       -0.0307 -0.4307 0.583 -0.3862 1.836 -0.3044 1.418 -1.009
0000e0 48 31 20 3f fd a7 11 b6 9b 36 71 35 7a 32 3a b8
       0.165 1.781 -0.0312 -0.3792 0.4128 0.34 0.2024 -0.5283
0000f0 8f b2 70 b8 9c be a7 39 b5 35 bb bc 94 3a b8 3c
       -0.205 -0.5547 -1.652 0.7065 0.3567 -1.183 0.8223 1.18
000100 08 3d c2 30 2e 3c 6a b8 2e b8 7a ad 5c 38 ff 31
       1.258 0.1487 1.045 -0.552 -0.5225 -0.0856 0.545 0.1874
000110 c1 af 63 b7 92 3c 6f 43 8f 40 02 c2 db b1 13 34
       -0.12115 -0.4617 1.143 3.717 2.28 -3.004 -0.183 0.2546

arith.constant10 f2 [32, 1, 1, 16]
000000 eb b4 06 ad 4c b1 90 32 0d b7 51 b2 4d b8 09 37
       -0.3074 -0.0785 -0.1655 0.2051 -0.4407 -0.1974 -0.5376 0.4397
000010 09 b2 f1 b5 04 38 ad 2b 21 35 fb b9 c2 27 62 35
       -0.1886 -0.3713 0.502 0.05997 0.3206 -0.7476 0.0303 0.3364
000020 ac 35 34 38 a2 b1 f1 30 d1 b3 c7 2d 3f 35 3d 34
       0.3545 0.5254 -0.176 0.1544 -0.2443 0.0903 0.328 0.265
000030 62 b5 45 b3 12 b5 bc 33 ab b4 93 b6 4e b8 9d b8
       -0.3364 -0.2272 -0.317 0.2417 -0.2917 -0.411 -0.538 -0.5767
000040 f9 a9 8f 34 10 a1 a5 b6 8f aa d8 32 43 39 60 b0
       -0.04666 0.285 -0.00989 -0.4153 -0.05124 0.2139 0.6577 -0.1367
000050 7e 2e 74 ac cc 34 e6 ae ba a1 37 b5 b2 30 ba aa
       0.10144 -0.0696 0.2998 -0.1078 -0.011185 -0.326 0.1467 -0.05255
000060 77 33 cf 39 b5 a5 69 35 da 3a c0 37 9c b0 c4 b0
       0.2333 0.726 -0.0223 0.3381 0.8564 0.4844 -0.144 -0.1489
000070 c3 af 54 37 73 ac df aa 8e 2e 10 39 95 3a 44 b3
       -0.1213 0.458 -0.0695 -0.05368 0.1024 0.633 0.8228 -0.227
000080 80 2f f3 b6 88 38 61 b3 c3 b6 36 37 01 b8 80 37
       0.1172 -0.4343 0.5664 -0.2306 -0.4226 0.4507 -0.5005 0.4688
000090 29 b9 0c b9 a1 35 1f 37 dc b4 73 23 5d 35 09 39
       -0.645 -0.631 0.3518 0.445 -0.3037 0.01455 0.3352 0.6294
0000a0 1e 23 eb b8 41 37 45 36 4c b3 4d b8 b0 35 a1 b3
       0.0139 -0.6147 0.4534 0.3918 -0.228 -0.5376 0.3555 -0.2384
0000b0 44 b5 0c 32 bb 33 19 b7 63 b3 82 34 e8 38 2e 30
       -0.329 0.189 0.2416 -0.4436 -0.2308 0.2817 0.6133 0.1306
0000c0 b8 30 11 36 86 ae b8 32 07 b4 78 33 44 33 ab 2e
       0.1475 0.3792 -0.1019 0.21 -0.2517 0.2334 0.227 0.1042
0000d0 73 35 0b b5 a8 38 ee b1 6a b6 73 b5 34 b8 1a 36
       0.3406 -0.3152 0.582 -0.1853 -0.401 -0.3406 -0.5254 0.3813
0000e0 15 38 aa b5 e7 b4 55 b8 1e 31 c7 b0 7d 39 d3 b8
       0.5103 -0.354 -0.3064 -0.5415 0.1599 -0.1493 0.686 -0.603
0000f0 7d b9 92 30 cb b3 90 38 80 b2 a9 2c a6 b4 48 ba
       -0.686 0.1428 -0.2435 0.5703 -0.2031 0.0728 -0.2905 -0.785
000100 e4 39 5a 39 2a 21 4f 36 e6 af 2b 36 bc 30 60 28
       0.7363 0.669 0.010086 0.3943 -0.1234 0.3855 0.148 0.03418
000110 7b af ed 36 72 3b 3a b0 f2 35 e6 9f a6 39 e2 b9
       -0.1169 0.4329 0.9307 -0.1321 0.3716 -0.007713 0.706 -0.7354
000120 43 b7 e2 37 b8 a3 bb b3 dc b6 f3 36 e4 ae 96 31
       -0.4539 0.4927 -0.015076 -0.2416 -0.4287 0.4343 -0.10767 0.1746
000130 81 b0 87 b6 8d b6 71 39 d4 30 d5 b2 a7 34 d5 35
       -0.1407 -0.408 -0.4094 0.68 0.1509 -0.2135 0.2908 0.3645
000140 43 af 18 2d e2 b7 59 b1 97 ab 35 b6 fa b2 19 a9
       -0.11346 0.0796 -0.4927 -0.1671 -0.0593 -0.388 -0.218 -0.03983
000150 73 ae f4 b6 81 ac ca a6 76 b5 97 37 7d b5 66 37
       -0.10077 -0.4346 -0.0704 -0.02652 -0.3413 0.4744 -0.343 0.4624
000160 15 b4 56 b6 94 36 71 b4 4f b3 58 29 33 32 00 b7
       -0.2551 -0.396 0.4111 -0.2776 -0.2284 0.04175 0.1937 -0.4375
000170 6b b4 e8 b5 24 38 3e b8 69 af 03 b2 4d b7 3c ae
       -0.2761 -0.3691 0.5176 -0.5303 -0.1158 -0.1879 -0.4563 -0.0974
000180 68 b2 48 b4 c4 32 79 37 93 b3 dd ac c1 b6 00 b8
       -0.2002 -0.2676 0.2114 0.467 -0.2367 -0.076 -0.422 -0.5
000190 60 b7 57 35 0a 38 1b af 10 b4 ea b6 e3 36 0f 37
       -0.461 0.3337 0.505 -0.111 -0.254 -0.4321 0.4304 0.4412
0001a0 af b9 6a a8 01 ad 4a bb 67 b5 fb b9 dd 36 86 35
       -0.7104 -0.0345 -0.0782 -0.911 -0.3376 -0.7476 0.429 0.3452
0001b0 7f ba bc 38 f3 19 31 ba d4 38 74 29 e5 a9 de 34
       -0.812 0.592 0.002905 -0.774 0.6035 0.0426 -0.04605 0.3042
0001c0 c8 2b 1d b8 1b b9 ea 32 68 b6 44 2a 13 39 29 27
       0.0608 -0.514 -0.638 0.2161 -0.4004 0.04895 0.6343 0.02797
0001d0 1b 38 12 36 b2 2a 35 35 24 b3 80 31 e2 37 4f 2d
       0.513 0.3794 0.0523 0.3254 -0.2231 0.1719 0.4927 0.08295
0001e0 31 35 16 b5 bd b3 d9 2d 92 2f 59 2d 8d b0 a6 a3
       0.3245 -0.3179 -0.2418 0.0914 0.1183 0.08356 -0.1422 -0.01494
0001f0 e1 b5 21 b8 77 31 dc 33 85 b3 59 b7 21 38 f6 b5
       -0.3674 -0.516 0.1708 0.2456 -0.235 -0.4592 0.516 -0.3726

arith.constant11 f2 [1, 3, 3, 32]
000000 4e b3 e0 ba e3 ae e4 b4 61 3d c7 b9 8e 35 7e bb
       -0.2283 -0.8594 -0.1076 -0.3057 1.345 -0.722 0.3472 -0.9365
000010 16 b7 9a 34 bd 36 d8 bb 97 39 26 36 e2 bd 61 b4
       -0.4429 0.2876 0.4211 -0.9805 0.6987 0.3843 -1.471 -0.2737
000020 15 b7 08 3c bb 3a d7 39 ee ba 2c 3b b5 b5 ef 38
       -0.4426 1.008 0.8413 0.73 -0.866 0.8965 -0.3567 0.6167
000030 42 bd a4 bb 07 b4 01 34 93 b5 63 b7 3b 3b 32 b9
       -1.314 -0.955 -0.2517 0.2502 -0.3484 -0.4617 0.904 -0.6494
000040 c8 3b 48 3c b1 be 32 b8 c7 3b b0 3b 6c 36 aa 38
       0.9727 1.07 -1.673 -0.5244 0.972 0.961 0.4014 0.583
000050 ca b8 bb 3b 8c ba 75 b1 6b bb c2 2a 1e 3a 34 28
       -0.5986 0.9663 -0.8184 -0.1705 -0.9272 0.0528 0.7646 0.03284
000060 35 3a 37 33 e7 2a 80 2f 00 3a 4c 3a be b0 98 39
       0.776 0.2255 0.05392 0.1172 0.75 0.787 -0.1482 0.699
000070 58 b0 16 3a ab b8 33 b4 fe 34 33 2d ca b9 75 b9
       -0.1357 0.7607 -0.5835 -0.2625 0.312 0.08124 -0.7236 -0.682
000080 1f b8 f4 b9 6b bc c8 b4 44 b8 26 b9 eb bc 1e bc
       -0.515 -0.744 -1.1045 -0.2988 -0.533 -0.6436 -1.2295 -1.029
000090 5d b5 64 3c a0 3a 24 3b e9 3b 80 38 9e bc 20 36
       -0.3352 1.098 0.828 0.8926 0.989 0.5625 -1.154 0.3828
0000a0 30 3c 82 bd ca bb 93 bf 2d 3e 94 b8 20 3b 03 b8
       1.047 -1.377 -0.9736 -1.894 1.544 -0.5723 0.8906 -0.5015
0000b0 ca b7 30 b9 69 b8 0c 3c 7f 38 69 38 fb ba 99 39
       -0.4868 -0.6484 -0.5513 1.012 0.562 0.5513 -0.8726 0.6997
0000c0 69 3a ae 38 27 3d b3 3c 52 b4 f5 ba 78 3a bf 34
       0.8013 0.585 1.288 1.175 -0.27 -0.8696 0.8086 0.2966
0000d0 4f b8 38 3c 93 ba 96 ba 10 bd ed 36 38 b0 65 bd
       -0.5386 1.055 -0.822 -0.823 -1.266 0.4329 -0.1318 -1.349
0000e0 63 be 8a 3c 53 ba 99 38 dc 3c cf 39 24 bc 9b bb
       -1.597 1.135 -0.7905 0.5747 1.215 0.726 -1.035 -0.9507
0000f0 33 38 6d 35 a8 b4 27 bc cd 38 bc 3c 8b b3 46 b8
       0.525 0.339 -0.291 -1.038 0.6 1.184 -0.2357 -0.534
000100 85 3a c4 3c 1d 3c 67 b5 23 b6 44 b4 92 36 fa 38
       0.815 1.191 1.028 -0.3376 -0.3835 -0.2666 0.4106 0.622
000110 85 35 51 bc 6b 35 a8 b0 c2 ac 11 b2 a2 3e fe 3e
       0.345 -1.079 0.3386 -0.1455 -0.07434 -0.1896 1.658 1.748
000120 ad 3b b5 b8 9f 3b bd 2c 6c b7 f3 b5 0a ba 9c b9
       0.9595 -0.5884 0.9526 0.07404 -0.4639 -0.3718 -0.755 -0.701
000130 3d b5 16 3c c7 39 1b b6 be 39 60 3a 07 ba e0 19
       -0.3274 1.021 0.722 -0.3816 0.718 0.797 -0.7534 0.002869
000140 e1 bf 21 b6 f9 36 ba b9 b0 bc f6 2c 63 3c 56 35
       -1.97 -0.383 0.4358 -0.716 -1.172 0.0775 1.097 0.3335
000150 f7 b6 b6 b9 17 b7 60 3a 45 3a e6 31 9a b7 51 c0
       -0.4353 -0.714 -0.443 0.797 0.7837 0.1843 -0.475 -2.158
000160 dd b8 c8 bd 2a bc 01 39 22 c0 07 b8 42 bb b4 2d
       -0.608 -1.445 -1.041 0.6255 -2.066 -0.5034 -0.907 0.0891
000170 c9 ba 1d ad 4c 35 ec ae 17 29 64 b8 02 35 e6 36
       -0.848 -0.0799 0.331 -0.10815 0.03976 -0.549 0.313 0.4312
000180 55 bb 6f 30 db 3a 5f 30 ab b8 a6 ba f5 3c 42 3c
       -0.9165 0.1385 0.857 0.1366 -0.5835 -0.831 1.239 1.064
000190 e9 39 db b5 6c b8 70 2c 5b bd fc 33 6a 3a 64 b0
       0.739 -0.366 -0.5527 0.06934 -1.339 0.2495 0.802 -0.1372
0001a0 6d 38 2e bd 7a 30 9c 3c bb 3d 61 38 7d b7 3e ba
       0.553 -1.295 0.1399 1.152 1.433 0.5474 -0.468 -0.7803
0001b0 fb 3a 10 bd ed b9 3f b3 68 b9 54 22 be 3a f2 38
       0.8726 -1.266 -0.7407 -0.2264 -0.676 0.01236 0.843 0.618
0001c0 a1 3d 03 34 1b bc 0a 3c 14 31 0a ae 79 bd 76 3c
       1.407 0.2507 -1.026 1.01 0.1587 -0.09436 -1.368 1.115
0001d0 23 37 53 34 66 b9 1f b8 1a 3c 09 b5 5b 2c 3b 3c
       0.446 0.2703 -0.675 -0.515 1.025 -0.3147 0.06805 1.058
0001e0 50 bc a2 3b 03 b8 84 b8 df 36 50 38 9c 30 84 3a
       -1.078 0.954 -0.5015 -0.5645 0.4294 0.539 0.144 0.8145
0001f0 7b 3b 8b ba 96 b5 0e bc 61 39 fa 3a c0 bb 49 b9
       0.935 -0.818 -0.349 -1.014 0.6724 0.872 -0.9688 -0.6606

arith.constant12 f2 [32, 1, 1, 32]
000000 c7 b5 66 36 3e ab 14 30 14 b4 9b b6 53 b5 75 b0
       -0.361 0.4 -0.05658 0.1274 -0.255 -0.4128 -0.3328 -0.1393
000010 44 b0 d2 ab d8 33 df b4 d7 b5 6c b1 6d 2d a7 35
       -0.1333 -0.0611 0.2451 -0.3044 -0.365 -0.1694 0.0848 0.3533
000020 f1 37 70 32 f9 aa b6 b5 a0 35 1b b1 f7 2b 71 b4
       0.4963 0.2012 -0.05447 -0.357 0.3516 -0.1595 0.06223 -0.2776
000030 04 9e 60 b0 8b 28 d3 a5 b3 36 f1 2f 32 33 3f aa
       -0.005875 -0.1367 0.0355 -0.02275 0.4187 0.1241 0.2249 -0.0488
000040 cb 34 6e a9 5d 2c c7 b3 33 a1 9c 24 4d 27 12 2b
       0.2996 -0.04242 0.0682 -0.243 -0.010155 0.018 0.02852 0.05524
000050 9d ac 80 2e 8b b3 20 2c 9a 30 d6 b0 5b 31 4c 30
       -0.0721 0.10156 -0.2357 0.06445 0.1438 -0.1511 0.1674 0.1343
000060 9e 2f 44 24 1b 2c 5a 32 50 af 21 36 ee 31 1f a7
       0.119 0.01666 0.06415 0.1985 -0.11426 0.383 0.1853 -0.02782
000070 68 ae 24 2a 1e b1 89 35 d2 b4 d7 2a 06 35 1f 31
       -0.1001 0.04797 -0.1599 0.346 -0.3013 0.05344 0.314 0.16
000080 9c ae 05 b5 9d 35 7c b2 3e 26 af a6 07 b4 34 34
       -0.1033 -0.3137 0.3508 -0.2026 0.02438 -0.02611 -0.2517 0.2627
000090 cc b4 6a 35 a4 b3 b1 36 99 b3 13 2d 93 b5 11 35
       -0.2998 0.3384 -0.2388 0.4182 -0.2374 0.0793 -0.3484 0.3167
0000a0 d4 b0 b5 ae 62 ae 67 b4 da b4 16 b5 42 b6 18 35
       -0.1509 -0.1048 -0.09973 -0.2751 -0.3032 -0.3179 -0.391 0.3184
0000b0 03 37 c1 2f 81 b0 5e 32 12 b4 fc b3 aa b4 3d af
       0.4382 0.12115 -0.1407 0.199 -0.2544 -0.2495 -0.2915 -0.1131
0000c0 18 2f fd 2d 55 34 59 33 e9 b2 ae 26 f1 ad 4c 35
       0.11084 0.09357 0.2708 0.2296 -0.216 0.0261 -0.09283 0.331
0000d0 3b a9 ba 9c 57 2c 81 29 d4 30 84 a7 27 b4 92 ad
       -0.04086 -0.004616 0.0678 0.043 0.1509 -0.02936 -0.2595 -0.08704
0000e0 18 a1 69 34 73 b4 3c 35 eb b4 4b 30 ad ac cc b4
       -0.00995 0.2756 -0.278 0.3271 -0.3074 0.1342 -0.07306 -0.2998
0000f0 c8 30 fc ac ed ab c8 b4 0a 35 07 31 a1 2e 46 b1
       0.1494 -0.0779 -0.06192 -0.2988 0.315 0.1571 0.1036 -0.1648
000100 da b3 1a b5 21 36 6b b3 c6 b3 15 28 e1 b4 0e b7
       -0.2454 -0.3188 0.383 -0.2318 -0.2429 0.0319 -0.305 -0.441
000110 83 33 71 30 8f a3 e2 35 3f 34 82 32 a5 35 aa 35
       0.2347 0.1388 -0.01476 0.3677 0.2654 0.2034 0.3528 0.354
000120 86 35 2a 31 ad 28 2e 39 3c 32 be 36 4a 32 58 b0
       0.3452 0.1614 0.03653 0.6475 0.1948 0.4214 0.1965 -0.1357
000130 41 a3 39 36 e4 2e 05 b4 09 ab da af 5f ae 73 32
       -0.01417 0.389 0.10767 -0.2512 -0.05496 -0.1227 -0.09955 0.2015
000140 a9 ad 4c 35 75 b0 2a b4 b9 b0 4a b6 4c ad 9b 37
       -0.08844 0.331 -0.1393 -0.2603 -0.1476 -0.393 -0.08276 0.4753
000150 09 36 8c b2 c9 33 39 2f 51 b4 42 35 77 99 fe 25
       0.3772 -0.2046 0.2433 0.11285 -0.2698 0.3286 -0.002668 0.0234
000160 97 33 a2 b4 04 b5 88 36 b6 b3 93 a8 7a 2c b2 b4
       0.2372 -0.2896 -0.3135 0.4082 -0.241 -0.03574 0.06995 -0.2935
000170 96 a8 48 b3 60 21 a9 b6 b2 ac 22 b5 bc af 56 33
       -0.03583 -0.2275 0.0105 -0.4163 -0.07336 -0.3208 -0.12085 0.2292
000180 3b ad 0e b7 ea b7 27 b6 ae 31 0e 30 77 aa 82 b1
       -0.0817 -0.441 -0.4946 -0.3845 0.1775 0.1267 -0.0505 -0.1721
000190 8a 35 11 b8 64 aa 8b 32 ec af 16 34 3f b0 33 34
       0.3462 -0.5083 -0.04993 0.2045 -0.1238 0.2554 -0.1327 0.2625
0001a0 30 b1 96 a8 62 b3 d6 a8 17 2f b3 37 ac b5 7e 30
       -0.1621 -0.03583 -0.2307 -0.03778 0.1108 0.4812 -0.3545 0.1404
0001b0 a4 33 8e b3 79 30 94 b4 cf 34 bf b5 8f 34 be 33
       0.2388 -0.2361 0.1398 -0.2861 0.3005 -0.3591 0.285 0.242
0001c0 6c 24 39 b4 1c b3 9c 22 95 38 1a b8 8a ac 00 29
       0.01727 -0.264 -0.2222 0.01291 0.5728 -0.5127 -0.0709 0.03906
0001d0 34 17 07 b5 19 b4 1c 30 26 b2 03 ad dc b7 7d 31
       0.001759 -0.3142 -0.256 0.1284 -0.1921 -0.0783 -0.4912 0.1715
0001e0 09 34 a1 af 89 ad 08 a0 a5 37 fc 33 1a 32 8a 31
       0.2522 -0.1192 -0.0865 -0.00787 0.4778 0.2495 0.1907 0.1731
0001f0 d7 35 3f b1 8d b5 1c 31 a8 34 7c b5 28 2c 71 31
       0.365 -0.164 -0.347 0.1597 0.291 -0.3428 0.06494 0.17

arith.constant13 f2 [1, 3, 3, 32]
000000 b5 bb d1 ae 58 31 17 3b 65 34 68 b7 df b7 a1 38
       -0.9634 -0.1065 0.167 0.886 0.2747 -0.463 -0.492 0.5786
000010 79 3c 41 3c ed b2 02 ba df 38 b3 b3 89 b3 da b8
       1.118 1.063 -0.2164 -0.751 0.609 -0.2406 -0.2355 -0.6064
000020 10 a7 13 2d a3 b8 91 b6 ff b4 4c bb 60 3a 51 bc
       -0.02759 0.0793 -0.5796 -0.4104 -0.3123 -0.912 0.797 -1.079
000030 e9 37 68 ba 38 b4 6c 30 29 b5 42 a4 be 3b df 36
       0.4944 -0.801 -0.2637 0.1382 -0.3225 -0.01663 0.968 0.4294
000040 28 33 fe ac 23 34 25 3a 28 ba c2 b9 61 bd db a7
       0.2236 -0.078 0.2585 0.768 -0.7695 -0.7197 -1.345 -0.03069
000050 24 39 07 bd 1f b2 b6 b6 98 3c 3f 3c 65 3e 21 bb
       0.6426 -1.257 -0.1913 -0.4194 1.148 1.062 1.599 -0.891
000060 34 b2 68 b9 5c b8 67 b7 12 b3 4e b8 fd 30 c7 25
       -0.1938 -0.676 -0.545 -0.4626 -0.221 -0.538 0.1559 0.02257
000070 4c b9 48 b6 2c 3b e4 a4 ab b4 35 ba 1d ba b1 38
       -0.662 -0.3926 0.8965 -0.0191 -0.2917 -0.776 -0.764 0.5864
000080 a8 b8 55 3a be b9 21 bc fc 34 93 39 e4 b6 c0 b9
       -0.582 0.7915 -0.718 -1.032 0.3115 0.697 -0.4307 -0.7188
000090 7a 3c af 36 8f b6 b2 b7 22 38 fb 39 41 3b 91 ba
       1.119 0.4177 -0.41 -0.481 0.5166 0.7476 0.9067 -0.821
0000a0 fc 28 53 38 b6 b2 f2 b6 ea 98 1b 3a e5 35 9a 32
       0.03894 0.5405 -0.2097 -0.434 -0.0024 0.763 0.3684 0.2063
0000b0 68 b0 33 b4 f4 bb b9 b1 16 b6 43 37 35 bc 23 38
       -0.1377 -0.2625 -0.994 -0.1788 -0.3804 0.4539 -1.052 0.517
0000c0 bc b2 0b 3a 48 b8 2f b6 10 ba 1a 39 29 3d 9f 38
       -0.2104 0.7554 -0.535 -0.3865 -0.758 0.6377 1.29 0.5776
0000d0 01 38 58 3a a2 b0 02 b4 4b bc d5 b3 1c 3a b3 a8
       0.5005 0.793 -0.1448 -0.2505 -1.073 -0.2448 0.7637 -0.0367
0000e0 e4 3a 0b 38 34 30 25 30 67 36 4e b9 0d 39 41 3b
       0.8613 0.5054 0.1313 0.1295 0.4001 -0.663 0.6313 0.9067
0000f0 87 39 f5 28 07 bd db 35 71 b8 26 bb ac b9 7f ba
       0.691 0.03873 -1.257 0.366 -0.555 -0.8936 -0.709 -0.812
000100 7e 3b 21 36 c6 bb d8 b9 2c 2e 61 b7 ee 3a 6f 39
       0.9365 0.383 -0.9717 -0.7305 0.09644 -0.4612 0.866 0.679
000110 39 b8 19 bc 0f b7 95 39 44 b1 df b9 33 39 d8 aa
       -0.528 -1.024 -0.4412 0.6978 -0.1646 -0.734 0.65 -0.05347
000120 79 b5 d1 bb 5f b3 c4 b9 a3 bb 4e bb 56 bc b4 b3
       -0.342 -0.977 -0.2303 -0.7207 -0.9546 -0.913 -1.084 -0.2407
000130 17 2c ae b3 5e 3e 45 37 40 b2 2e 39 e7 39 27 35
       0.0639 -0.24 1.592 0.4543 -0.1953 0.6475 0.738 0.322
000140 f2 30 a0 36 83 ad d4 3d ce 2b 7d ba 0a bc a7 39
       0.1545 0.414 -0.0861 1.457 0.06097 -0.811 -1.01 0.7065
000150 a5 37 b0 a7 01 b4 ca b7 6f 3d a8 b8 27 b5 5c b9
       0.4778 -0.03003 -0.2502 -0.4868 1.358 -0.582 -0.322 -0.67
000160 2f 3b 48 b1 b0 b2 81 a9 8b b9 24 bd 0c 38 fa 2a
       0.898 -0.165 -0.209 -0.043 -0.693 -1.285 0.506 0.0545
000170 36 ba 53 b9 54 bf b7 36 12 ac 8a b9 96 a9 ec 2c
       -0.7764 -0.6655 -1.832 0.4197 -0.0636 -0.6924 -0.04364 0.0769
000180 5d 3a cd 31 a9 af 35 33 d1 b5 91 38 a8 39 98 b4
       0.7954 0.1813 -0.1197 0.2252 -0.3635 0.571 0.707 -0.287
000190 76 b9 27 bb 59 b7 19 38 6f 37 0b 3a 07 be 72 36
       -0.6826 -0.894 -0.4592 0.512 0.4646 0.7554 -1.507 0.4028
0001a0 89 3a 2d 38 23 b5 ef b9 e7 ae 08 3e 6b 3a ef 3b
       0.817 0.522 -0.321 -0.7417 -0.10785 1.508 0.8022 0.9917
0001b0 bd 2d b4 38 30 40 b6 35 1f 2a 11 33 36 b7 19 3c
       0.08966 0.588 2.094 0.357 0.04782 0.2208 -0.4507 1.024
0001c0 0d 37 e9 ba 62 ba 5b ba be b5 44 30 a2 b4 51 39
       0.4407 -0.864 -0.798 -0.7944 -0.359 0.1333 -0.2896 0.6646
0001d0 db aa 94 b3 57 b5 2b 37 30 b3 db 38 e5 a8 b2 b9
       -0.05356 -0.2368 -0.3337 0.448 -0.2246 0.607 -0.03824 -0.712
0001e0 4b 32 d8 3b c0 b6 d5 b4 78 b8 bf 31 b1 3b 5a 34
       0.1967 0.9805 -0.4219 -0.302 -0.5586 0.1796 0.9614 0.272
0001f0 7c bc c4 36 49 36 04 38 c1 b1 6e ba 89 3d 20 b4
       -1.121 0.4229 0.3928 0.502 -0.1798 -0.8037 1.384 -0.2578

arith.constant14 f2 [32, 1, 1, 32]
000000 9f ab 75 b0 46 b1 ca ac 0b 32 12 31 79 34 e1 b2
       -0.05954 -0.1393 -0.1648 -0.0748 0.1888 0.1584 0.2795 -0.215
000010 0f 34 ca b0 6a a9 89 30 4f a8 f8 30 45 30 53 27
       0.2537 -0.1497 -0.0423 0.1417 -0.03366 0.1553 0.1334 0.02861
000020 25 b3 4e b0 e7 28 62 2d 9c ab 6d b2 8a 2f c6 35
       -0.2233 -0.1345 0.0383 0.0841 -0.05945 -0.2008 0.1178 0.3608
000030 83 a7 49 30 0a b0 06 b4 2b 30 c2 10 23 ae 74 28
       -0.02934 0.1339 -0.1262 -0.2515 0.1302 0.000581 -0.0959 0.0348
000040 21 34 59 34 9b 34 a0 b4 89 2b 14 b3 5c 2b 4e aa
       0.258 0.2717 0.2878 -0.289 0.05887 -0.2212 0.0575 -0.04926
000050 04 b0 2c 2e 99 ac 65 b3 7a 21 e2 b1 d3 b4 88 30
       -0.1255 0.09644 -0.07184 -0.2311 0.0107 -0.1838 -0.3015 0.1416
000060 1e 2e 09 2c 0b ab 99 a5 48 ad 4b b0 af 32 7e 2d
       0.0956 0.06305 -0.05502 -0.02187 -0.0825 -0.1342 0.2089 0.0858
000070 5c 34 af 31 92 24 b7 34 b0 2b a9 a4 d9 af dd 31
       0.2725 0.1776 0.01785 0.2947 0.06006 -0.0182 -0.1226 0.1832
000080 c9 b0 52 35 72 32 cf b0 ad af 12 ac 61 ad 7c 31
       -0.1495 0.3325 0.2014 -0.1503 -0.11993 -0.0636 -0.08405 0.1714
000090 37 36 63 29 29 31 cc a9 71 25 94 30 26 30 7b 35
       0.3884 0.04208 0.1613 -0.0453 0.02126 0.1431 0.1296 0.3425
0000a0 7a 34 65 2a 50 b2 60 32 be 2f 32 30 48 b0 4c 2c
       0.2798 0.04996 -0.1973 0.1992 0.121 0.1311 -0.1338 0.06714
0000b0 ad aa c3 b1 9b a9 e1 b1 ad 2b 93 28 5a a1 13 1f
       -0.05215 -0.18 -0.0438 -0.1837 0.05997 0.03574 -0.01045 0.00691
0000c0 20 af 30 2f 72 2e 44 26 b7 30 f6 32 8a b1 ff 35
       -0.1113 0.1123 0.1007 0.02448 0.1473 0.2175 -0.1731 0.3748
0000d0 6e 32 3a 33 29 b2 6b 34 91 ad 62 34 6c 32 47 9d
       0.2009 0.2258 -0.1925 0.2761 -0.087 0.274 0.2007 -0.005154
0000e0 de b0 0f b0 cd ac ed b2 20 b3 01 b4 9f 30 9d 34
       -0.1521 -0.1268 -0.075 -0.2164 -0.2227 -0.2502 0.1444 0.2883
0000f0 26 33 04 a2 8a 2f f9 ac 11 32 97 34 a6 28 8e 27
       0.2234 -0.01175 0.1178 -0.0777 0.1896 0.2869 0.03632 0.02951
000100 6f ac 74 29 88 29 f4 a8 3e b3 90 b6 82 34 10 32
       -0.0693 0.0426 0.0432 -0.0387 -0.2263 -0.4102 0.2817 0.1895
000110 de b2 f2 b4 25 ae 29 ad 3d 35 4a 37 f5 b2 60 b2
       -0.2146 -0.309 -0.096 -0.0806 0.3274 0.4556 -0.2174 -0.1992
000120 26 2c ee aa 09 b2 74 ae 30 ac 15 34 bf b3 6f b0
       0.0648 -0.05414 -0.1886 -0.1008 -0.0654 0.2551 -0.2421 -0.1385
000130 d3 2c 4a a4 47 9e e9 2e bc b2 4f b2 27 2d 67 31
       0.0754 -0.01675 -0.00613 0.108 -0.2104 -0.1971 0.0805 0.1688
000140 0e ac a8 b6 ae b1 77 a9 b7 31 2a b3 5a b4 68 33
       -0.06335 -0.416 -0.1775 -0.0427 0.1786 -0.2239 -0.272 0.2314
000150 02 20 d6 b2 5d b4 54 b6 4b 34 2c 35 ca 34 b2 aa
       0.00783 -0.2136 -0.2727 -0.3955 0.2683 0.3232 0.2993 -0.0523
000160 25 ad e5 ae 41 32 49 16 f6 a6 f8 ad 9a 2c e1 b0
       -0.0804 -0.1077 0.1954 0.001534 -0.02719 -0.09326 0.0719 -0.1525
000170 00 b4 48 27 dd b3 f5 34 c1 af 48 b2 51 b3 14 20
       -0.25 0.02844 -0.2457 0.3098 -0.12115 -0.1963 -0.2286 0.007965
000180 11 b1 f8 31 30 33 9b 34 ee 35 18 ae 05 2b a5 ae
       -0.1583 0.1865 0.2246 0.2878 0.3706 -0.0952 0.05484 -0.1038
000190 d2 32 a7 b4 9a b2 b3 b5 65 32 08 b3 a2 ac 33 aa
       0.2131 -0.2908 -0.2063 -0.3562 0.1998 -0.2197 -0.0724 -0.04843
0001a0 45 26 4d b5 61 38 c6 b0 7b 32 7e b2 03 a2 89 29
       0.02449 -0.3313 0.5474 -0.1492 0.2025 -0.2029 -0.01174 0.04324
0001b0 2f 2c 15 35 fb 2c d2 b5 34 b4 bf b2 92 2d 99 2b
       0.06537 0.3176 0.0778 -0.3638 -0.2627 -0.2108 0.08704 0.05936
0001c0 6e b6 21 b5 c6 ad 7a b3 26 35 c1 ae 03 ad f1 2f
       -0.4019 -0.3206 -0.0902 -0.2336 0.3218 -0.1055 -0.0783 0.1241
0001d0 94 31 20 a7 5b 30 ea 35 91 36 0e a0 90 b6 2c 31
       0.1743 -0.02783 0.1361 0.3696 0.4104 -0.00792 -0.4102 0.1616
0001e0 7c 32 95 2c fb 2f 38 27 85 32 ae 25 23 30 be 32
       0.2026 0.0716 0.1247 0.0282 0.2037 0.02219 0.1293 0.2107
0001f0 38 ac bf af 52 b2 6f 2d 3c 2a 16 a4 3a 2e 11 ab
       -0.0659 -0.12103 -0.1975 0.0849 0.0487 -0.01596 0.0973 -0.0552

arith.constant15 f2 [1, 3, 3, 32]
000000 9f 36 ba 2f 2d 3a ba 34 9e 2e 3f 36 4e b3 87 38
       0.4138 0.1207 0.772 0.2954 0.1034 0.3904 -0.2283 0.566
000010 5f 3a 94 2c 0c 39 c3 31 3a b4 27 a0 5f 30 d7 35
       0.7964 0.07153 0.631 0.18 -0.2642 -0.00811 0.1366 0.365
000020 d4 3d e3 b5 42 b8 09 3c e3 38 19 ae 52 bc a2 b5
       1.457 -0.368 -0.532 1.009 0.611 -0.0953 -1.08 -0.352
000030 e2 ba ba 3b 4d b6 44 34 05 bc 48 27 5d ba 34 b9
       -0.8604 0.966 -0.3938 0.2666 -1.005 0.02844 -0.7954 -0.6504
000040 5f 3a 13 3a 64 3c ef bd 18 b8 85 37 6b b2 c4 3b
       0.7964 0.7593 1.098 -1.483 -0.5117 0.47 -0.2006 0.9707
000050 84 3b 38 b8 25 bc 71 36 49 b9 e9 a0 08 39 cc 39
       0.9395 -0.5273 -1.036 0.4026 -0.6606 -0.00959 0.629 0.7246
000060 e9 34 e0 ba b4 b1 de 38 f0 b8 05 36 83 28 3e b9
       0.307 -0.8594 -0.1782 0.6084 -0.617 0.3762 0.03525 -0.6553
000070 df b8 3c ac 1f 39 98 33 09 3a dd 3c 3f b6 d8 bc
       -0.609 -0.06616 0.64 0.2373 0.7544 1.216 -0.3904 -1.211
000080 0a 39 ce 3b 73 35 a2 35 45 b5 36 37 d0 b4 18 31
       0.63 0.9756 0.3406 0.352 -0.3293 0.4507 -0.3008 0.1592
000090 b2 36 43 af e8 2a 91 37 0c 39 3e b5 3c bb 74 b9
       0.4185 -0.11346 0.05396 0.473 0.631 -0.3276 -0.9043 -0.6816
0000a0 c2 bb a4 b5 e4 b8 cb bc ac 34 53 bb 32 38 a0 34
       -0.9697 -0.3525 -0.6113 -1.198 0.292 -0.9155 0.5244 0.289
0000b0 e6 b5 46 2a f3 ba f9 36 f1 bc 2a 32 6c 3c f1 b8
       -0.3687 0.049 -0.8687 0.4358 -1.235 0.1926 1.105 -0.6177
0000c0 ae b7 1a b9 1d 35 5e 3d 06 b7 c8 1d 1c b6 66 b9
       -0.48 -0.6377 0.3196 1.342 -0.439 0.005646 -0.3818 -0.675
0000d0 8c 39 12 2b e0 a4 56 36 47 b0 e6 b8 c8 3b be 38
       0.6934 0.05524 -0.01904 0.396 -0.1337 -0.6123 0.9727 0.593
0000e0 a0 bd 52 36 d7 38 94 37 96 b7 50 2b 91 b7 61 38
       -1.406 0.395 0.605 0.4736 -0.474 0.05713 -0.473 0.5474
0000f0 78 39 b8 30 53 b8 97 ba a4 b4 fa 36 c2 b0 42 b8
       0.6836 0.1475 -0.5405 -0.8237 -0.29 0.436 -0.1487 -0.532
000100 11 35 af bb 89 b4 75 3c 60 b8 f9 b3 03 b9 03 b8
       0.3167 -0.9604 -0.2834 1.114 -0.547 -0.2491 -0.6265 -0.5015
000110 fa 2d 21 b4 ac 34 f5 ac 85 b9 64 2f 4c b9 b9 39
       0.0934 -0.258 0.292 -0.07745 -0.69 0.1155 -0.662 0.7153
000120 dd 38 17 b1 0f b6 c3 3c 58 32 be 34 4a 29 d4 bb
       0.608 -0.159 -0.3787 1.19 0.1982 0.2964 0.04132 -0.9785
000130 08 b4 d0 35 2a 35 3c 34 b2 39 7f 35 bf bb a0 38
       -0.252 0.3633 0.3228 0.2646 0.712 0.3435 -0.9683 0.578
000140 e3 3c 73 b3 08 b8 27 b8 0b b3 3f 31 70 b7 38 b6
       1.222 -0.2328 -0.504 -0.519 -0.2201 0.164 -0.4648 -0.3887
000150 71 ae 53 b7 2f bd 3a b5 4e 34 53 b8 20 bd 59 ad
       -0.10065 -0.4578 -1.296 -0.3267 0.269 -0.5405 -1.281 -0.08356
000160 2f 31 b0 b9 ee 30 17 aa f0 39 51 ba 83 3a ff 21
       0.162 -0.711 0.154 -0.04758 0.742 -0.7896 0.814 0.01171
000170 b2 36 1d 31 d0 35 88 3a 64 3b ae 3a 77 b2 a7 36
       0.4185 0.1598 0.3633 0.8164 0.924 0.835 -0.202 0.4158
000180 72 b9 da 39 11 b0 2f 38 21 b8 c1 34 fb 35 9b 30
       -0.6807 0.7314 -0.1271 0.523 -0.516 0.297 0.3738 0.1439
000190 8b b1 18 b3 d0 b4 03 32 12 b7 8b b5 1a bb 49 39
       -0.1732 -0.2217 -0.3008 0.1879 -0.442 -0.3464 -0.8877 0.6606
0001a0 9c bc 5a 38 8b 38 d0 b3 00 39 91 b8 ce 29 5f 36
       -1.152 0.544 0.568 -0.2441 0.625 -0.571 0.04535 0.3982
0001b0 53 37 31 2f 0e 3b b8 3b 3c 39 46 3c a2 b2 d5 38
       0.4578 0.11237 0.882 0.965 0.6543 1.068 -0.2073 0.604
0001c0 6a bc 21 35 7b bb ff b5 05 ac 0e 37 94 b8 94 3b
       -1.104 0.3206 -0.935 -0.3748 -0.0628 0.441 -0.5723 0.9473
0001d0 55 ac 04 b3 c1 b2 ec 39 99 b5 23 b7 e7 a9 4e b4
       -0.0677 -0.2192 -0.211 0.74 -0.3499 -0.446 -0.0461 -0.269
0001e0 1c 36 21 3b 5c b9 97 b8 81 39 14 3c 2f b2 16 bb
       0.3818 0.891 -0.67 -0.5737 0.688 1.02 -0.1932 -0.8857
0001f0 0b 3a 0b 3c d2 ba 2d 25 56 ac 5e bc 41 b9 df b3
       0.7554 1.011 -0.8525 0.02022 -0.06775 -1.092 -0.6567 -0.246

arith.constant16 f2 [64, 1, 1, 32]
000000 bb b4 4c 34 0f 35 aa ae ff 2b 64 2b f8 2a 40 b0
       -0.2957 0.2686 0.3162 -0.1041 0.06247 0.05774 0.05444 -0.1328
000010 21 27 35 25 55 2c 3f b4 e9 29 73 10 4d 34 70 b3
       0.02785 0.02034 0.0677 -0.2654 0.04617 0.000543 0.2688 -0.2324
000020 f5 a6 6f ad e7 a8 8e b0 69 b3 ed b0 c2 af d4 31
       -0.02718 -0.0849 -0.0383 -0.1423 -0.2316 -0.1539 -0.1212 0.1821
000030 43 b0 07 b4 44 2d 41 2d e1 b1 97 b0 36 b4 6f b4
       -0.1332 -0.2517 0.0823 0.0821 -0.1837 -0.1434 -0.2632 -0.277
000040 51 35 1e b2 c2 ad 0e 28 31 ad 1b ae 5c 32 11 1d
       0.3323 -0.1912 -0.08997 0.03168 -0.0811 -0.0954 0.1987 0.004948
000050 97 2c 27 b6 0a 2d 72 b7 1f b7 1b af 93 35 98 98
       0.0717 -0.3845 0.07874 -0.4653 -0.445 -0.111 0.3484 -0.002243
000060 64 24 b1 ab f3 ab cf 31 36 2c 86 37 3f 35 41 aa
       0.01715 -0.0601 -0.0621 0.1815 0.0658 0.4702 0.328 -0.04886
000070 a0 a8 21 34 63 2f e4 2d 31 35 10 2b e6 2d 1b b0
       -0.03613 0.258 0.1154 0.09204 0.3245 0.05518 0.09216 -0.1283
000080 42 b3 61 35 eb b1 5c b1 bb b0 51 b1 89 ae c3 32
       -0.2268 0.3362 -0.1849 -0.1675 -0.1478 -0.1661 -0.1021 0.2113
000090 b9 32 3e ae 45 2d d8 ac d1 a9 ea b1 27 b1 60 b0
       0.2101 -0.09753 0.08234 -0.0757 -0.04544 -0.1848 -0.161 -0.1367
0000a0 19 aa 7d 2f d8 ab 58 af f5 34 2e 34 bf 30 c9 a3
       -0.04764 0.117 -0.06128 -0.11475 0.3098 0.2612 0.1483 -0.015205
0000b0 13 31 1c ac 68 31 db 32 d4 32 58 16 eb ae c2 ac
       0.1586 -0.0642 0.169 0.2142 0.2134 0.001549 -0.1081 -0.07434
0000c0 4e ac a1 af ad 30 5b 30 e9 2d e8 30 36 b3 d6 9e
       -0.06726 -0.1192 0.1461 0.1361 0.09235 0.1533 -0.2253 -0.006676
0000d0 da 27 b1 32 db 31 a7 b2 89 b1 48 2c 50 32 04 35
       0.03067 0.2091 0.183 -0.2079 -0.173 0.0669 0.1973 0.3135
0000e0 5f ab b9 31 39 b4 f8 b5 1d 31 b6 a9 9b 25 9e 2b
       -0.0576 0.1788 -0.264 -0.373 0.1598 -0.04462 0.0219 0.0595
0000f0 46 b0 90 b1 cc ae ba b5 fd 35 97 36 6d b8 c9 b5
       -0.1335 -0.1738 -0.1062 -0.358 0.3743 0.4119 -0.553 -0.3616
000100 65 33 7c b5 33 b7 0a b5 1f b1 25 a9 06 b3 42 b5
       0.2311 -0.3428 -0.45 -0.315 -0.16 -0.0402 -0.2195 -0.3286
000110 18 ab 36 33 d5 2f cc b5 1a b1 1d b2 b9 b0 e3 ad
       -0.05542 0.2253 0.1224 -0.3623 -0.1594 -0.191 -0.1476 -0.092
000120 35 ad 79 b3 25 ad 68 34 3a 2b af a8 00 34 ba a6
       -0.08136 -0.2335 -0.0804 0.2754 0.05646 -0.0366 0.25 -0.02628
000130 9c 33 1b 2b 26 b3 4e b0 1a 36 6a 1f 7e ae e1 a9
       0.2378 0.0555 -0.2234 -0.1345 0.3813 0.00724 -0.10144 -0.04593
000140 26 36 69 9e f1 30 0b b5 a8 2a 0f 2f 57 2b 9d 1d
       0.3843 -0.00626 0.1544 -0.3152 0.052 0.1103 0.05734 0.00548
000150 e4 ad 44 2c f7 b1 68 32 cb 2c 22 b1 e9 b4 5e 28
       -0.09204 0.06665 -0.1864 0.2002 0.0749 -0.1604 -0.307 0.03412
000160 58 35 f1 34 8f 28 c0 34 43 b5 d8 31 70 37 19 32
       0.334 0.3088 0.0356 0.2969 -0.3289 0.1826 0.4648 0.1906
000170 e3 af b2 31 0b b3 a1 31 24 a2 68 b3 21 af ce aa
       -0.1232 0.178 -0.2201 0.1759 -0.01199 -0.2314 -0.1114 -0.05316
000180 53 b1 ed 33 76 b1 9f 35 39 30 d1 32 22 33 ad 30
       -0.1664 0.2477 -0.1707 0.3513 0.132 0.213 0.2229 0.1461
000190 7a ab c6 b2 ab 2a 5e a9 a0 b3 0c b1 e3 32 36 b4
       -0.0584 -0.2117 0.0521 -0.04193 -0.2383 -0.1577 0.2152 -0.2632
0001a0 84 35 52 b5 41 2f 0f ac 6e 30 8f 30 d3 ad 64 ac
       0.3447 -0.3325 0.11334 -0.0634 0.1384 0.1425 -0.091 -0.0686
0001b0 41 33 4d 33 3b b1 22 35 bf 2c d8 b0 fb 23 32 32
       0.2267 0.2281 -0.1635 0.3208 0.07416 -0.1514 0.01559 0.1936
0001c0 df a9 ad b5 0b b4 21 36 6f 35 8d 36 ef a8 c9 b1
       -0.04587 -0.3547 -0.2527 0.383 0.3396 0.4094 -0.03854 -0.1808
0001d0 ec 2a 51 33 0b b3 11 b4 c8 28 14 b6 31 2d 12 2f
       0.05408 0.2286 -0.2201 -0.2542 0.03735 -0.38 0.0811 0.1105
0001e0 32 b2 f7 a4 ea b3 e3 b0 0c 1d 2c 2d b8 9c 1a 36
       -0.1936 -0.0194 -0.2473 -0.1527 0.00493 0.0808 -0.00461 0.3813
0001f0 cb 31 84 ad 9c 2a 40 b3 1b b5 68 b3 c8 b1 64 31
       0.181 -0.0862 0.05164 -0.2266 -0.319 -0.2314 -0.1807 0.1685

arith.constant17 f2 [1, 3, 3, 64]
000000 63 3b 5e 39 b5 a8 2e b9 85 3a e0 b4 c2 b8 32 3a
       0.9233 0.671 -0.03677 -0.6475 0.815 -0.3047 -0.5947 0.7744
000010 b9 b7 95 bc 30 3b 21 3b 9d 39 fb b8 b9 ba 52 b9
       -0.4827 -1.1455 0.8984 0.891 0.7017 -0.6226 -0.8403 -0.665
000020 b2 ba ef ba 87 3b 55 3c 9b b6 d9 bd ee b8 be b7
       -0.837 -0.8667 0.941 1.083 -0.4128 -1.462 -0.616 -0.484
000030 b7 35 be ae 24 39 11 b1 44 3a 1c b5 43 3b e2 35
       0.3572 -0.10535 0.6426 -0.1583 0.783 -0.3193 0.9077 0.3677
000040 e4 3b c7 37 2d b5 5e 3b 09 bb eb b9 6c 1b 98 3c
       0.9863 0.486 -0.3235 0.921 -0.8794 -0.7397 0.003624 1.148
000050 e1 39 c2 2e 26 bd 98 39 f1 34 b9 b5 30 3a 33 35
       0.735 0.1056 -1.287 0.699 0.3088 -0.3577 0.7734 0.325
000060 7e b3 a6 34 89 36 36 35 57 b6 b0 b9 28 b7 9f 32
       -0.2341 0.2905 0.4084 0.3257 -0.3962 -0.711 -0.4473 0.2069
000070 0d b9 3d 31 1e b8 a8 2d 30 b9 9b b0 4a 1f 49 30
       -0.6313 0.1637 -0.5146 0.0884 -0.6484 -0.1439 0.00712 0.1339
000080 d3 38 0c b4 ea 37 40 b5 03 bb 84 3a 8d b9 96 b1
       0.603 -0.253 0.4946 -0.3281 -0.8765 0.8145 -0.694 -0.1746
000090 51 38 b4 bc cc 3a 10 b3 28 39 99 3a 89 38 e1 36
       0.5396 -1.176 0.8496 -0.2207 0.6445 0.8247 0.567 0.43
0000a0 82 ba 61 ba 20 b6 34 ba 3d 3d ac 3c cf af 95 3a
       -0.8135 -0.7974 -0.3828 -0.7754 1.31 1.168 -0.122 0.8228
0000b0 ef 38 2c b7 e4 3c 64 39 61 b8 cd b8 4e 34 9b 25
       0.6167 -0.4482 1.223 0.674 -0.5474 -0.6 0.269 0.0219
0000c0 a7 b2 be 3a 63 b2 bf 35 b0 38 a6 b6 63 2b e4 37
       -0.2079 0.843 -0.1996 0.3591 0.586 -0.4155 0.0577 0.4932
0000d0 6f ba 10 b6 ea b3 62 3c b7 39 6f 3a d8 b5 76 b8
       -0.804 -0.379 -0.2473 1.096 0.7144 0.804 -0.3652 -0.5576
0000e0 d3 b8 05 31 30 3b 9a b2 d9 b7 73 3a 9c 33 11 ba
       -0.603 0.1569 0.8984 -0.2063 -0.4905 0.806 0.2378 -0.7583
0000f0 6d b3 de 2d e7 2f 92 ba c5 b9 eb 30 06 37 f8 b7
       -0.232 0.0917 0.1235 -0.8213 -0.721 0.1537 0.439 -0.498
000100 1a bf 7e 3a 33 b9 53 b8 01 37 de b4 34 b3 54 b8
       -1.775 0.8115 -0.65 -0.5405 0.4377 -0.3042 -0.2251 -0.541
000110 fd ba 27 3c 9d 37 5b b4 bc 39 4a bb 99 bb 16 bc
       -0.8735 1.038 0.4758 -0.2722 0.717 -0.911 -0.9497 -1.021
000120 a6 37 fc 37 2e 2f 84 b6 0e b8 f9 38 9c b8 75 ba
       0.478 0.499 0.1122 -0.4072 -0.507 0.6216 -0.576 -0.807
000130 c5 a0 2a 3a 02 b9 fe 37 1e b6 fd 36 b4 39 7b 3a
       -0.009315 0.7705 -0.626 0.4995 -0.3823 0.4368 0.713 0.81
000140 5f b4 b9 b3 74 36 d6 25 a3 3e 96 a9 e2 bc 6f 3f
       -0.2732 -0.2413 0.4033 0.0228 1.659 -0.04364 -1.221 1.858
000150 6b 30 dd 2c d9 37 63 a9 a6 35 e4 3a da 30 b2 38
       0.1381 0.076 0.4905 -0.04208 0.353 0.8613 0.1516 0.587
000160 d4 3a 58 3b ba 3b 51 3c ae 2e 83 35 27 32 f4 a8
       0.8535 0.918 0.966 1.079 0.1044 0.3445 0.1923 -0.0387
000170 45 34 21 2a e1 35 30 ba b2 b2 44 11 59 bc 19 bc
       0.2668 0.04788 0.3674 -0.7734 -0.2092 0.000643 -1.087 -1.024
000180 c5 3b b6 b8 a9 b5 5d b6 c0 39 82 3b 73 30 bb b7
       0.971 -0.589 -0.3538 -0.3977 0.7188 0.9385 0.139 -0.4832
000190 1f 39 cf bb 33 38 92 30 e7 33 7b bb ac b4 83 af
       0.64 -0.976 0.525 0.1428 0.247 -0.935 -0.292 -0.1174
0001a0 92 b8 38 b4 78 bb ab 3a 7f bc b7 32 70 3a 7a b1
       -0.5713 -0.2637 -0.9336 0.8335 -1.124 0.2098 0.8047 -0.1711
0001b0 4f 3b 55 3c 77 b3 27 bb 6d 3d 4b bc c3 3a e6 b0
       0.9136 1.083 -0.2333 -0.894 1.356 -1.073 0.845 -0.1531
0001c0 5f 31 f0 b3 ea 3b b2 b9 56 3d 9d 39 66 bb 66 3d
       0.1678 -0.248 0.9893 -0.712 1.334 0.7017 -0.925 1.35
0001d0 c0 36 66 36 ac 3e 09 30 f5 38 8f 39 24 b8 a8 39
       0.4219 0.4 1.668 0.1261 0.6196 0.695 -0.5176 0.707
0001e0 06 b5 ce ac 49 b6 d9 3a 78 b0 16 b7 4f b8 91 b6
       -0.314 -0.0751 -0.3928 0.856 -0.1396 -0.4429 -0.5386 -0.4104
0001f0 ba bb 9e b5 aa af c7 31 40 bc 42 39 5f 3a d6 3b
       -0.966 -0.351 -0.11975 0.1805 -1.0625 0.657 0.7964 0.9795

arith.constant18 f2 [64, 1, 1, 64]
000000 55 2e e2 2f 51 b1 26 af 9a a4 a9 aa 81 30 6a a5
       0.09894 0.12317 -0.1661 -0.1117 -0.01797 -0.05203 0.1407 -0.02115
000010 4b aa f6 b2 01 30 76 1a 1e a8 47 b0 94 30 af 31
       -0.04916 -0.2175 0.1251 0.003155 -0.03217 -0.1337 0.1431 0.1776
000020 1d ae ba ac 93 2e f9 26 27 30 26 b4 ca 30 e1 1e
       -0.0955 -0.07385 0.1027 0.02724 0.1298 -0.2593 0.1497 0.006718
000030 d5 ae 07 28 bf 30 b8 9b d2 a8 bc a3 08 b4 f5 a9
       -0.10675 0.03146 0.1483 -0.003769 -0.03766 -0.01511 -0.252 -0.04654
000040 54 28 59 2d 67 b0 3b 2f 16 a8 90 ae 3d b1 d2 ae
       0.0338 0.08356 -0.1376 0.113 -0.03192 -0.10254 -0.1637 -0.10657
000050 69 aa 19 30 e7 29 8a 24 cc ad 13 ab a4 ab cb 23
       -0.05008 0.128 0.0461 0.01773 -0.0906 -0.05527 -0.0597 0.01522
000060 18 32 7f b3 19 ab 74 b2 7a 31 75 28 bd 30 bb af
       0.1904 -0.2343 -0.05545 -0.2017 0.1711 0.03482 0.1481 -0.1208
000070 19 2e a8 ab c1 b1 9e a7 84 2e a5 9c ea 2d ef 2d
       0.0953 -0.0598 -0.1798 -0.02975 0.1018 -0.004536 0.0924 0.0927
000080 ba 32 50 26 16 33 69 ae a5 9d 07 31 b7 30 2b 34
       0.2102 0.02466 0.2214 -0.10016 -0.005512 0.1571 0.1473 0.2605
000090 02 27 4f 9a 97 aa cc b1 6e 28 85 b0 b7 b2 a4 ac
       0.02737 -0.00308 -0.05148 -0.1812 0.0346 -0.1412 -0.2098 -0.0725
0000a0 8a 27 ac af 0f 2c 05 ab dc ae 02 ae e7 2c b8 b2
       0.02945 -0.1199 0.0634 -0.05484 -0.1072 -0.0939 0.0766 -0.21
0000b0 fa 28 ff 2a 1b b1 e0 ac 12 1c 0b ad 36 33 c5 a8
       0.03888 0.05466 -0.1595 -0.0762 0.003975 -0.0788 0.2253 -0.03726
0000c0 58 b0 0c 88 94 b0 46 31 64 31 7f 30 55 30 56 ad
       -0.1357 -0.0001235 -0.1431 0.1648 0.1685 0.1405 0.1354 -0.0834
0000d0 27 28 92 29 68 ad 82 b1 66 30 22 b0 41 b0 50 b2
       0.03244 0.04352 -0.0845 -0.1721 0.1375 -0.1292 -0.1329 -0.1973
0000e0 48 30 bb ab fd af 98 2d 21 af 6a b0 e5 b0 62 30
       0.1338 -0.0604 -0.1248 0.0874 -0.1114 -0.138 -0.153 0.137
0000f0 23 b0 5e 25 ab 2d d4 b0 9f b1 42 b1 9d 30 29 b2
       -0.1293 0.02097 0.08856 -0.1509 -0.1757 -0.1643 0.1442 -0.1925
000100 31 34 86 a9 43 b1 65 ad d6 20 c3 29 fc b2 a0 29
       0.262 -0.04315 -0.1644 -0.0843 0.009445 0.045 -0.2183 0.04395
000110 10 a9 cc ad 30 a8 d4 2d 54 14 ac af a0 31 63 b1
       -0.03955 -0.0906 -0.0327 0.09106 0.001057 -0.1199 0.1758 -0.1683
000120 98 2d c3 31 32 31 27 33 a5 ac fd 9e 4e b0 ab 2c
       0.0874 0.18 0.1624 0.2235 -0.0726 -0.006824 -0.1345 0.07294
000130 a9 2e 70 ae ef 32 d9 b0 24 30 d6 30 96 af 26 27
       0.10406 -0.1006 0.2167 -0.1515 0.1294 0.1511 -0.1185 0.02792
000140 a1 2c a2 b0 e2 b1 15 32 b5 b1 a2 ac 75 31 ff 9f
       0.0723 -0.1448 -0.1838 0.1901 -0.1783 -0.0724 0.1705 -0.00781
000150 7c 28 a1 32 0b 9c e0 27 02 b4 1b 2c c8 1c 99 a4
       0.03503 0.2072 -0.00395 0.03076 -0.2505 0.06415 0.00467 -0.01796
000160 e5 33 e4 2d 86 33 d1 b3 ca ab 56 aa 9c a7 20 af
       0.2467 0.09204 0.2351 -0.2443 -0.06085 -0.0495 -0.02972 -0.1113
000170 d7 32 09 a5 ac 33 9d 30 88 31 02 b1 6a 31 c2 2f
       0.2137 -0.01967 0.2397 0.1442 0.1729 -0.1565 0.1692 0.1212
000180 21 2a b9 2f 50 aa 20 27 24 b2 05 af 5b b2 7e ae
       0.04788 0.12067 -0.04932 0.02783 -0.1919 -0.1097 -0.1986 -0.10144
000190 58 9c 45 2c 0e ae 4b af a6 b0 d3 30 95 25 7b 2f
       -0.004242 0.0667 -0.0946 -0.11395 -0.1453 0.1508 0.0218 0.1169
0001a0 a2 2d 5f a9 51 2d a5 ae ce 2a a8 ac 89 30 45 2e
       0.088 -0.04196 0.08307 -0.1038 0.05316 -0.07275 0.1417 0.09796
0001b0 8b 32 c1 b0 92 23 50 ac 9a 2f 2c 31 5a 31 22 2e
       0.2045 -0.1486 0.014786 -0.0674 0.1188 0.1616 0.1672 0.0958
0001c0 1a a8 eb ad 5e 2a c5 ae 4a 9f f4 b0 eb 29 62 91
       -0.03204 -0.09247 0.04974 -0.1058 -0.00712 -0.1548 0.04623 -0.000657
0001d0 45 a9 92 ae 89 ac 82 2c 91 2e 88 30 ba 2e b4 32
       -0.04117 -0.10266 -0.07086 0.07043 0.1026 0.1416 0.1051 0.2095
0001e0 98 30 3d aa 67 35 20 2c d4 b1 96 30 6a aa 11 ad
       0.1436 -0.04874 0.3376 0.06445 -0.1821 0.1433 -0.0501 -0.07916
0001f0 f3 2c a0 25 7a 30 a7 25 ba b0 3c ac 60 31 97 28
       0.07733 0.02197 0.1399 0.02208 -0.1477 -0.06616 0.168 0.03586
