assets/ssrnet_age_float16.tflite (tflite, 125580 bytes, 49 tensors)

arith.constant f2 [32]
00000000: 1b9e 4bb5 f434 4cb9 15b5 6fa6 a938 5bb4
00000010: 3b31 4ab2 b4ba 4bb5 a7b7 9fa8 93b6 e234
00000020: a5b6 4931 3c2c 6132 e9b0 87b8 c223 9db5
00000030: 122f 6ea2 9ab0 87b2 9db8 63b5 8732 b6ba
-0.005962 -0.3308 0.3096 -0.662 -0.3176 -0.02513 0.5825 -0.2722
0.1635 -0.1965 -0.838 -0.3308 -0.4783 -0.0361 -0.411 0.3052
-0.4153 0.1652 0.06616 0.1993 -0.1534 -0.566 0.01515 -0.3508
0.1105 -0.01256 -0.1438 -0.204 -0.5767 -0.3367 0.204 -0.839

arith.constant1 f2 [32, 3, 3, 3]
00000000: 2ca4 bbb0 d21f b5ac f9b5 1039 3723 2538
00000010: c139 ee2d 4330 ddb5 77b8 63b5 10bc a5b8
00000020: a0b7 3cbe b834 4a35 3a30 c134 2d38 2539
00000030: 7d39 162f ea34 86ba b6b9 99bc 83b8 872b
00000040: a3b1 0b3d 2133 5d3d 66b7 a2b2 f6b4 7b2d
00000050: cc33 b633 a7ae 5eae 6c36 1039 233f de34
00000060: 3ca6 ac2d 1434 01b7 67bc 0fba c631 15ba
00000070: 88ba 90a8 ceb0 71b3 fdb0 4f34 c32b 6cb3
00000080: 2db7 cbb8 09a8 1fa5 812a cab6 c533 4826
00000090: 5b31 e136 e230 8931 3637 5739 b2ad ba38
000000a0: c936 59a5 8321 002a 1c14 b823 e32d d49d
000000b0: 8a23 4426 85a1 e31c 5e29 96a5 249c c730
000000c0: 101e 931c cd2d e421 30a4 332c 2e24 7ba1
000000d0: 602d 20a5 dbaa 0a27 cc2d 3c20 1130 6531
000000e0: e529 9d9b d7a6 d61e d62b f931 eb26 b72d
000000f0: ae2f 0226 1f2c 44a8 7c91 29a9 4ca4 68ab
00000100: aea8 002b 42ae 90a1 00ae 2baf e0ad 4d37
00000110: f537 c435 97b1 d6b1 0dac 59b2 4eb5 a8b2
00000120: 4632 a734 2832 00b0 002e 17a4 9eb4 b7b4
00000130: 9bb4 3c30 6033 e52f b32b 182d 4530 90b3
00000140: 85b5 c6b0 dc29 5aae dfb2 6daf a3b1 8bb0
00000150: 93b4 53ac 1e2f 54b4 78b1 dfb6 82af 21af
00000160: 02b4 6db0 a3b1 e4b3 2738 a138 b033 2537
00000170: 1f35 7d30 5122 4638 7825 f134 a331 ef35
00000180: 7535 d32e 842d 5f2d 4e35 b335 2130 9baf
00000190: 1028 5430 59b0 3e2c 721f c2af 502e e2ae
000001a0: a4b5 58b2 94b7 31b6 78b4 2daf 82b6 6d30
000001b0: 5b2c 0833 bb30 7c98 712f 0d26 1626 7d34
000001c0: 3128 26af 8a2b e8ae c6af 2426 f3b0 3e2c
000001d0: a431 bcb1 b4b0 29aa 76b0 16b1 cb23 98b2
000001e0: 77a8 d2af dbaf 92aa e22b 41ac e494 d32c
000001f0: 13b0 6faa 622b e4ad aa2b 6c30 1aa9 802b
-0.0163 -0.1478 0.007637 -0.07355 -0.3733 0.633 0.01409 0.518
0.719 0.09265 0.1332 -0.3665 -0.558 -0.3367 -1.016 -0.5806
-0.4766 -1.559 0.295 0.3306 0.1321 0.297 0.522 0.643
0.686 0.1107 0.3071 -0.8154 -0.714 -1.149 -0.564 0.0588
-0.1761 1.261 0.2228 1.341 -0.4624 -0.2073 -0.31 0.08563
0.2437 0.241 -0.10394 -0.0995 0.4014 0.633 1.784 0.3042
-0.02435 0.0886 0.255 -0.4377 -1.101 -0.7573 0.1804 -0.7603
-0.8164 -0.03564 -0.1501 -0.2325 -0.1559 0.2693 0.06064 -0.2319
-0.4485 -0.599 -0.03152 -0.02 0.0508 -0.4243 0.2428 0.02454
0.1674 0.43 0.1526 0.173 0.4507 0.6675 -0.089 0.591
0.424 -0.02089 0.010765 0.04688 0.001003 0.015076 0.092 -0.00569
0.014725 0.02448 -0.01078 0.004772 0.04193 -0.02182 -0.004044 0.1493
0.00592 0.004467 0.09064 0.011505 -0.01636 0.0656 0.01633 -0.010704
0.084 -0.02002 -0.05356 0.0275 0.0906 0.00827 0.1271 0.1686
0.04605 -0.003717 -0.02672 0.006676 0.06122 0.1866 0.02702 0.0893
0.12 0.02347 0.0644 -0.03333 -0.0006695 -0.0403 -0.01678 -0.05786
-0.03656 0.0547 -0.0978 -0.010864 -0.09375 -0.112 -0.0918 0.4563
0.4973 0.3604 -0.1747 -0.1824 -0.0633 -0.1984 -0.3315 -0.208
0.196 0.2908 0.1924 -0.125 0.09375 -0.01598 -0.2886 -0.2947
-0.2878 0.1323 0.2305 0.12335 0.06015 0.0796 0.1334 -0.2363
-0.345 -0.1492 0.04578 -0.09924 -0.2147 -0.116 -0.1761 -0.142
-0.286 -0.06757 0.1112 -0.2705 -0.1709 -0.4294 -0.1173 -0.1114
-0.2505 -0.1383 -0.1761 -0.2466 0.519 0.5786 0.2402 0.4465
0.32 0.1403 0.01234 0.534 0.02136 0.3088 0.1761 0.3708
0.341 0.1066 0.0862 0.0839 0.3315 0.3562 0.129 -0.11884
0.03174 0.1353 -0.1359 0.0663 0.00727 -0.1212 0.09863 -0.10754
-0.3525 -0.1982 -0.4736 -0.387 -0.2793 -0.1121 -0.4067 0.1383
0.06805 0.2197 0.1478 -0.00219 0.1163 0.02364 0.02377 0.2805
0.03275 -0.1117 0.0589 -0.1079 -0.12146 0.02399 -0.1547 0.0663
0.1763 -0.1792 -0.147 -0.04813 -0.1394 -0.1589 0.01522 -0.206
-0.03488 -0.1222 -0.12274 -0.05133 0.06158 -0.06647 -0.001194 0.0754
-0.1273 -0.05026 0.05768 -0.09204 0.05988 0.1382 -0.03986 0.0586

arith.constant9 f2 [6]
00000000: d48e 4795 0080 048b 0080 0594
-0.0004168 -0.001288 -0.0 -0.0002141 -0.0 -0.000981

arith.constant13 f2 [6]
00000000: 408a 0080 1c8a 0080 0080 b18d
-0.0001907 -0.0 -0.0001864 -0.0 -0.0 -0.0003474

arith.constant16 f2 [6]
00000000: cd91 2630 ceae 2f80 a099 c732
-0.000708 0.1296 -0.1063 -2.8e-06 -0.002747 0.2118

arith.constant30 f2 [3, 160]
00000000: 0080 0080 0000 0080 0000 0000 0000 0000
00000010: 0080 0080 0000 0080 0080 0080 0000 0080
00000020: 0080 0080 0080 0080 0000 0000 0000 0000
00000030: 0000 0080 0000 0080 0080 0080 0080 0000
00000040: 0000 0000 0000 0000 0000 0080 0000 0080
00000050: 0000 0080 0000 0080 0000 0080 0080 0080
00000060: 0000 0080 0000 0000 0080 0000 0080 0080
00000070: 0000 0080 0080 0000 0000 0080 0000 0000
00000080: 0080 0080 0000 0080 0080 0000 0080 0000
00000090: 0000 0080 0080 0080 0080 0000 0000 0080
000000a0: 0080 0080 0000 0080 0000 0080 0000 0000
000000b0: 0000 0000 0000 0080 0000 0000 0080 0080
000000c0: 0000 0000 0080 0000 0000 0000 0080 0080
000000d0: 0080 0080 0080 0080 0000 0000 0080 0080
000000e0: 0080 0000 0000 0000 0080 0080 0000 0000
000000f0: 0000 0000 0000 0080 0000 0000 0080 0000
00000100: 0080 0080 0000 0000 0000 0000 0000 0000
00000110: 0080 0000 0080 0080 0080 0000 0000 0080
00000120: 0000 0080 0000 0080 0080 0000 0000 0000
00000130: 0080 0000 0000 0080 0080 0000 0000 0080
00000140: 0080 0000 0000 0080 0080 0000 0000 0080
00000150: 0000 0080 0000 0000 0000 0080 0000 0080
00000160: 0000 0000 0000 0000 0000 0000 0080 0080
00000170: 0080 0000 0080 0000 0080 0000 0000 0000
00000180: 0000 0080 0000 0080 0080 0000 0000 0080
00000190: 0000 0000 0080 0000 0080 0000 0080 0080
000001a0: 0080 0080 0080 0000 0000 0000 0080 0080
000001b0: 0080 0080 0080 0080 0000 0000 0000 0080
000001c0: 0000 0080 0000 0000 0080 0080 0000 0000
000001d0: 0000 0000 0000 0000 0000 0000 0000 0000
000001e0: 0080 0000 0000 0000 0000 0080 0000 0080
000001f0: 0000 0000 0000 0000 0080 0080 0080 0080
-0.0 -0.0 0.0 -0.0 0.0 0.0 0.0 0.0
-0.0 -0.0 0.0 -0.0 -0.0 -0.0 0.0 -0.0
-0.0 -0.0 -0.0 -0.0 0.0 0.0 0.0 0.0
0.0 -0.0 0.0 -0.0 -0.0 -0.0 -0.0 0.0
0.0 0.0 0.0 0.0 0.0 -0.0 0.0 -0.0
0.0 -0.0 0.0 -0.0 0.0 -0.0 -0.0 -0.0
0.0 -0.0 0.0 0.0 -0.0 0.0 -0.0 -0.0
0.0 -0.0 -0.0 0.0 0.0 -0.0 0.0 0.0
-0.0 -0.0 0.0 -0.0 -0.0 0.0 -0.0 0.0
0.0 -0.0 -0.0 -0.0 -0.0 0.0 0.0 -0.0
-0.0 -0.0 0.0 -0.0 0.0 -0.0 0.0 0.0
0.0 0.0 0.0 -0.0 0.0 0.0 -0.0 -0.0
0.0 0.0 -0.0 0.0 0.0 0.0 -0.0 -0.0
-0.0 -0.0 -0.0 -0.0 0.0 0.0 -0.0 -0.0
-0.0 0.0 0.0 0.0 -0.0 -0.0 0.0 0.0
0.0 0.0 0.0 -0.0 0.0 0.0 -0.0 0.0
-0.0 -0.0 0.0 0.0 0.0 0.0 0.0 0.0
-0.0 0.0 -0.0 -0.0 -0.0 0.0 0.0 -0.0
0.0 -0.0 0.0 -0.0 -0.0 0.0 0.0 0.0
-0.0 0.0 0.0 -0.0 -0.0 0.0 0.0 -0.0
-0.0 0.0 0.0 -0.0 -0.0 0.0 0.0 -0.0
0.0 -0.0 0.0 0.0 0.0 -0.0 0.0 -0.0
0.0 0.0 0.0 0.0 0.0 0.0 -0.0 -0.0
-0.0 0.0 -0.0 0.0 -0.0 0.0 0.0 0.0
0.0 -0.0 0.0 -0.0 -0.0 0.0 0.0 -0.0
0.0 0.0 -0.0 0.0 -0.0 0.0 -0.0 -0.0
-0.0 -0.0 -0.0 0.0 0.0 0.0 -0.0 -0.0
-0.0 -0.0 -0.0 -0.0 0.0 0.0 0.0 -0.0
0.0 -0.0 0.0 0.0 -0.0 -0.0 0.0 0.0
0.0 0.0 0.0 0.0 0.0 0.0 0.0 0.0
-0.0 0.0 0.0 0.0 0.0 -0.0 0.0 -0.0
0.0 0.0 0.0 0.0 -0.0 -0.0 -0.0 -0.0

arith.constant31 f2 [3, 640]
00000000: 0080 0000 0000 0000 0080 0000 0000 0000
00000010: 0000 0000 0080 0080 0000 0080 0080 0000
00000020: 0080 0080 0080 0080 0080 0000 0000 0080
00000030: 0080 0080 0080 0080 0080 0000 0000 0000
00000040: 0080 0080 0080 0000 0080 0080 0080 0080
00000050: 0080 0080 0080 0000 0000 0080 0080 0080
00000060: 0000 0000 0000 0000 0080 0000 0000 0000
00000070: 0080 0000 0080 0000 0000 0080 0080 0000
00000080: 0080 0080 0080 0000 0080 0080 0080 0000
00000090: 0000 0000 0000 0080 0080 0000 0000 0080
000000a0: 0000 0080 0080 0000 0080 0000 0080 0080
000000b0: 0080 0000 0080 0000 0000 0080 0080 0000
000000c0: 0080 0000 0080 0000 0080 0000 0000 0000
000000d0: 0080 0000 0000 0000 0080 0000 0080 0080
000000e0: 0080 0080 0080 0080 0080 0080 0080 0000
000000f0: 0000 0080 0080 0080 0000 0080 0080 0000
00000100: 0000 0000 0000 0080 0000 0080 0000 0000
00000110: 0000 0080 0000 0080 0000 0080 0080 0000
00000120: 0080 0080 0080 0080 0080 0080 0080 0080
00000130: 0080 0000 0080 0080 0000 0080 0080 0000
00000140: 0000 0000 0080 0080 0080 0080 0080 0000
00000150: 0080 0000 0080 0080 0000 0080 0080 0000
00000160: 0080 0000 0080 0080 0080 0000 0000 0080
00000170: 0080 0000 0080 0080 0080 0000 0080 0080
00000180: 0080 0000 0000 0000 0080 0080 0080 0080
00000190: 0000 0080 0000 0080 0000 0000 0080 0080
000001a0: 0000 0080 0080 0080 0000 0000 0000 0000
000001b0: 0080 0080 0080 0080 0080 0000 0000 0080
000001c0: 0000 0080 0080 0080 0000 0080 0000 0000
000001d0: 0000 0080 0000 0080 0080 0080 0080 0000
000001e0: 0000 0000 0080 0000 0080 0080 0000 0000
000001f0: 0000 0080 0080 0080 0080 0000 0080 0000
-0.0 0.0 0.0 0.0 -0.0 0.0 0.0 0.0
0.0 0.0 -0.0 -0.0 0.0 -0.0 -0.0 0.0
-0.0 -0.0 -0.0 -0.0 -0.0 0.0 0.0 -0.0
-0.0 -0.0 -0.0 -0.0 -0.0 0.0 0.0 0.0
-0.0 -0.0 -0.0 0.0 -0.0 -0.0 -0.0 -0.0
-0.0 -0.0 -0.0 0.0 0.0 -0.0 -0.0 -0.0
0.0 0.0 0.0 0.0 -0.0 0.0 0.0 0.0
-0.0 0.0 -0.0 0.0 0.0 -0.0 -0.0 0.0
-0.0 -0.0 -0.0 0.0 -0.0 -0.0 -0.0 0.0
0.0 0.0 0.0 -0.0 -0.0 0.0 0.0 -0.0
0.0 -0.0 -0.0 0.0 -0.0 0.0 -0.0 -0.0
-0.0 0.0 -0.0 0.0 0.0 -0.0 -0.0 0.0
-0.0 0.0 -0.0 0.0 -0.0 0.0 0.0 0.0
-0.0 0.0 0.0 0.0 -0.0 0.0 -0.0 -0.0
-0.0 -0.0 -0.0 -0.0 -0.0 -0.0 -0.0 0.0
0.0 -0.0 -0.0 -0.0 0.0 -0.0 -0.0 0.0
0.0 0.0 0.0 -0.0 0.0 -0.0 0.0 0.0
0.0 -0.0 0.0 -0.0 0.0 -0.0 -0.0 0.0
-0.0 -0.0 -0.0 -0.0 -0.0 -0.0 -0.0 -0.0
-0.0 0.0 -0.0 -0.0 0.0 -0.0 -0.0 0.0
0.0 0.0 -0.0 -0.0 -0.0 -0.0 -0.0 0.0
-0.0 0.0 -0.0 -0.0 0.0 -0.0 -0.0 0.0
-0.0 0.0 -0.0 -0.0 -0.0 0.0 0.0 -0.0
-0.0 0.0 -0.0 -0.0 -0.0 0.0 -0.0 -0.0
-0.0 0.0 0.0 0.0 -0.0 -0.0 -0.0 -0.0
0.0 -0.0 0.0 -0.0 0.0 0.0 -0.0 -0.0
0.0 -0.0 -0.0 -0.0 0.0 0.0 0.0 0.0
-0.0 -0.0 -0.0 -0.0 -0.0 0.0 0.0 -0.0
0.0 -0.0 -0.0 -0.0 0.0 -0.0 0.0 0.0
0.0 -0.0 0.0 -0.0 -0.0 -0.0 -0.0 0.0
0.0 0.0 -0.0 0.0 -0.0 -0.0 0.0 0.0
0.0 -0.0 -0.0 -0.0 -0.0 0.0 -0.0 0.0

arith.constant32 f2 [3, 640]
00000000: 0080 0080 0080 0080 0000 0080 0080 0080
00000010: 0000 0000 0080 0000 0000 0000 0080 0080
00000020: 0000 0080 0080 0080 0000 0000 0000 0000
00000030: 0000 0000 0080 0000 0000 0080 0000 0080
00000040: 0000 0000 0080 0000 0000 0080 0000 0000
00000050: 0000 0080 0000 0080 0000 0080 0000 0000
00000060: 0000 0080 0000 0080 0000 0000 0000 0080
00000070: 0000 0080 0000 0080 0000 0000 0080 0080
00000080: 0000 0080 0080 0000 0000 0000 0000 0000
00000090: 0080 0080 0000 0000 0000 0000 0080 0080
000000a0: 0000 0080 0080 0000 0080 0000 0080 0080
000000b0: 0080 0000 0000 0080 0000 0080 0000 0000
000000c0: 0080 0000 0000 0080 0000 0080 0000 0000
000000d0: 0080 0080 0000 0000 0000 0080 0080 0080
000000e0: 0000 0000 0080 0000 0080 0000 0080 0000
000000f0: 0080 0000 0000 0080 0000 0080 0000 0000
00000100: 0000 0000 0080 0080 0000 0080 0000 0080
00000110: 0000 0080 0000 0080 0080 0080 0000 0080
00000120: 0080 0080 0080 0080 0000 0000 0000 0080
00000130: 0080 0000 0000 0000 0080 0000 0080 0080
00000140: 0080 0000 0080 0000 0080 0000 0000 0000
00000150: 0080 0000 0080 0080 0000 0080 0080 0000
00000160: 0000 0000 0000 0000 0000 0080 0000 0080
00000170: 0080 0000 0000 0080 0000 0080 0000 0080
00000180: 0080 0000 0000 0000 0000 0000 0000 0000
00000190: 0080 0000 0080 0080 0000 0080 0000 0000
000001a0: 0000 0000 0000 0080 0080 0000 0000 0080
000001b0: 0000 0000 0080 0080 0080 0000 0000 0000
000001c0: 0080 0000 0080 0080 0000 0000 0080 0000
000001d0: 0000 0080 0080 0080 0080 0080 0080 0080
000001e0: 0080 0080 0080 0080 0080 0080 0080 0000
000001f0: 0000 0080 0000 0000 0000 0000 0000 0000
-0.0 -0.0 -0.0 -0.0 0.0 -0.0 -0.0 -0.0
0.0 0.0 -0.0 0.0 0.0 0.0 -0.0 -0.0
0.0 -0.0 -0.0 -0.0 0.0 0.0 0.0 0.0
0.0 0.0 -0.0 0.0 0.0 -0.0 0.0 -0.0
0.0 0.0 -0.0 0.0 0.0 -0.0 0.0 0.0
0.0 -0.0 0.0 -0.0 0.0 -0.0 0.0 0.0
0.0 -0.0 0.0 -0.0 0.0 0.0 0.0 -0.0
0.0 -0.0 0.0 -0.0 0.0 0.0 -0.0 -0.0
0.0 -0.0 -0.0 0.0 0.0 0.0 0.0 0.0
-0.0 -0.0 0.0 0.0 0.0 0.0 -0.0 -0.0
0.0 -0.0 -0.0 0.0 -0.0 0.0 -0.0 -0.0
-0.0 0.0 0.0 -0.0 0.0 -0.0 0.0 0.0
-0.0 0.0 0.0 -0.0 0.0 -0.0 0.0 0.0
-0.0 -0.0 0.0 0.0 0.0 -0.0 -0.0 -0.0
0.0 0.0 -0.0 0.0 -0.0 0.0 -0.0 0.0
-0.0 0.0 0.0 -0.0 0.0 -0.0 0.0 0.0
0.0 0.0 -0.0 -0.0 0.0 -0.0 0.0 -0.0
0.0 -0.0 0.0 -0.0 -0.0 -0.0 0.0 -0.0
-0.0 -0.0 -0.0 -0.0 0.0 0.0 0.0 -0.0
-0.0 0.0 0.0 0.0 -0.0 0.0 -0.0 -0.0
-0.0 0.0 -0.0 0.0 -0.0 0.0 0.0 0.0
-0.0 0.0 -0.0 -0.0 0.0 -0.0 -0.0 0.0
0.0 0.0 0.0 0.0 0.0 -0.0 0.0 -0.0
-0.0 0.0 0.0 -0.0 0.0 -0.0 0.0 -0.0
-0.0 0.0 0.0 0.0 0.0 0.0 0.0 0.0
-0.0 0.0 -0.0 -0.0 0.0 -0.0 0.0 0.0
0.0 0.0 0.0 -0.0 -0.0 0.0 0.0 -0.0
0.0 0.0 -0.0 -0.0 -0.0 0.0 0.0 0.0
-0.0 0.0 -0.0 -0.0 0.0 0.0 -0.0 0.0
0.0 -0.0 -0.0 -0.0 -0.0 -0.0 -0.0 -0.0
-0.0 -0.0 -0.0 -0.0 -0.0 -0.0 -0.0 0.0
0.0 -0.0 0.0 0.0 0.0 0.0 0.0 0.0

arith.constant33 f2 [6, 3]
00000000: 0000 8198 9086 0000 2292 71a4 0080 4ba8
00000010: ab2d 0000 b998 2692 0080 ef8d 748c 0080
00000020: 5629 00a9
0.0 -0.0022 -0.00010014 0.0 -0.0007486 -0.01735 -0.0 -0.03354
0.08856 0.0 -0.002306 -0.0007505 -0.0 -0.0003622 -0.0002718 -0.0
0.0417 -0.03906

arith.constant34 f2 [3, 6]
00000000: 4596 6da9 9da5 e388 0000 aba4 4714 2928
00000010: 20ae cb11 f218 1a2f 908d b129 b1a8 788d
00000020: ba1f d02f
-0.001531 -0.0424 -0.02193 -0.0001491 0.0 -0.01823 0.001044 0.0325
-0.0957 0.000707 0.002415 0.11096 -0.0003395 0.04446 -0.03665 -0.0003338
0.007545 0.1221

arith.constant35 f2 [3, 6]
00000000: fc95 6e20 839b ae82 0000 b729 7110 c9b0
00000010: 73b4 5b89 0000 a4ae 2a91 f2b0 77b1 368a
00000020: 0000 eeae
-0.001461 0.00865 -0.003668 -4.09e-05 0.0 0.04465 0.000542 -0.1495
-0.278 -0.0001634 0.0 -0.10376 -0.0006304 -0.1545 -0.1708 -0.0001895
0.0 -0.1083

arith.constant36 f2 [1, 640]
00000000: 6b2d 292c c4aa 4328 9b2d 8f30 9aa3 8732
00000010: 86b5 42a9 9825 6926 2325 cbb0 e0b1 611f
00000020: 5229 12ad 192d 04ac 7527 821f 9f28 ef2c
00000030: 27a6 6927 0ba8 9131 7ca5 c632 16b2 d2ae
00000040: 9b2d 17b2 5228 2430 ab29 61b2 2328 62b4
00000050: b89a f82c eca4 cb1d b22e 0430 509e f515
00000060: b325 1032 a92e b4a4 f3b1 aca3 0b2f 372d
00000070: e8b2 31aa baa9 6aad c5a7 8cad 20ac 47b0
00000080: d133 6db2 af34 cd2d 3bb1 b116 0534 d62e
00000090: a2aa 6d2d c4ac 7a28 862b 0122 d82a 45ad
000000a0: 419c a6a4 4628 4b2c e631 6320 0728 fc26
000000b0: 3bab 242b 1faf e235 5793 941e b129 11a9
000000c0: 31a2 892f 06aa dab0 00b5 372e 58ab cf2f
000000d0: 6f30 85aa be28 4cae 122c 53ae faad 4aaa
000000e0: 85b0 4f29 e4ad 902d bb32 5a24 a5a2 ceab
000000f0: c729 1eaf db28 0834 ea2b 3eb4 4fb1 2a24
00000100: 6234 63aa 2f2c 1c14 07af 9a2d 3d28 872d
00000110: dca8 4631 909f 36a2 3f1d 9fae cca8 4930
00000120: caa7 fd2b c11c d3a6 ac26 4920 6ea4 e32b
00000130: e7a7 3ba8 43aa ef25 dc2d 1aae 971d 3e1e
00000140: 69ac fc2d de2b 5fac bab1 b5b4 712b 17a8
00000150: 93b0 cea9 2432 2631 8e2d e034 4b9a 78b0
00000160: 942c 09a3 6e33 1c31 261e 6b34 b328 a230
00000170: c22c f6b0 d7ac 122c cb2a c234 72b1 50b6
00000180: 77a1 3930 89b0 11a2 d1a3 c72b afac 0fb0
00000190: 0080 b122 32ad e8ae 19b1 ad31 32af 6527
000001a0: 0080 db32 bb23 2fb2 8c32 aaa8 b32b 93b1
000001b0: e81b e6ab 3d25 602a 5ba6 c4ad 6c25 6faf
000001c0: 768f 3e31 4b32 c829 6125 d699 16ad e223
000001d0: 0080 cd2c 57a9 76a6 752f 0f32 af2a c831
000001e0: b7a6 e8a0 0aab e131 d830 132c 1cae f8a6
000001f0: 0000 e633 9aac 3ea9 8918 fc31 bdad 312f
0.08466 0.065 -0.05286 0.0333 0.0876 0.1425 -0.01485 0.204
-0.3452 -0.04108 0.02185 0.02504 0.02007 -0.1498 -0.1836 0.007206
0.04156 -0.0792 0.07965 -0.06274 0.02913 0.00733 0.0361 0.0771
-0.02403 0.02895 -0.0316 0.174 -0.02142 0.2117 -0.1902 -0.10657
0.0876 -0.1903 0.03375 0.1294 0.04428 -0.1993 0.03232 -0.274
-0.00328 0.07764 -0.01923 0.005657 0.1046 0.1255 -0.006165 0.001454
0.02226 0.1895 0.10406 -0.01837 -0.1859 -0.014984 0.11005 0.0815
-0.2158 -0.04837 -0.04474 -0.0846 -0.03035 -0.0867 -0.06445 -0.1337
0.2443 -0.2008 0.2927 0.09064 -0.1635 0.001634 0.2512 0.1068
-0.05182 0.0848 -0.07446 0.03497 0.05878 0.01173 0.05347 -0.08234
-0.004154 -0.01816 0.0334 0.0671 0.1843 0.00857 0.03146 0.02728
-0.0565 0.0558 -0.11127 0.3677 -0.000896 0.006424 0.04446 -0.03958
-0.01209 0.11774 -0.04706 -0.1516 -0.3125 0.0971 -0.05737 0.122
0.1385 -0.05093 0.03705 -0.0984 0.0636 -0.0988 -0.0934 -0.04913
-0.1412 0.04147 -0.09204 0.0869 0.2103 0.017 -0.01298 -0.06097
0.04514 -0.1112 0.03793 0.252 0.06183 -0.2651 -0.1659 0.01627
0.274 -0.0499 0.06537 0.001003 -0.1098 0.0875 0.0331 0.08636
-0.03796 0.1648 -0.007385 -0.01213 0.005123 -0.10345 -0.03748 0.1339
-0.03043 0.0624 0.004642 -0.02666 0.02606 0.00837 -0.0173 0.0616
-0.03087 -0.03305 -0.04892 0.02318 0.09155 -0.09534 0.00546 0.006096
-0.0689 0.0935 0.06146 -0.0683 -0.179 -0.2942 0.05814 -0.03195
-0.143 -0.04535 0.1919 0.1609 0.0868 0.3047 -0.003073 -0.1396
0.07153 -0.01374 0.2322 0.1597 0.006004 0.2761 0.0367 0.1448
0.07434 -0.155 -0.0756 0.0636 0.05307 0.2974 -0.1702 -0.3945
-0.01067 0.132 -0.1417 -0.01185 -0.01527 0.06076 -0.0732 -0.1268
-0.0 0.01307 -0.0812 -0.1079 -0.1593 0.1774 -0.1124 0.02888
-0.0 0.2142 0.0151 -0.1932 0.2046 -0.03644 0.06015 -0.1742
0.00386 -0.0617 0.02046 0.0498 -0.02483 -0.0901 0.02118 -0.11615
-0.0004554 0.1638 0.1967 0.04517 0.02101 -0.00285 -0.07947 0.015396
-0.0 0.075 -0.04172 -0.02524 0.1165 0.1893 0.05222 0.1807
-0.02623 -0.00958 -0.055 0.1837 0.1514 0.06366 -0.09546 -0.02722
0.0 0.2468 -0.0719 -0.04095 0.002214 0.187 -0.08966 0.11237

arith.constant37 f2 [3, 160]
00000000: 0080 0080 0000 0000 0000 0080 0080 0080
00000010: 0080 0000 0080 0000 0080 0000 0080 0000
00000020: 0000 0000 0000 0080 0000 0080 0000 0000
00000030: 0080 0000 0000 0000 0080 0000 0080 0000
00000040: 0000 0000 0000 0000 0000 0000 0080 0080
00000050: 0080 0000 0000 0000 0000 0000 0000 0080
00000060: 0080 0000 0080 0000 0080 0000 0000 0080
00000070: 0080 0080 0000 0000 0080 0080 0000 0080
00000080: 0000 0080 0000 0000 0080 0000 0000 0000
00000090: 0080 0080 0080 0000 0000 0000 0000 0000
000000a0: 0080 0000 0000 0000 0080 0000 0080 0080
000000b0: 0080 0000 0000 0080 0000 0000 0000 0000
000000c0: 0080 0000 0080 0080 0000 0080 0080 0080
000000d0: 0000 0080 0080 0000 0000 0080 0080 0000
000000e0: 0080 0000 0000 0080 0000 0000 0080 0000
000000f0: 0000 0000 0000 0080 0000 0000 0000 0000
00000100: 0080 0080 0080 0000 0000 0080 0000 0000
00000110: 0000 0080 0000 0000 0000 0080 0080 0080
00000120: 0080 0080 0080 0000 0000 0000 0000 0000
00000130: 0080 0080 0000 0080 0000 0080 0080 0000
00000140: 0080 0000 0000 0000 0000 0000 0080 0000
00000150: 0000 0000 0000 0080 0080 0000 0000 0000
00000160: 0000 0080 0000 0000 0080 0000 0000 0080
00000170: 0080 0080 0080 0000 0080 0080 0080 0000
00000180: 0000 0000 0080 0080 0080 0080 0000 0000
00000190: 0000 0080 0080 0000 0000 0000 0080 0000
000001a0: 0080 0000 0080 0080 0080 0000 0080 0000
000001b0: 0000 0000 0000 0000 0000 0000 0080 0000
000001c0: 0000 0000 0080 0000 0080 0000 0080 0080
000001d0: 0000 0080 0080 0080 0000 0080 0000 0080
000001e0: 0000 0080 0080 0080 0080 0080 0000 0080
000001f0: 0080 0080 0000 0080 0080 0080 0000 0080
-0.0 -0.0 0.0 0.0 0.0 -0.0 -0.0 -0.0
-0.0 0.0 -0.0 0.0 -0.0 0.0 -0.0 0.0
0.0 0.0 0.0 -0.0 0.0 -0.0 0.0 0.0
-0.0 0.0 0.0 0.0 -0.0 0.0 -0.0 0.0
0.0 0.0 0.0 0.0 0.0 0.0 -0.0 -0.0
-0.0 0.0 0.0 0.0 0.0 0.0 0.0 -0.0
-0.0 0.0 -0.0 0.0 -0.0 0.0 0.0 -0.0
-0.0 -0.0 0.0 0.0 -0.0 -0.0 0.0 -0.0
0.0 -0.0 0.0 0.0 -0.0 0.0 0.0 0.0
-0.0 -0.0 -0.0 0.0 0.0 0.0 0.0 0.0
-0.0 0.0 0.0 0.0 -0.0 0.0 -0.0 -0.0
-0.0 0.0 0.0 -0.0 0.0 0.0 0.0 0.0
-0.0 0.0 -0.0 -0.0 0.0 -0.0 -0.0 -0.0
0.0 -0.0 -0.0 0.0 0.0 -0.0 -0.0 0.0
-0.0 0.0 0.0 -0.0 0.0 0.0 -0.0 0.0
0.0 0.0 0.0 -0.0 0.0 0.0 0.0 0.0
-0.0 -0.0 -0.0 0.0 0.0 -0.0 0.0 0.0
0.0 -0.0 0.0 0.0 0.0 -0.0 -0.0 -0.0
-0.0 -0.0 -0.0 0.0 0.0 0.0 0.0 0.0
-0.0 -0.0 0.0 -0.0 0.0 -0.0 -0.0 0.0
-0.0 0.0 0.0 0.0 0.0 0.0 -0.0 0.0
0.0 0.0 0.0 -0.0 -0.0 0.0 0.0 0.0
0.0 -0.0 0.0 0.0 -0.0 0.0 0.0 -0.0
-0.0 -0.0 -0.0 0.0 -0.0 -0.0 -0.0 0.0
0.0 0.0 -0.0 -0.0 -0.0 -0.0 0.0 0.0
0.0 -0.0 -0.0 0.0 0.0 0.0 -0.0 0.0
-0.0 0.0 -0.0 -0.0 -0.0 0.0 -0.0 0.0
0.0 0.0 0.0 0.0 0.0 0.0 -0.0 0.0
0.0 0.0 -0.0 0.0 -0.0 0.0 -0.0 -0.0
0.0 -0.0 -0.0 -0.0 0.0 -0.0 0.0 -0.0
0.0 -0.0 -0.0 -0.0 -0.0 -0.0 0.0 -0.0
-0.0 -0.0 0.0 -0.0 -0.0 -0.0 0.0 -0.0

arith.constant38 f2 [3, 160]
00000000: 0000 0000 0000 0080 0000 0000 0080 0080
00000010: 0080 0000 0000 0000 0080 0000 0080 0000
00000020: 0080 0080 0080 0000 0080 0080 0000 0080
00000030: 0000 0080 0000 0080 0000 0080 0000 0080
00000040: 0080 0000 0000 0000 0080 0000 0000 0000
00000050: 0080 0000 0000 0000 0080 0000 0080 0080
00000060: 0080 0000 0000 0080 0000 0080 0000 0000
00000070: 0000 0080 0000 0080 0000 0000 0080 0000
00000080: 0080 0080 0000 0080 0000 0000 0000 0000
00000090: 0080 0000 0000 0080 0000 0080 0000 0080
000000a0: 0080 0080 0080 0080 0080 0080 0000 0000
000000b0: 0000 0080 0080 0080 0080 0080 0080 0000
000000c0: 0000 0000 0000 0000 0000 0080 0000 0000
000000d0: 0080 0080 0080 0080 0080 0000 0080 0080
000000e0: 0000 0000 0000 0080 0080 0080 0000 0000
000000f0: 0000 0080 0080 0000 0000 0080 0000 0080
00000100: 0080 0000 0080 0080 0080 0080 0080 0080
00000110: 0000 0080 0000 0080 0080 0000 0080 0080
00000120: 0080 0080 0000 0000 0080 0000 0000 0000
00000130: 0000 0000 0000 0000 0080 0080 0000 0000
00000140: 0080 0080 0080 0080 0000 0080 0080 0000
00000150: 0000 0080 0080 0000 0000 0080 0080 0000
00000160: 0000 0000 0000 0000 0080 0080 0080 0000
00000170: 0080 0000 0000 0000 0080 0000 0080 0080
00000180: 0080 0080 0000 0000 0000 0000 0080 0080
00000190: 0000 0000 0080 0080 0080 0080 0000 0000
000001a0: 0080 0000 0000 0080 0000 0080 0080 0000
000001b0: 0000 0000 0080 0080 0000 0080 0080 0000
000001c0: 0000 0080 0080 0000 0080 0080 0000 0080
000001d0: 0000 0080 0080 0000 0000 0080 0000 0080
000001e0: 0000 0080 0080 0000 0000 0080 0080 0000
000001f0: 0000 0000 0000 0000 0080 0080 0000 0080
0.0 0.0 0.0 -0.0 0.0 0.0 -0.0 -0.0
-0.0 0.0 0.0 0.0 -0.0 0.0 -0.0 0.0
-0.0 -0.0 -0.0 0.0 -0.0 -0.0 0.0 -0.0
0.0 -0.0 0.0 -0.0 0.0 -0.0 0.0 -0.0
-0.0 0.0 0.0 0.0 -0.0 0.0 0.0 0.0
-0.0 0.0 0.0 0.0 -0.0 0.0 -0.0 -0.0
-0.0 0.0 0.0 -0.0 0.0 -0.0 0.0 0.0
0.0 -0.0 0.0 -0.0 0.0 0.0 -0.0 0.0
-0.0 -0.0 0.0 -0.0 0.0 0.0 0.0 0.0
-0.0 0.0 0.0 -0.0 0.0 -0.0 0.0 -0.0
-0.0 -0.0 -0.0 -0.0 -0.0 -0.0 0.0 0.0
0.0 -0.0 -0.0 -0.0 -0.0 -0.0 -0.0 0.0
0.0 0.0 0.0 0.0 0.0 -0.0 0.0 0.0
-0.0 -0.0 -0.0 -0.0 -0.0 0.0 -0.0 -0.0
0.0 0.0 0.0 -0.0 -0.0 -0.0 0.0 0.0
0.0 -0.0 -0.0 0.0 0.0 -0.0 0.0 -0.0
-0.0 0.0 -0.0 -0.0 -0.0 -0.0 -0.0 -0.0
0.0 -0.0 0.0 -0.0 -0.0 0.0 -0.0 -0.0
-0.0 -0.0 0.0 0.0 -0.0 0.0 0.0 0.0
0.0 0.0 0.0 0.0 -0.0 -0.0 0.0 0.0
-0.0 -0.0 -0.0 -0.0 0.0 -0.0 -0.0 0.0
0.0 -0.0 -0.0 0.0 0.0 -0.0 -0.0 0.0
0.0 0.0 0.0 0.0 -0.0 -0.0 -0.0 0.0
-0.0 0.0 0.0 0.0 -0.0 0.0 -0.0 -0.0
-0.0 -0.0 0.0 0.0 0.0 0.0 -0.0 -0.0
0.0 0.0 -0.0 -0.0 -0.0 -0.0 0.0 0.0
-0.0 0.0 0.0 -0.0 0.0 -0.0 -0.0 0.0
0.0 0.0 -0.0 -0.0 0.0 -0.0 -0.0 0.0
0.0 -0.0 -0.0 0.0 -0.0 -0.0 0.0 -0.0
0.0 -0.0 -0.0 0.0 0.0 -0.0 0.0 -0.0
0.0 -0.0 -0.0 0.0 0.0 -0.0 -0.0 0.0
0.0 0.0 0.0 0.0 -0.0 -0.0 0.0 -0.0

arith.constant39 f2 [6, 3]
00000000: 0000 0000 0080 0080 0000 0000 0080 0000
00000010: 0000 0000 0000 0000 0080 0000 0080 0080
00000020: 0000 0000
0.0 0.0 -0.0 -0.0 0.0 0.0 -0.0 0.0
0.0 0.0 0.0 0.0 -0.0 0.0 -0.0 -0.0
0.0 0.0

arith.constant40 f2 [3, 6]
00000000: 0000 0080 0080 0080 0080 0080 0080 0000
00000010: 0000 0080 0000 0000 c796 0080 5d0c 0080
00000020: 0080 e40d
0.0 -0.0 -0.0 -0.0 -0.0 -0.0 -0.0 0.0
0.0 -0.0 0.0 0.0 -0.001655 -0.0 0.0002663 -0.0
-0.0 0.0003595

arith.constant41 f2 [3, 6]
00000000: 0080 0080 0000 0000 0080 0000 0000 0000
00000010: 0000 0000 0000 0000 5481 0000 0000 0000
00000020: 0080 2300
-0.0 -0.0 0.0 0.0 -0.0 0.0 0.0 0.0
0.0 0.0 0.0 0.0 -2.027e-05 0.0 0.0 0.0
-0.0 2.1e-06

arith.constant42 f2 [1, 160]
00000000: 6cad 7ca8 5eae 39ac 0c35 fd2d 89a7 3c32
00000010: bfac 51b6 8cb3 4caf ba2f 7a30 9930 07aa
00000020: 4e32 6c31 5c2d 812e 4a2e 81ac 1332 6c2f
00000030: 66b0 2633 4732 5b14 6533 6530 0cad 0930
00000040: d033 d3a9 b122 0034 b4ab 6baf 28b3 12af
00000050: c629 c6a5 de25 3dac 99b0 722c 5d2c 6db1
00000060: 5aae 4a28 5731 d42d 562a 2925 31ad bf30
00000070: 03b0 45b4 4835 1ab2 1730 f72f 7738 4728
00000080: e0ac d7b3 69b4 33ac 51ac 0a1f a934 13b2
00000090: 7da9 38b2 f830 f827 ed2e 912a 77ae 8d92
000000a0: 2c22 adab fab2 271c 46a9 9934 36b4 cf29
000000b0: 20b4 c031 abac d01e 01ac a5aa e3a9 ea33
000000c0: abb5 6715 d5b0 09b1 f5b1 d02b 011f 7f27
000000d0: e52b 9eb2 c52a d52c 5934 3634 5030 9226
000000e0: ffb5 0a34 84ab 1aa5 57aa b228 e72f 91b4
000000f0: 1ba8 2e32 ccb0 25b1 7d2e 1a2e 2cb0 562c
00000100: c3a9 e5b2 f9b3 692c 0a31 8c2e 7ea4 e431
00000110: 66ac 8b31 4732 29ab b229 4cad 59af 5da8
00000120: ba2d 6031 712f adae 3ba8 f4a0 f4ae 68ad
00000130: 09b4 d3b4 c2b5 9bae d82d 2733 8a1f 862e
-0.0847 -0.03503 -0.0995 -0.066 0.3154 0.09357 -0.02943 0.1948
-0.07416 -0.3948 -0.2358 -0.114 0.1207 0.1399 0.1437 -0.0471
0.197 0.1694 0.08374 0.1016 0.09827 -0.0704 0.1898 0.11597
-0.1375 0.2234 0.1962 0.001063 0.2311 0.1373 -0.07886 0.1261
0.2441 -0.0455 0.01307 0.25 -0.06018 -0.1159 -0.2236 -0.1105
0.0451 -0.02255 0.02292 -0.0662 -0.1437 0.06946 0.0682 -0.1696
-0.09924 0.0335 0.1669 0.09106 0.0495 0.02016 -0.0811 0.1483
-0.1254 -0.2668 0.33 -0.1907 0.1278 0.12445 0.558 0.03342
-0.0762 -0.245 -0.2756 -0.0656 -0.06744 0.006874 0.2913 -0.1898
-0.04288 -0.1943 0.1553 0.03113 0.1082 0.0513 -0.101 -0.0007997
0.012054 -0.05997 -0.218 0.004055 -0.0412 0.2874 -0.2632 0.04538
-0.2578 0.1797 -0.07294 0.006653 -0.06256 -0.0519 -0.046 0.2473
-0.3542 0.001319 -0.151 -0.1573 -0.1862 0.06104 0.00684 0.02928
0.06168 -0.2068 0.0529 0.0755 0.2717 0.2632 0.1348 0.02567
-0.3748 0.2524 -0.05872 -0.01993 -0.04953 0.03668 0.1235 -0.2854
-0.03207 0.1931 -0.1499 -0.1608 0.1014 0.09534 -0.1304 0.06775
-0.045 -0.2155 -0.2491 0.0689 0.1575 0.1023 -0.01755 0.1841
-0.0687 0.1732 0.1962 -0.05594 0.0445 -0.08276 -0.1148 -0.0341
0.0895 0.168 0.1163 -0.1043 -0.03305 -0.009674 -0.10864 -0.0845
-0.2522 -0.3015 -0.3599 -0.1032 0.0913 0.2235 0.007362 0.1019

arith.constant43 f2 [3, 160]
00000000: 0080 0080 0080 0000 0000 0000 0000 0000
00000010: 0000 0000 0000 0000 0080 0000 0000 0080
00000020: 0080 0080 0080 0000 0080 0000 0080 0000
00000030: 0080 0080 0080 0080 0080 0080 0080 0080
00000040: 0080 0080 0000 0080 0080 0000 0000 0000
00000050: 0080 0080 0000 0080 0000 0080 0080 0080
00000060: 0000 0000 0080 0080 0080 0000 0080 0000
00000070: 0000 0000 0000 0080 0000 0000 0080 0080
00000080: 0000 0080 0080 0080 0000 0000 0080 0080
00000090: 0080 0080 0080 0000 0000 0080 0080 0000
000000a0: 0000 0080 0000 0080 0000 0000 0080 0000
000000b0: 0080 0080 0000 0000 0000 0000 0000 0080
000000c0: 0000 0000 0080 0000 0080 0000 0000 0080
000000d0: 0080 0000 0080 0080 0080 0080 0080 0080
000000e0: 0080 0080 0000 0000 0080 0000 0000 0000
000000f0: 0000 0080 0080 0000 0080 0000 0080 0080
00000100: 0080 0000 0000 0000 0000 0080 0080 0080
00000110: 0000 0080 0080 0000 0080 0000 0000 0080
00000120: 0000 0080 0000 0080 0000 0080 0000 0000
00000130: 0080 0000 0080 0000 0000 0080 0080 0000
00000140: 0080 0080 0080 0000 0080 0080 0080 0080
00000150: 0080 0080 0000 0080 0080 0080 0080 0080
00000160: 0080 0080 0080 0080 0080 0000 0080 0000
00000170: 0000 0080 0080 0000 0080 0000 0080 0000
00000180: 0000 0000 0000 0000 0080 0080 0000 0080
00000190: 0080 0000 0080 0080 0000 0000 0080 0080
000001a0: 0080 0080 0000 0000 0080 0000 0080 0000
000001b0: 0080 0000 0080 0080 0000 0000 0000 0080
000001c0: 0000 0080 0080 0080 0080 0080 0080 0000
000001d0: 0000 0080 0080 0000 0080 0000 0080 0000
000001e0: 0080 0080 0000 0080 0080 0000 0000 0080
000001f0: 0000 0000 0080 0080 0080 0080 0000 0000
-0.0 -0.0 -0.0 0.0 0.0 0.0 0.0 0.0
0.0 0.0 0.0 0.0 -0.0 0.0 0.0 -0.0
-0.0 -0.0 -0.0 0.0 -0.0 0.0 -0.0 0.0
-0.0 -0.0 -0.0 -0.0 -0.0 -0.0 -0.0 -0.0
-0.0 -0.0 0.0 -0.0 -0.0 0.0 0.0 0.0
-0.0 -0.0 0.0 -0.0 0.0 -0.0 -0.0 -0.0
0.0 0.0 -0.0 -0.0 -0.0 0.0 -0.0 0.0
0.0 0.0 0.0 -0.0 0.0 0.0 -0.0 -0.0
0.0 -0.0 -0.0 -0.0 0.0 0.0 -0.0 -0.0
-0.0 -0.0 -0.0 0.0 0.0 -0.0 -0.0 0.0
0.0 -0.0 0.0 -0.0 0.0 0.0 -0.0 0.0
-0.0 -0.0 0.0 0.0 0.0 0.0 0.0 -0.0
0.0 0.0 -0.0 0.0 -0.0 0.0 0.0 -0.0
-0.0 0.0 -0.0 -0.0 -0.0 -0.0 -0.0 -0.0
-0.0 -0.0 0.0 0.0 -0.0 0.0 0.0 0.0
0.0 -0.0 -0.0 0.0 -0.0 0.0 -0.0 -0.0
-0.0 0.0 0.0 0.0 0.0 -0.0 -0.0 -0.0
0.0 -0.0 -0.0 0.0 -0.0 0.0 0.0 -0.0
0.0 -0.0 0.0 -0.0 0.0 -0.0 0.0 0.0
-0.0 0.0 -0.0 0.0 0.0 -0.0 -0.0 0.0
-0.0 -0.0 -0.0 0.0 -0.0 -0.0 -0.0 -0.0
-0.0 -0.0 0.0 -0.0 -0.0 -0.0 -0.0 -0.0
-0.0 -0.0 -0.0 -0.0 -0.0 0.0 -0.0 0.0
0.0 -0.0 -0.0 0.0 -0.0 0.0 -0.0 0.0
0.0 0.0 0.0 0.0 -0.0 -0.0 0.0 -0.0
-0.0 0.0 -0.0 -0.0 0.0 0.0 -0.0 -0.0
-0.0 -0.0 0.0 0.0 -0.0 0.0 -0.0 0.0
-0.0 0.0 -0.0 -0.0 0.0 0.0 0.0 -0.0
0.0 -0.0 -0.0 -0.0 -0.0 -0.0 -0.0 0.0
0.0 -0.0 -0.0 0.0 -0.0 0.0 -0.0 0.0
-0.0 -0.0 0.0 -0.0 -0.0 0.0 0.0 -0.0
0.0 0.0 -0.0 -0.0 -0.0 -0.0 0.0 0.0

arith.constant44 f2 [6, 3]
00000000: 0080 0000 0000 0080 0000 0080 0000 0080
00000010: 0080 0000 0000 0000 0000 0080 0000 0000
00000020: 0000 0080
-0.0 0.0 0.0 -0.0 0.0 -0.0 0.0 -0.0
-0.0 0.0 0.0 0.0 0.0 -0.0 0.0 0.0
0.0 -0.0

arith.constant45 f2 [3, 6]
00000000: 0080 0000 0000 0080 0000 0080 9c0f fe93
00000010: 0080 0080 0000 1315 560e 9893 0000 0000
00000020: 0000 ea15
-0.0 0.0 0.0 -0.0 0.0 -0.0 0.0004644 -0.0009756
-0.0 -0.0 0.0 0.001239 0.0003867 -0.000927 0.0 0.0
0.0 0.001444

arith.constant46 f2 [3, 6]
00000000: 0000 0000 0000 0000 0080 0000 a70e 5d91
00000010: 0080 0000 0080 9606 0080 0080 0080 0080
00000020: 0000 0080
0.0 0.0 0.0 0.0 -0.0 0.0 0.000406 -0.0006547
-0.0 0.0 -0.0 0.0001005 -0.0 -0.0 -0.0 -0.0
0.0 -0.0

arith.constant47 f2 [1, 160]
00000000: f597 07ab 70ab bfa8 d52e 9825 7230 fb2e
00000010: c42d 55b1 57a3 a62c 639a 772f b531 2a27
00000020: 1cae 1d34 9e30 37ab 6ead d9ae 9b32 dbaf
00000030: 74a2 16ac 9c36 0bac a9ae 83af a930 e830
00000040: 90b3 532a 6830 0bb4 459c 60b1 7eb0 7830
00000050: e124 bca8 92a8 0d2d e734 cb31 1b2b 0b31
00000060: 2732 892b 0d2f a32c 652c 8822 f426 e4ac
00000070: 8996 6a31 06b5 7caa b5a3 7923 4d30 0aaf
00000080: a02c ad31 2b2e e332 1522 8aad e2b0 f2a6
00000090: a729 cd32 9332 2c2a 1ba1 fc31 5330 09a7
000000a0: 21ad 20ac a5ac 92a1 c42a 1028 5bad e8ac
000000b0: 442e 4f34 b931 322f b6ae 26ad b526 1322
000000c0: 05aa 6d2c 8bac beac 78a0 22a3 88b4 40ac
000000d0: 34b1 f630 f62e 13b0 6c2e 4b2f 9325 d531
000000e0: b49e 3526 c22e 31af a2ac 57ac d7b3 34ad
000000f0: c6a9 adae a530 05a8 6030 1fae 3630 3831
00000100: c0ac 292d 6e2b bab0 1aad 77ad 891f 6c2e
00000110: 01ac 3f30 5030 9432 c930 34b4 3bac 17b0
00000120: 65ac 9daf e5ae 8328 0aac 9baf 092a 1faf
00000130: 40aa 2633 3c36 fcb1 9baa ee28 999f 7bae
-0.001943 -0.0549 -0.0581 -0.03708 0.10675 0.02185 0.1389 0.1091
0.0901 -0.1666 -0.014336 0.07263 -0.003119 0.11664 0.1783 0.02798
-0.09546 0.257 0.1443 -0.05637 -0.08484 -0.107 0.2064 -0.12274
-0.0126 -0.06384 0.413 -0.0632 -0.10406 -0.1174 0.1456 0.1533
-0.2363 0.0494 0.1377 -0.2527 -0.00417 -0.168 -0.1404 0.1396
0.01906 -0.037 -0.0357 0.0789 0.3064 0.181 0.0555 0.1576
0.1923 0.05887 0.11017 0.07245 0.06866 0.01276 0.02716 -0.0764
-0.0015955 0.1692 -0.314 -0.05066 -0.01505 0.014595 0.1344 -0.11
0.07227 0.1774 0.0964 0.2152 0.01188 -0.08655 -0.1526 -0.02713
0.04416 0.2125 0.2054 0.04822 -0.00997 0.187 0.1351 -0.02748
-0.08014 -0.06445 -0.0726 -0.01088 0.05286 0.03174 -0.0837 -0.07666
0.0979 0.2693 0.1788 0.1124 -0.10486 -0.08044 0.0262 0.01186
-0.04703 0.06915 -0.071 -0.0741 -0.00873 -0.01393 -0.2832 -0.0664
-0.1626 0.155 0.10876 -0.1273 0.10034 0.11395 0.02177 0.1823
-0.006546 0.02425 0.1056 -0.11237 -0.0724 -0.0678 -0.245 -0.0813
-0.0451 -0.1043 0.1451 -0.0314 0.1367 -0.09564 0.1316 0.1631
-0.0742 0.0806 0.05804 -0.1477 -0.0797 -0.0854 0.00736 0.10034
-0.06256 0.1327 0.1348 0.2056 0.1495 -0.2627 -0.0661 -0.1278
-0.06866 -0.11896 -0.1077 0.03525 -0.0631 -0.11884 0.04715 -0.11127
-0.04883 0.2234 0.3896 -0.187 -0.0516 0.0385 -0.00742 -0.10126

arith.constant48 f2 [16, 3, 3, 3]
00000000: 341d e934 dfa4 732d a0a2 5f31 fbb4 b7b0
00000010: a735 212c 53ae 7bb3 3db5 ef9d 3ba9 fbb0
00000020: d927 f635 4634 a0af 78b1 992e 2eb6 aeb6
00000030: 5a36 60a6 9b2d 5ca9 4831 5136 2499 652a
00000040: 97ad 11ae 42b2 582e 3034 c835 6535 012d
00000050: aeaa de2a cab0 16b7 e0b1 3831 c629 0db1
00000060: 28b1 3cab fdb1 1732 d9b4 a9b2 0b2c b730
00000070: cbb0 e22c d631 df29 0a30 1531 d430 37b0
00000080: 0cb0 861d e29f 97a1 4ba8 62a9 b326 2da0
00000090: 11b0 f5ab 10af 73a7 d3a7 1130 fb29 4a1e
000000a0: 612f 04bb 40b5 37ad 14af 29a0 c939 5334
000000b0: c330 bd30 2f36 e331 5339 db35 b031 5126
000000c0: bbb4 a8b4 4eb5 cab0 5831 c3b0 0228 dfac
000000d0: 72ba d133 0b31 72b0 4fb1 252b bba9 f2a7
000000e0: 8827 74a9 df2a f22e 712b 35a6 8f2d 0b2c
000000f0: 7f30 6634 9330 e22a 232e b7aa b8ac 252d
00000100: fe23 71a3 97ab d424 052e ffb4 ebb3 19b3
00000110: 13b3 8836 a82e d89c 9c31 92b1 ef35 10b8
00000120: ebb2 7eb0 01b5 e82a 1ab7 8fba ce35 22a1
00000130: dab4 f938 5f39 d53b eab5 642d 2d29 3929
00000140: f5b5 8230 13b4 a52c 9eba 0038 4c34 6da5
00000150: 01a9 ba37 8eac edb8 f1b6 c7b5 c538 0b3a
00000160: f232 a1af b929 e1a9 0eb8 58b4 b2b0 8835
00000170: 0d34 043c bfb5 30b7 dbb0 3035 a731 0c30
00000180: 6732 c7ac cbac 6bb5 a1b1 c9b5 f1b1 8aab
00000190: 9bb2 1ab2 61b3 69b5 e833 be32 5e38 80b1
000001a0: 06b4 5532 c72d a52b 152b 122c e728 dd28
000001b0: 0738 8039 34ae 62ab c32f 8535 48b4 aeb7
000001c0: 67b5 c231 63a5 cda8 0ba7 7c30 6c2d ceb6
000001d0: 43b4 68ad a3ab 73b8 27b8 4fb3 ab34 f537
000001e0: 6634 b934 5c32 a7a1 f1ad a52e f822 57a2
000001f0: 0da5 1fa7 39b0 3fb0 2fb2 a699 932e b222
0.00508 0.307 -0.01903 0.08514 -0.01294 0.1678 -0.3113 -0.1473
0.3533 0.0645 -0.0988 -0.2338 -0.3274 -0.005795 -0.04086 -0.1556
0.03065 0.3726 0.267 -0.11914 -0.1709 0.1031 -0.3862 -0.4175
0.397 -0.0249 0.0876 -0.04187 0.165 0.3948 -0.00251 0.04996
-0.08734 -0.0948 -0.1956 0.0991 0.2617 0.3613 0.3372 0.0782
-0.0522 0.05365 -0.1497 -0.4429 -0.1836 0.1631 0.0451 -0.1578
-0.1611 -0.05652 -0.1871 0.1903 -0.303 -0.2081 0.0632 0.1473
-0.1498 0.0763 0.1824 0.04587 0.1262 0.1588 0.1509 -0.1317
-0.1265 0.005394 -0.007698 -0.01092 -0.03354 -0.04205 0.02617 -0.008156
-0.1271 -0.06216 -0.11035 -0.0291 -0.03056 0.1271 0.04672 0.00614
0.1153 -0.877 -0.3281 -0.0815 -0.1106 -0.008125 0.723 0.2703
0.1488 0.1481 0.3865 0.184 0.6655 0.366 0.1777 0.02467
-0.2957 -0.291 -0.3315 -0.1497 0.167 -0.1488 0.0313 -0.0761
-0.8057 0.2443 0.1576 -0.1389 -0.1659 0.05582 -0.04477 -0.03104
0.02942 -0.0426 0.05368 0.1085 0.05814 -0.02425 0.08685 0.0632
0.1405 0.275 0.143 0.05377 0.0959 -0.05246 -0.0737 0.0804
0.01561 -0.014534 -0.0593 0.01886 0.09406 -0.3123 -0.2474 -0.2218
-0.2211 0.4082 0.104 -0.00473 0.1753 -0.1741 0.3708 -0.508
-0.2162 -0.1404 -0.3127 0.05396 -0.4438 -0.82 0.3628 -0.010025
-0.3032 0.6216 0.6714 0.979 -0.3696 0.0842 0.04044 0.0408
-0.3723 0.1409 -0.2546 0.0726 -0.827 0.5 0.2686 -0.0212
-0.0391 0.483 -0.07117 -0.6157 -0.4338 -0.361 0.596 0.7554
0.217 -0.1192 0.0447 -0.04593 -0.507 -0.2715 -0.1467 0.3457
0.2532 1.004 -0.3591 -0.4492 -0.1517 0.3242 0.1766 0.1265
0.2001 -0.07465 -0.0749 -0.3386 -0.1759 -0.3616 -0.1857 -0.0589
-0.2064 -0.1907 -0.2306 -0.3381 0.2471 0.2107 0.546 -0.1719
-0.2515 0.1979 0.0903 0.05972 0.05533 0.0636 0.0383 0.038
0.5034 0.6875 -0.0969 -0.05768 0.1213 0.345 -0.2676 -0.48
-0.3376 0.1799 -0.02104 -0.0375 -0.02751 0.1401 0.0847 -0.4253
-0.2664 -0.0845 -0.05966 -0.556 -0.519 -0.2284 0.2917 0.4973
0.275 0.2952 0.1987 -0.01104 -0.09283 0.1038 0.01361 -0.01238
-0.01973 -0.02782 -0.132 -0.1327 -0.1932 -0.002758 0.1027 0.01308

arith.constant49 f2 [32, 3, 3, 32]
00000000: a623 0f2d 0d9e a121 b9ae 3b27 a425 96ac
00000010: 1229 dcac 6c21 292d 91a7 6c2b c4a6 5e1b
00000020: 5ca9 b524 9b2e 3029 b4a4 102e e6ad 4f1e
00000030: 14a0 5a9e 62ad f7a9 622b 0124 6aa9 251a
00000040: 1b1c 0a2f 1197 8320 acac c72c 3b21 16aa
00000050: 5f0e c4ac cf26 d32d edac 912c 7328 b51d
00000060: 30a5 51a2 372c 8327 1b2a dd2c cda8 782b
00000070: 4a24 3930 72ad d7a4 372e 9528 b3aa 3fa4
00000080: fd29 7a2c 1b26 5229 23ae 992e 782f 8fa6
00000090: d0aa 9da8 b628 fd1a 64aa 1e2e 621f 912f
000000a0: 10a2 9ea2 b323 0da8 182d 902e 6b27 482b
000000b0: 442d 1b2f 71ad 9622 1a2e 7028 e9a8 4ea4
000000c0: db2c 721f 20a9 452a db2b 0fad aa28 04ad
000000d0: 5fa3 b6ab b629 9ea8 c8ae 8fa8 fa0c 2a2f
000000e0: 8f2d 25b0 95a9 252c 1825 232c 7f2a 6797
000000f0: e1a8 71a9 d5a9 3117 a7a6 56ad acab 58a9
00000100: 032e 3201 06ad f42d 6225 579b a92c 90ac
00000110: 19ad a0a6 0ba8 4ba8 dfae 9226 d719 64a5
00000120: 3727 1721 731a 83a7 501e a128 8218 dda6
00000130: 92ad 78a8 cca9 de20 68a5 e0ae e020 7415
00000140: 0f25 62b0 a9b1 a729 be19 64ac 79a9 152a
00000150: b7a7 37a8 e118 7f2a 09ab 1aa0 c51b ac25
00000160: f12e eb29 2026 a225 4125 05a4 8c26 04a8
00000170: 82ae 9d89 0b25 ae0f 38ae 56ae 49a7 8a2c
00000180: d8a8 97b2 2bb1 2c1b 011e 93ae 5caa 76a0
00000190: 6625 e2aa a829 54af 65af 6430 b729 16a8
000001a0: 752f 5d2a ccaf 2cb1 9930 34aa 5425 681a
000001b0: 9eac 8a2c 062e 0d9b c1af 9dad a922 a92a
000001c0: 73a0 f425 72ad b811 9024 af2a 9d26 32ad
000001d0: 83aa 75a6 ae2c 1fae 37ad 7fae d927 25a2
000001e0: 5c9f 43a9 20ad 5aad e2a6 4eac 4126 ffac
000001f0: 3faa 4aaf 8a9b 50a0 69a8 66b0 521a 47ac
0.01494 0.07904 -0.00591 0.010994 -0.10504 0.02824 0.02203 -0.07166
0.0396 -0.0759 0.01059 0.0806 -0.02956 0.05798 -0.02643 0.003597
-0.04187 0.01839 0.1032 0.04053 -0.01837 0.0947 -0.09216 0.00616
-0.007965 -0.006203 -0.0841 -0.0466 0.05768 0.01564 -0.0423 0.003
0.00401 0.11 -0.001725 0.00881 -0.073 0.07465 0.010216 -0.04755
0.0003889 -0.07446 0.0266 0.091 -0.07697 0.07135 0.03476 0.005573
-0.02026 -0.01234 0.06586 0.02934 0.0477 0.076 -0.0375 0.05835
0.01675 0.132 -0.0851 -0.0189 0.0971 0.0358 -0.05234 -0.01659
0.04678 0.06995 0.02385 0.04156 -0.0959 0.1031 0.1167 -0.02562
-0.05322 -0.03604 0.0368 0.003412 -0.04993 0.0956 0.00721 0.1182
-0.01184 -0.012924 0.01504 -0.03165 0.0796 0.10254 0.02898 0.0569
0.0823 0.111 -0.085 0.01286 0.09534 0.03467 -0.03836 -0.01682
0.07587 0.00727 -0.04004 0.04898 0.06137 -0.07904 0.03644 -0.07837
-0.0144 -0.06024 0.04462 -0.03607 -0.10596 -0.0356 0.0003037 0.11194
0.08685 -0.1295 -0.0436 0.06476 0.0199 0.06464 0.05075 -0.001807
-0.03812 -0.0425 -0.04556 0.001756 -0.02599 -0.0834 -0.05994 -0.04175
0.09393 1.824e-05 -0.0785 0.093 0.02103 -0.003584 0.0728 -0.0713
-0.07965 -0.02588 -0.0316 -0.03354 -0.10736 0.02567 0.002851 -0.02106
0.02818 0.00994 0.003149 -0.02934 0.006165 0.03616 0.002201 -0.02681
-0.08704 -0.0349 -0.0453 0.00951 -0.02112 -0.1074 0.00952 0.001331
0.01976 -0.137 -0.1769 0.04416 0.002804 -0.0686 -0.04276 0.04752
-0.03014 -0.03293 0.002382 0.05075 -0.05496 -0.00801 0.003794 0.02216
0.10846 0.04623 0.02393 0.022 0.02052 -0.0157 0.02557 -0.03137
-0.1017 -0.0001713 0.0197 0.0004687 -0.09717 -0.099 -0.02846 0.0709
-0.03784 -0.2059 -0.1615 0.003502 0.005863 -0.1027 -0.04968 -0.00871
0.02109 -0.05377 0.0442 -0.1145 -0.11554 0.1372 0.04465 -0.03192
0.1165 0.0497 -0.1218 -0.1616 0.1437 -0.04846 0.02081 0.003128
-0.07214 0.0709 0.0941 -0.003443 -0.12115 -0.0877 0.01301 0.05203
-0.00869 0.02325 -0.0851 0.000698 0.01782 0.05222 0.02583 -0.0812
-0.05087 -0.02522 0.0731 -0.09564 -0.0815 -0.1015 0.03065 -0.012
-0.007187 -0.0411 -0.0801 -0.0836 -0.02689 -0.06726 0.02443 -0.07806
-0.0488 -0.1139 -0.003681 -0.00842 -0.03445 -0.1375 0.003086 -0.06683

arith.constant50 f2 [32, 3, 3, 32]
00000000: 81b2 c0ab 5c30 b0a7 84ad 1fa6 1ab1 0125
00000010: 0fad 5130 e6b3 1f26 f52d 3624 8926 f9b1
00000020: 632d 2cb5 56ac 6e30 da31 eeb0 57a9 902c
00000030: cb2e 092d 492f dea6 572f a8a4 d22b d7b2
00000040: 50ad f5aa dc20 eda5 01b0 992a 48a7 eaac
00000050: 27a4 5622 82b2 a230 402d ab21 44a9 022d
00000060: cbad daa7 f9b0 1dae d52b 39af c1ad b72b
00000070: d2ad 422b 34b3 8030 f7a9 81b4 55ac a5b4
00000080: 20ad 792d 5726 4a2c 7f2b 352b 4630 272d
00000090: c2a1 55a4 e3ac dea7 361d 34a5 4620 3a24
000000a0: 57ae 4031 102a 1ab0 242d 99af b4ac ef33
000000b0: a6a6 1f9f a9b3 862b 6028 87b1 b7af a9b4
000000c0: f2ac f72c a32b d927 09af da2f 1da4 0932
000000d0: c5aa 032d 3db1 b6aa 0ea6 05a4 4ead 0db4
000000e0: f820 71b0 9da0 6f2d d62b 28a9 d12c 652e
000000f0: 7827 b52a fda1 14ad f62c 0e23 0eaf 9bad
00000100: aaae 0aa3 4230 15ae ffab 6ba8 7db0 5f2a
00000110: b72b a3b2 8dae b22c d2af c2a1 baa6 62b3
00000120: 92aa 5f2e 60ae ea2a 6828 f9a3 772e f6ae
00000130: 6228 4925 c9a9 51a5 12b0 32ad 84a8 acae
00000140: 0f18 17af 4534 0b26 ec2e acaf 10ae 8aae
00000150: 5e9c d728 3dab ad2d 8eb0 0b2d f12c c499
00000160: f0ac d431 5f1f 5a2b eba6 79a7 2c29 51a3
00000170: 70aa 6c29 732d 5c30 aaa2 3e2d ffac bab1
00000180: ddb0 91a9 11a7 40b1 cd2d 072c af30 6ca5
00000190: ce31 3627 9b1e 491f 0330 96ac bbad 51b1
000001a0: 9a31 0126 daac 7626 2825 dbb1 c4a6 8394
000001b0: 81b3 95a9 88b2 b722 579d 8f24 13b0 53b2
000001c0: 21b1 3ba9 c5b0 49ae de25 2b30 e130 d1b2
000001d0: 6f31 22ab bd28 d92f 9baf 5621 9217 06b1
000001e0: c9b1 8f2d 3c2a 07ac 1027 bc24 532c 8eb3
000001f0: c92b 7c31 962b a82b 35b6 f0a9 87b3 09b0
-0.2032 -0.06055 0.1362 -0.03003 -0.0862 -0.02391 -0.1594 0.01955
-0.07904 0.1349 -0.2468 0.02391 0.0931 0.01645 0.02553 -0.1866
0.08417 -0.3232 -0.06775 0.1384 0.1829 -0.154 -0.04172 0.0713
0.10614 0.0787 0.11383 -0.02682 0.1147 -0.01819 0.0611 -0.2137
-0.083 -0.05435 0.00949 -0.02315 -0.1251 0.05154 -0.02844 -0.0768
-0.01622 0.012375 -0.2034 0.1448 0.08203 0.01107 -0.04114 0.07825
-0.0905 -0.03067 -0.1554 -0.0955 0.0612 -0.11285 -0.0899 0.06027
-0.09094 0.0567 -0.2251 0.1406 -0.0466 -0.2815 -0.0677 -0.2903
-0.0801 0.0855 0.02477 0.067 0.05856 0.0563 0.1335 0.0805
-0.011246 -0.01692 -0.07635 -0.03073 0.00509 -0.02032 0.00835 0.01651
-0.09906 0.1641 0.04736 -0.1282 0.0803 -0.1187 -0.0735 0.2479
-0.02597 -0.006954 -0.2394 0.05878 0.03418 -0.1727 -0.12054 -0.2913
-0.0773 0.0776 0.05966 0.03065 -0.1099 0.1227 -0.01607 0.1886
-0.0529 0.0783 -0.1637 -0.05243 -0.02365 -0.0157 -0.0829 -0.2532
0.009705 -0.1388 -0.00901 0.0849 0.06122 -0.04028 0.07526 0.0999
0.02917 0.0524 -0.011696 -0.07935 0.0775 0.01378 -0.1102 -0.0876
-0.1041 -0.01375 0.133 -0.09503 -0.06247 -0.03452 -0.1403 0.04977
0.06027 -0.2074 -0.10236 0.07336 -0.1222 -0.011246 -0.02628 -0.2307
-0.05133 0.09955 -0.0996 0.05402 0.03442 -0.01557 0.101 -0.10876
0.03424 0.02065 -0.0452 -0.02077 -0.1272 -0.0812 -0.03528 -0.10425
0.001982 -0.1108 0.2668 0.0236 0.10815 -0.1199 -0.0947 -0.1022
-0.004265 0.0378 -0.05655 0.0887 -0.1423 0.0788 0.0772 -0.002815
-0.07715 0.1821 0.0072 0.05743 -0.02702 -0.02919 0.0404 -0.01429
-0.0503 0.04236 0.08514 0.1362 -0.013016 0.0819 -0.07806 -0.179
-0.152 -0.0435 -0.0276 -0.1641 0.09064 0.0629 0.1464 -0.02118
0.1814 0.02817 0.00645 0.007114 0.1254 -0.07166 -0.08954 -0.1661
0.175 0.02345 -0.0758 0.02524 0.02014 -0.183 -0.02643 -0.0011015
-0.2345 -0.0436 -0.2041 0.013115 -0.005215 0.0178 -0.1273 -0.1976
-0.1603 -0.04086 -0.149 -0.0982 0.02292 0.1302 0.1525 -0.213
0.1698 -0.05573 0.03702 0.1226 -0.11884 0.01042 0.001848 -0.157
-0.1808 0.08685 0.0487 -0.0629 0.02759 0.0185 0.06757 -0.2361
0.06082 0.1714 0.05927 0.0598 -0.388 -0.0464 -0.2352 -0.1261

arith.constant51 f2 [32, 3, 3, 32]
00000000: c2a9 a0a1 4d32 ca21 0c2e 7bad 3834 642d
00000010: 272b 07ac 4624 f3a5 16a8 c6ad b01e d7a6
00000020: 47ac f02d 76a2 e92d a7a9 d7ad 3128 412e
00000030: 8da7 5baa e92c 422c 482f 39ad 0828 dc30
00000040: b02b 8daa 82a6 6b29 0b2c 6d24 7b26 eb2a
00000050: 2a2c 72ac dd29 3729 8430 d6aa 8331 812c
00000060: 52ab 732c e9ab 8527 a130 2224 269a aaa9
00000070: 08a8 b72d d22e 90a1 5bad 91ac 699d 97af
00000080: 33ac ae27 51ae 592c b5b1 88ac b62e 982a
00000090: bf28 7e28 14ae cb19 58a4 7aa6 ce31 7320
000000a0: 592d 459d f9ac 26a5 96a8 ccb0 bb2e 76a4
000000b0: 8fad 7e28 c429 d82e 2830 d629 66ac 0c99
000000c0: bcb0 fe1b dd1e 9f22 3cab 85af 5c27 9eac
000000d0: 2bb4 f1ad 652a 039d b5ab 792b 122a 9fac
000000e0: 3e23 2ab0 54a6 57a4 9cae ae2a 2eac d2b1
000000f0: 94ae 2b2d 112c ea1e a62a b22c b72b e3b0
00000100: fc2b 01ab 5a28 1e29 002c 402e 6baf 90ab
00000110: c214 f3ad 38a8 1b31 2eae 8626 242c 1d28
00000120: 342b baad 182c ad29 ac2c a7a5 e22e bbb0
00000130: 152d dca8 af30 5c31 ea2d cf2a 0c29 adaf
00000140: 7d20 7db0 62a9 e828 8d30 78b4 a9b1 7e28
00000150: c930 7925 1529 d8ae 3f29 2ea8 2ea3 6ca2
00000160: 5ea1 44b0 139e 7bac 1cad 93ac 652e 4e2c
00000170: 7829 972a d916 862c 891f 0228 8531 05a9
00000180: d428 6ab0 6628 092d f11f 9421 832d b6ac
00000190: 8e2c 3a9c b4af 8eab 602b 07a1 4616 3e2a
000001a0: 9eab 5f28 dba6 3da9 e82d 471e c31c 4b9d
000001b0: c4ab 07a2 712a dd2d c198 c42e 3629 e621
000001c0: e6ad 532d f033 1f30 3328 682a 1120 b329
000001d0: 2626 77aa 2a2b bcaf 5cb2 d313 4a9d c82b
000001e0: 832c 972e 0930 932e 959c 7b2b 46ac adb2
000001f0: 1a2d e530 d32d 40ac 4a21 ea2f cf31 1a30
-0.04498 -0.01099 0.1969 0.01131 0.0945 -0.08563 0.2637 0.0842
0.05588 -0.0629 0.0167 -0.02324 -0.03192 -0.0902 0.00653 -0.02672
-0.06683 0.0928 -0.01262 0.09235 -0.04416 -0.09125 0.03275 0.0977
-0.0295 -0.04965 0.0767 0.0665 0.1138 -0.0816 0.0315 0.1519
0.06006 -0.05118 -0.02542 0.04233 0.0632 0.01729 0.02531 0.05405
0.06506 -0.06946 0.0458 0.04074 0.1411 -0.0534 0.1722 0.0704
-0.0572 0.0695 -0.0618 0.02937 0.1447 0.01614 -0.003002 -0.04425
-0.0315 0.0893 0.10657 -0.010864 -0.0837 -0.07135 -0.005283 -0.1186
-0.0656 0.03 -0.0987 0.06793 -0.1783 -0.0708 0.10486 0.0515
0.03708 0.0351 -0.095 0.002829 -0.01697 -0.0253 0.1814 0.00869
0.08356 -0.005146 -0.0777 -0.02011 -0.03583 -0.1499 0.10516 -0.01743
-0.08685 0.0351 0.04504 0.10693 0.1299 0.0456 -0.0687 -0.002464
-0.148 0.003902 0.006702 0.01293 -0.05652 -0.1175 0.02875 -0.07214
-0.2605 -0.09283 0.04996 -0.004894 -0.0602 0.05838 0.04742 -0.0722
0.014145 -0.1301 -0.02472 -0.01695 -0.1033 0.0522 -0.0653 -0.1819
-0.1028 0.08075 0.06354 0.006752 0.05194 0.07336 0.06027 -0.1527
0.06238 -0.05472 0.034 0.03998 0.0625 0.09766 -0.1159 -0.05908
0.001162 -0.09296 -0.03296 0.1595 -0.09656 0.02548 0.0647 0.03214
0.05627 -0.0895 0.06396 0.04434 0.073 -0.02208 0.10754 -0.1478
0.0794 -0.03796 0.1464 0.1675 0.0924 0.0532 0.03943 -0.11993
0.008766 -0.1403 -0.04205 0.03833 0.1422 -0.2793 -0.1769 0.0351
0.1495 0.02138 0.0397 -0.10693 0.041 -0.03265 -0.01402 -0.01254
-0.01048 -0.1333 -0.00593 -0.07 -0.07983 -0.0715 0.0999 0.06726
0.04272 0.05148 0.001672 0.0707 0.00736 0.0313 0.1725 -0.0392
0.03772 -0.138 0.03436 0.0787 0.007755 0.010895 0.0861 -0.0736
0.07117 -0.004128 -0.12036 -0.05902 0.05762 -0.00982 0.001532 0.04877
-0.0595 0.03415 -0.02678 -0.04092 0.0923 0.00613 0.00465 -0.00517
-0.06067 -0.01177 0.05032 0.0916 -0.002321 0.1057 0.0407 0.01152
-0.09216 0.0832 0.248 0.1288 0.0328 0.05005 0.00794 0.04453
0.02402 -0.0505 0.05597 -0.12085 -0.1987 0.000955 -0.005165 0.0608
0.0705 0.10297 0.1261 0.1027 -0.004475 0.05844 -0.0668 -0.2086
0.0797 0.153 0.091 -0.0664 0.01033 0.12366 0.1815 0.1282

arith.constant52 f2 [10, 1, 1, 32]
00000000: 1bab abb6 d3b8 4d2b 55b8 c9ad d838 f3b6
00000010: afb3 5e36 20b0 36b4 c531 d334 8e38 ebaf
00000020: 1337 43b0 3118 7ab6 00b9 4e37 74b5 a1b5
00000030: 4030 c435 09b4 ab3b d0b3 3cae 78b5 15b0
00000040: cab8 26b8 6534 4dab b7b4 beb4 a30d 272f
00000050: e8b6 1938 402e d8ad 62af 633a b9b4 30a8
00000060: b6b9 a632 e632 cab5 adb9 51b8 feba 1534
00000070: 43ad 44aa 6f34 deb1 093b 5731 83b8 4d2f
00000080: 5035 362f 14bb 52b8 deb8 fdb4 e832 f438
00000090: 8e2d a6bc e724 ca2d 6eb0 4a32 e9b6 4734
000000a0: ccb9 9d15 f228 4a3a 4239 04b7 d2aa 02bb
000000b0: 46ae 7c30 aebb 9e25 b9b5 7634 7935 f2b9
000000c0: 69bc 3931 dcb7 8e37 ccb6 31ac 8bb4 e5ba
000000d0: 2f38 3f2f 35b8 87b8 32b1 d430 dc39 f330
000000e0: c936 f634 c8b8 b5b4 01b8 be35 ddb7 59b2
000000f0: 1034 832c bf31 1730 9023 9bb6 75b9 b1b7
00000100: 41a6 89b8 7827 fc31 c0b9 d6b3 8b2c 5938
00000110: 173c 0435 d232 57b5 f738 a0b7 ecb2 f237
00000120: 5236 63bc 92b8 7235 4135 8b30 03b2 f925
00000130: 81b1 3eac 73b2 ae32 19b8 2fb4 f135 d9b8
00000140: 87b6 c6a8 0eb9 3d35 133c bab0 a11f 752e
00000150: 532f 95b8 162d 2bb6 7fac edb8 00b3 dea2
00000160: 7ab8 5ba4 c8b1 dd36 b136 273b 4835 60bb
00000170: 3e39 5f22 1938 61b4 72b7 baba ab35 2ab6
00000180: db33 82b5 10b2 a2a8 1a34 8e37 6834 7e2f
00000190: 8bab b1b8 c2b7 7236 07ac 4c2f 8fa4 29b5
000001a0: fb34 74ae a8ab 3eb1 42b3 e0b3 ba38 1121
000001b0: 0733 f9a9 83b3 83ae b6b5 1bb9 d6a5 f7b4
000001c0: 422a 6eab c838 76b6 09b1 3e30 a9a8 3935
000001d0: f1a9 c332 9434 ea31 b3b3 7eb4 24b1 65b7
000001e0: 99b2 e4b8 39ba 6e36 cbb8 48ba 8e38 94b6
000001f0: ab2e 552c 5b35 cd30 f034 2cb5 5b39 79ab
-0.0555 -0.4167 -0.603 0.05704 -0.5415 -0.0904 0.6055 -0.4343
-0.2401 0.398 -0.1289 -0.2632 0.1803 0.3015 0.5693 -0.1237
0.4421 -0.1332 0.002047 -0.4048 -0.625 0.4565 -0.3408 -0.3518
0.1328 0.3604 -0.2522 0.9585 -0.2441 -0.0974 -0.3418 -0.1276
-0.5986 -0.5186 0.2747 -0.05704 -0.2947 -0.2964 0.000344 0.11176
-0.4316 0.512 0.09766 -0.0913 -0.11536 0.7983 -0.2952 -0.0327
-0.714 0.2078 0.2156 -0.3618 -0.7095 -0.5396 -0.874 0.2551
-0.0822 -0.04895 0.277 -0.1833 0.8794 0.1669 -0.564 0.1141
0.332 0.1127 -0.885 -0.54 -0.6084 -0.3118 0.2158 0.619
0.0868 -1.162 0.01915 0.09045 -0.1384 0.1965 -0.432 0.2673
-0.7246 0.00137 0.03864 0.786 0.657 -0.4385 -0.05328 -0.876
-0.098 0.1401 -0.96 0.02194 -0.3577 0.2788 0.342 -0.743
-1.103 0.1632 -0.4912 0.4722 -0.4248 -0.0655 -0.284 -0.862
0.523 0.1132 -0.526 -0.566 -0.1624 0.1509 0.7324 0.1547
0.424 0.31 -0.5977 -0.2942 -0.5005 0.359 -0.4915 -0.1984
0.254 0.0705 0.1796 0.1278 0.01477 -0.4128 -0.682 -0.4807
-0.02443 -0.567 0.02917 0.187 -0.7188 -0.2449 0.071 0.5435
1.022 0.3135 0.2131 -0.3337 0.6206 -0.4766 -0.2163 0.4966
0.395 -1.097 -0.5713 0.3403 0.3284 0.142 -0.1879 0.02333
-0.172 -0.0663 -0.2015 0.2087 -0.512 -0.2615 0.3713 -0.606
-0.408 -0.0373 -0.632 0.3274 1.019 -0.1477 0.00745 0.1009
0.11444 -0.5728 0.07947 -0.3855 -0.07025 -0.6157 -0.2188 -0.01341
-0.5596 -0.01701 -0.1807 0.429 0.4182 0.894 0.33 -0.922
0.6553 0.01244 0.512 -0.2737 -0.4653 -0.841 0.3542 -0.3853
0.2455 -0.3442 -0.1895 -0.0362 0.2563 0.4722 0.2754 0.11707
-0.05893 -0.5864 -0.4849 0.4028 -0.0629 0.114 -0.0178 -0.3225
0.3113 -0.1008 -0.0598 -0.1638 -0.2268 -0.2461 0.591 0.009895
0.2196 -0.04666 -0.2347 -0.10175 -0.357 -0.638 -0.0228 -0.3103
0.0489 -0.05804 0.5977 -0.4038 -0.1573 0.1326 -0.0364 0.3264
-0.04642 0.2113 0.2861 0.1848 -0.2406 -0.2808 -0.1606 -0.4622
-0.2062 -0.6113 -0.778 0.4019 -0.599 -0.785 0.5693 -0.4111
0.1042 0.0677 0.3347 0.15 0.3086 -0.3232 0.6694 -0.05838
