assets/ssrnet_age.onnx (onnx, 194248 bytes, 61 tensors)

404 f4 [32, 3, 3, 3]
-0.016297594 -0.07352693 0.014091603 0.09267874 -0.5580763 -0.5807072 0.2950128 0.2972206
0.6862025 -0.1478559 -0.37336975 0.51801366 0.13313518 -0.33672875 -0.47656223 0.330684
0.5220588 0.11070172 0.0076381927 0.6329623 0.71925044 -0.36649388 -1.0158799 -1.559063
0.13207203 0.6430053 0.30711693 -0.81520814 -0.5641274 1.2612094 -0.46228534 0.08563947
-0.10393102 0.63297904 -0.024348518 -0.4376525 -0.71397614 0.058819465 0.22274122 -0.20728442
0.24362123 -0.09945721 1.7837564 0.088620946 -1.100358 -1.1490817 -0.17609324 1.3410261
-0.30999318 0.24100138 0.40147305 0.30409345 0.2548062 -0.75720763 0.18038169 -0.035639036
-0.1558526 -0.23190784 -0.03153653 -0.42428857 0.16732293 0.17296906 -0.08899459 -0.7602356
-0.15012623 0.26918525 -0.44858655 -0.020003576 0.24278316 0.4298473 0.45060065 0.5906828
-0.81638616 -0.2325715 0.06064699 -0.5989377 0.050826795 0.024532745 0.15252851 0.66752094
0.4240637 -0.02088836 0.0010030116 -0.0056903176 -0.010783963 -0.02182189 0.0059200483 0.011508879
0.016320389 -0.020025507 0.010765803 0.015073916 0.014724109 0.004773567 -0.0040428485 0.0044651055
-0.016361155 -0.010706585 -0.053543553 0.04687334 0.092006676 0.024479013 0.041929882 0.14931646
0.09065421 0.065637514 0.084000245 0.027503584 0.090577476 0.16858645 -0.02671127 0.1866889
0.12001028 -0.03332551 -0.01678239 0.0546859 -0.09373496 0.008274032 0.046044417 0.006676586
0.027027193 0.023468519 -0.00066960865 -0.057874948 -0.097807676 -0.11202194 0.12705149 -0.0037171918
0.061232775 0.08932028 0.06436736 -0.040310998 -0.036550805 -0.01086594 -0.091823556 0.45641503
-0.1747268 -0.19840401 0.1960186 -0.12499035 -0.2886619 0.1323436 0.060139243 -0.23626822
0.49726716 -0.18235812 -0.33148238 0.29069936 0.09374717 -0.2947366 0.2305232 0.07961848
-0.3449259 0.36043435 -0.06330567 -0.20800087 0.19233131 -0.015976066 -0.28791323 0.123362176
0.13340761 -0.14921461 0.045778617 -0.11604456 -0.28580695 -0.27047426 -0.117290765 -0.13828571
0.5190269 0.44644257 0.012339421 -0.0992467 -0.17609198 -0.06756989 -0.17084901 -0.11141833
-0.17620002 0.578855 0.32011703 0.5342803 -0.21473628 -0.14199433 0.11117693 -0.42947552
-0.25037882 -0.24657664 0.24023427 0.14026278 0.021367334 0.30887228 0.34101066 0.0838938
0.12901108 0.13520396 0.0072706286 -0.10754354 -0.47363776 -0.11209888 0.17610516 0.10662176
0.33159375 -0.11883492 -0.1359203 -0.12119919 -0.35266042 -0.3869622 -0.40685782 0.3709411
0.0861778 0.35626963 0.031747468 0.066288926 0.09864904 -0.19827232 -0.27927783 0.13834096
0.06805786 -0.0021893433 0.0237703 -0.111695364 -0.121429734 0.06626998 -0.14691511 -0.15891692
-0.03489497 0.21977678 0.11625152 0.2806341 0.058891814 0.023991188 0.17628713 -0.048127636
0.015217727 -0.1221643 0.14786412 0.023631444 0.032738894 -0.10790048 -0.15466353 -0.17918012
-0.13938814 -0.20609353 -0.122756496 -0.05131636 -0.001194409 -0.05026845 0.059865773 0.058589175
0.045981765 -0.010172775 -0.03056228 -0.067538045 0.061591785 0.07539529 0.057673547 0.13817427
00000000: 8882 85bc 4995 96bd 78e0 663c 5ace bd3d
00000010: 17de 0ebf 3aa9 14bf eb0b 973e 4c2d 983e
00000020: f8aa 2f3f 8967 17be 522a bfbe 8b9c 043f
00000030: 9754 083e b667 acbe f7ff f3be 6a4f a93e
00000040: a5a5 053f 95b7 e23d ce49 fa3b d109 223f
00000050: cc20 383f 16a5 bbbe 5a08 82bf 608f c7bf
00000060: e43d 073e ff9b 243f 6e3e 9d3e 7bb1 50bf
00000070: a76a 10bf 4f6f a13f aab0 ecbe bf63 af3d
00000080: c9d9 d4bd ea0a 223f 8b76 c7bc fd13 e0be
00000090: 24c7 36bf aeec 703d 4616 643e 5e42 54be
000000a0: d877 793e 39b0 cbbd 2152 e43f e67e b53d
000000b0: 88d8 8cbf 1c15 93bf c951 34be bea6 ab3f
000000c0: 6db7 9ebe 11c9 763e e08d cd3e 23b2 9b3e
000000d0: f575 823e 5cd8 41bf fab5 383e 3dfa 11bd
000000e0: d397 1fbe 4079 6dbe 732c 01bd 5a3c d9be
000000f0: b456 2b3e cd1e 313e cc42 b6bd cd9e 42bf
00000100: b1ba 19be a6d2 893e 23ad e5be 8ade a3bc
00000110: 269c 783e f214 dc3e 21b5 e63e fd36 173f
00000120: affe 50bf 3927 6ebe fa68 783d fb53 19bf
00000130: c22f 503d e5f8 c83c 6f30 1c3e a7e2 2a3f
00000140: e11e d93e 111e abbc 7c77 833a d875 babb
00000150: 38af 30bc d2c3 b2bc f7fc c13b bd8f 3c3c
00000160: 56b2 853c 880c a4bc 0d63 303c 96f8 763c
00000170: 643d 713c 956b 9c3b df79 84bb 0550 923b
00000180: d407 86bc ac6a 2fbc 7c50 5bbd 42fe 3f3d
00000190: ff6d bc3d 3688 c83c abbe 2b3d 6ae6 183e
000001a0: eaa8 b93d f66c 863d 5208 ac3d 324f e13c
000001b0: af80 b93d eda1 2c3e 98d1 dabc 602b 3f3e
000001c0: f3c7 f53d 5480 08bd 397b 89bc 53fe 5f3d
000001d0: 1df8 bfbd ce8f 073c 1299 3c3d 43c7 da3b
000001e0: 2268 dd3c 0d41 c03c ad88 2fba 480e 6dbd
000001f0: 644f c8bd c26b e5bd c919 023e 219c 73bb
00000200: 38cf 7a3d 8ded b63d 09d3 833d 251d 25bd
00000210: 4cb6 15bd 0e07 32bc fd0d bcbd 3baf e93e
00000220: 95eb 32be 6c2a 4bbe 1ab9 483e f1fa ffbd
00000230: 7ecb 93be 1585 073e 9154 763d 4cf0 71be
00000240: cd99 fe3e 16bc 3abe 0fb8 a9be 8cd6 943e
00000250: 84fe bf3d b7e7 96be 460e 6c3e 030f a33d
00000260: 219a b0be da8a b83e 67a6 81bd 2efe 54be
00000270: 80f2 443e 3de0 82bc 5d69 93be 4fa5 fc3d
00000280: 019c 083e b7cb 18be 5c82 3b3d c5a8 edbd
00000290: 4a55 92be 9a7b 8abe 2436 f0bd c59a 0dbe
000002a0: f2de 043f 1f94 e43e 482b 4a3c db41 cbbd
000002b0: 7551 34be 1562 8abd 0bf3 2ebe 4b2f e4bd
000002c0: c76d 34be d72f 143f 61e6 a33e 98c6 083f
000002d0: d4e3 5bbe f666 11be bbb0 e33d 37e4 dbbe
000002e0: a731 80be 967e 7cbe f9ff 753e 0ca1 0f3e
000002f0: 8c0a af3c 8224 9e3e f398 ae3e 83d0 ab3d
00000300: 7b1b 043e e872 0a3e 743e ee3b ca3f dcbd
00000310: a680 f2be 1994 e5bd e954 343e 825c da3d
00000320: a8c6 a93e b95f f3bd b12e 0bbe 4837 f8bd
00000330: e88f b4be e91f c6be ab4f d0be feeb bd3e
00000340: fd7d b03d f968 b63e a209 023d 7dc2 873d
00000350: 8208 ca3d e607 4bbe 81fd 8ebe 41a9 0d3e
00000360: eb61 8b3d 167b 0fbb efb9 c23c 8ac0 e4bd
00000370: 27b0 f8bd 8eb8 873d ea70 16be 1ebb 22be
00000380: 07ee 0ebd 2a0d 613e 4715 ee3d 46af 8f3e
00000390: 8b38 713d 2b89 c43c 9d84 343e 7c21 45bd
000003a0: c653 793c 4731 fabd b169 173e bb96 c13c
000003b0: 3819 063d edfa dcbd 1e60 1ebe fe7a 37be
000003c0: c4bb 0ebe 2f0a 53be c267 fbbd 1a31 52bd
000003d0: b78d 9cba 4ae6 4dbd d035 753d 34fb 6f3d
000003e0: 6057 3c3d b6ab 26bc bf5d fabc 6351 8abd
000003f0: ab47 7c3d d968 9a3d 193b 6c3d 8e7d 0d3e

405 f4 [32]
-0.005960852 -0.33091372 0.309603 -0.6622566 -0.3175395 -0.02513158 0.58272433 -0.27214828
0.16345346 -0.19655192 -0.83775145 -0.33083507 -0.47821566 -0.03611359 -0.4107738 0.30510902
-0.41526794 0.16511866 0.06618287 0.1993973 -0.15342474 -0.5660653 0.015150335 -0.35080144
0.110459335 -0.012557898 -0.14378151 -0.20403168 -0.5768849 -0.336603 0.20393245 -0.83893543
00000000: 4053 c3bb 866d a9be 4984 9e3e a689 29bf
00000010: 8a94 a2be bee0 cdbc 6c2d 153f 0557 8bbe
00000020: 5860 273e e844 49be e176 56bf 3763 a9be
00000030: afd8 f4be d8eb 13bd f250 d2be 4037 9c3e
00000040: 009e d4be de14 293e e28a 873d ce2e 4c3e
00000050: 601b 1dbe a8e9 10bf 1c39 783c 3f9c b3be
00000060: 8138 e23d a4bf 4dbc 763b 13be aeed 50be
00000070: bbae 13bf 3a57 acbe abd3 503e 79c4 56bf

416 f4 [16, 3, 3, 3]
0.0050816815 0.085157365 -0.3113387 0.06449007 -0.3273157 -0.15558934 0.26697508 0.10308352
0.3969108 0.30699635 -0.012935852 -0.14733858 -0.09882636 -0.0057930807 0.030652747 -0.119125605
-0.38616204 -0.024903731 -0.019032856 0.1678809 0.3532171 -0.23378704 -0.040874958 0.37262464
-0.17084059 -0.4174883 0.08755691 -0.04187839 -0.0025103313 -0.09479259 0.26173857 0.07817922
-0.14961022 0.16313504 -0.16107358 0.19036138 0.16499622 0.049958237 -0.19551483 0.3614008
-0.052196015 -0.44292298 0.04509892 -0.05650514 -0.30290112 0.39465457 -0.08734703 0.09909513
0.33705625 0.05364097 -0.18355745 -0.15782908 -0.18709734 -0.20808212 0.06316493 0.076266125
0.12616277 -0.13175343 -0.007697407 -0.04205983 -0.12706698 -0.02910556 0.046721425 0.14728837
0.18243405 0.15876792 -0.12647179 -0.010918682 0.026162619 -0.062149793 -0.030566862 0.0061415695
-0.14983208 0.04586063 0.15085658 0.0053950525 -0.03352818 -0.008153997 -0.11037531 0.12703942
0.11527538 -0.8767661 -0.11059011 0.2702461 0.38646472 0.3660373 -0.29563117 -0.14970611
0.031317256 0.24427025 -0.3280184 -0.008122214 0.14885965 0.18390314 0.17778158 -0.29090405
0.16697653 -0.07613834 0.15762646 -0.08145646 0.7229951 0.14808075 0.6657297 0.02467047
-0.33160746 -0.14879757 -0.80552197 -0.13889377 -0.16585362 -0.031041717 0.053688563 -0.024250863
0.14051938 0.053782694 -0.073749274 -0.014534615 0.09405101 0.055802986 0.029424472 0.108523406
0.086835444 0.27497151 0.09589621 0.08036995 -0.059310555 -0.31232676 -0.04475821 -0.04261452
0.058144674 0.06316313 0.14290476 -0.05246373 0.015607688 0.01886372 -0.24739356 -0.22180808
0.10399726 -0.17403719 -0.21618935 0.053945433 0.36280078 0.62180305 -0.36966923 0.040813796
-0.22104031 -0.0047321026 0.37087867 -0.14043644 -0.44396394 -0.010025002 0.67158026 0.08422302
-0.37225243 0.40828404 0.17524622 -0.50768274 -0.31274405 -0.8196844 -0.30321342 0.9788164
0.040439714 0.14087993 -0.25457302 0.500199 -0.039085574 -0.6155177 0.59635484 -0.11920511
-0.50702757 0.34577444 -0.35908648 0.07254516 0.26849663 0.48282778 -0.4338466 0.755336
0.04471723 -0.27141035 0.2532309 -0.44919193 -0.8272308 -0.021187894 -0.071162246 -0.3610587
0.2170181 -0.045923613 -0.1467195 1.0040833 -0.15177236 0.32409927 0.20008905 -0.3385268
-0.185641 -0.19064543 0.2471105 -0.17184912 0.09029259 0.06359751 0.17668481 -0.07464493
-0.17594439 -0.05889491 -0.23064055 0.21066909 -0.2514436 0.05973082 0.0382924 0.12649047
-0.07488996 -0.36155823 -0.20645344 -0.33810773 0.5459042 0.1979278 0.05533405 0.038001694
0.5032487 -0.057671897 -0.2675908 0.17995553 -0.027515337 -0.4253861 -0.059669867 -0.22834037
0.2748401 0.68726933 0.12126233 -0.48008382 -0.02103596 0.14012522 -0.26625475 -0.5560612
0.29165292 0.29518244 -0.0969409 0.34506565 -0.33759472 -0.037493117 0.08470073 -0.084448755
-0.5189244 0.49733022 0.1987365 -0.01103812 0.013609198 -0.027817344 -0.19325341 0.013073615
-0.10109936 -0.19730692 -0.1103284 0.022624403 -0.0928182 -0.012380964 -0.13198297 -0.002757888
00000000: 3c84 a63b fc66 ae3d c967 9fbe 5f13 843d
00000010: ec95 a7be d052 1fbe f5b0 883e 741d d33d
00000020: e437 cb3e a02e 9d3e e5f0 53bc eddf 16be
00000030: 7a65 cabd e2d3 bdbb 781b fb3c 20f8 f3bd
00000040: 08b7 c5be e902 ccbc cbea 9bbc f8e8 2b3e
00000050: dfd8 b43e df65 6fbe 806c 27bd a8c8 be3e
00000060: d6f0 2ebe 07c1 d5be 0a51 b33d ad88 2bbd
00000070: 5f84 24bb 9e22 c2bd 9902 863e 6d1c a03d
00000080: 6c33 19be df0c 273e 79f0 24be 18ee 423e
00000090: c5f4 283e 02a1 4c3d 0a35 48be 8709 b93e
000000a0: 7dcb 55bd cdc6 e2be a5b9 383d ef71 67bd
000000b0: db15 9bbe 2a10 ca3e 00e3 b2bd 63f2 ca3d
000000c0: a392 ac3e a2b6 5b3d 7cf6 3bbe f29d 21be
000000d0: 7296 3fbe 7b13 55be 9d5c 813d 6a31 9c3d
000000e0: d030 013e 5fea 06be 883a fcbb ee46 2cbd
000000f0: d91d 02be c96e eebc f75e 3f3d c3d2 163e
00000100: fecf 3a3e 0f94 223e d281 01be 46e4 32bc
00000110: fd52 d63c c890 7ebd 5b67 fabc 383f c93b
00000120: 956d 19be 5bd8 3b3d 267a 1a3e fbc8 b03b
00000130: d854 09bd 5898 05bc 730c e2bd 9f16 023e
00000140: 8015 ec3d be73 60bf 117d e2bd b25d 8a3e
00000150: b4de c53e 3e69 bb3e f85c 97be 8f4c 19be
00000160: 8646 003d fb21 7a3e 07f2 a7be 0913 05bc
00000170: aa6e 183e 1b51 3c3e 600c 363e 60f1 94be
00000180: e5fb 2a3e 6bee 9bbd d568 213e a5d2 a6bd
00000190: 3516 393f 7ba2 173e 436d 2a3f ba19 ca3c
000001a0: 74c8 a9be 645e 18be b036 4ebf 2b3a 0ebe
000001b0: 88d5 29be 334b febc 8ae8 5b3d bfa9 c6bc
000001c0: 50e4 0f3e 3e4b 5c3d dc09 97bd 9822 6ebc
000001d0: d19d c03d ac91 643d 970b f13c 8541 de3d
000001e0: c8d6 b13d 11c9 8c3e 3b65 c43d 0099 a43d
000001f0: a0ef 72bd 4be9 9fbe 6354 37bd 908c 2ebd
00000200: 1c29 6e3d ac5b 813d a055 123e 35e4 56bd
00000210: 63b7 7f3c 1788 9a3c bd54 7dbe a821 63be
00000220: 84fc d43d ce36 32be be60 5dbe e3f5 5c3d
00000230: 06c1 b93e 7c2e 1f3f 4945 bdbe 5e2c 273d
00000240: 6458 62be c10f 9bbb cfe3 bd3e 92ce 0fbe
00000250: 3e4f e3be e83f 24bc afec 2b3f 1e7d ac3d
00000260: df97 bebe 9b0a d13e bf73 333e 7ff7 01bf
00000270: fd1f a0be d6d6 51bf ca3e 9bbe b693 7a3f
00000280: 1da4 253d d442 103e 6557 82be 0b0d 003f
00000290: 3218 20bd 9192 1dbf b6aa 183f cf21 f4bd
000002a0: 8fcc 01bf 5909 b13e 2fda b7be 8f92 943d
000002b0: 6478 893e 3435 f73e 2421 debe b35d 413f
000002c0: 6a29 373d 4cf6 8abe 7ba7 813e 7cfc e5be
000002d0: 66c5 53bf 3c92 adbc 83bd 91bd b0dc b8be
000002e0: fe39 5e3e 661a 3cbd a33d 16be cd85 803f
000002f0: 376a 1bbe 57f0 a53e 25e4 4c3e 6253 adbe
00000300: ad18 3ebe 8e38 43be 890a 7d3e 37f9 2fbe
00000310: 52eb b83d 693f 823d ddec 343e 71df 98bd
00000320: c42a 34be ca3b 71bd 092d 6cbe a3b9 573e
00000330: 37bd 80be 4ea8 743d 7ed8 1c3d b886 013e
00000340: e85f 99bd 291e b9be 8868 53be 751c adbe
00000350: 61c0 0b3f 96ad 4a3e f5a5 623d aaa7 1b3d
00000360: e8d4 003f 5e39 6cbd a901 89be 4346 383e
00000370: d867 e1bc 35cc d9be 6468 74bd 0fd2 69be
00000380: d7b7 8c3e e2f0 2f3f 6258 f83d 8ccd f5be
00000390: 9b53 acbc fc7c 0f3e 8b52 88be 075a 0ebf
000003a0: 8853 953e 2722 973e f388 c6bd 72ac b03e
000003b0: 37d9 acbe 6292 19bd 9477 ad3d 78f3 acbd
000003c0: 3bd8 04bf 11a2 fe3e 9581 4b3e 3bd9 34bc
000003d0: 1df9 5e3c 33e1 e3bc 39e4 45be b732 563c
000003e0: 2e0d cfbd d30a 4abe dbf3 e1bd d056 b93c
000003f0: 7817 bebd 87d9 4abc 8b26 07be afbd 34bb

417 f4 [16]
-0.07155373 -0.044432692 0.35652205 -0.4968791 -0.15233044 0.070809886 -0.14684658 -0.13314588
-0.37115133 -0.6910128 -0.010902852 -0.6453165 -0.44276673 -0.4600867 -0.10833561 0.48615205
00000000: c38a 92bd 0eff 35bd 0f8a b63e f066 febe
00000010: 83fc 1bbe c604 913d f35e 16be 6557 08be
00000020: 8c07 bebe 37e6 30bf e0a1 32bc 7633 25bf
00000030: 52b2 e2be 7c90 ebbe 0fdf ddbd ece8 f83e

407 f4 [32, 32, 3, 3]
0.014940285 0.0040079327 0.046782985 0.075848095 0.093928225 0.01975717 -0.03785441 -0.008689257
-0.10201423 0.0790251 0.10997293 0.06997082 0.007270782 1.8255438e-05 -0.13696094 -0.20591423
0.023251664 0.06441149 -0.0059077432 -0.0017248805 0.02385466 -0.040052 -0.07846991 -0.17691454
-0.16146332 -0.085055165 0.030777324 0.01099304 0.008809557 0.04157719 0.048993565 0.0930402
0.04416955 0.0035027429 0.0006982024 -0.0396385 -0.10503393 -0.07302422 -0.09589086 0.061378766
0.021020595 0.0028030404 0.005861874 0.017819602 0.06823956 0.028251274 0.074649416 0.103062026
-0.07904987 -0.003584482 -0.06859032 -0.102731496 0.05220492 -0.0022697938 0.022030652 0.0102168815
0.11667496 0.036448583 0.07279947 -0.042756148 -0.049693894 0.025835713 -0.04161505 -0.07165086
-0.04755458 -0.025621105 -0.07837955 -0.07130915 0.0475271 -0.008715104 -0.08118406 -0.006033549
0.03961585 0.00038892095 -0.053221133 -0.014400187 -0.079646766 -0.03013294 0.021093274 -0.050870538
-0.07626753 -0.07594344 -0.07443451 -0.03603432 -0.060235865 -0.025877228 -0.0329274 -0.05377364
-0.02522925 -0.06654887 0.010587119 0.026594313 0.036806393 0.044626627 -0.031596694 0.0023825115
0.044184934 0.073131256 0.045877405 0.08063638 0.091008216 0.0034125922 -0.036076624 -0.033524547
0.050749294 -0.114477225 -0.09565444 0.017573997 -0.029561777 -0.07698781 -0.049915776 -0.10597083
-0.10734008 -0.05494777 -0.115529366 -0.0814685 -0.0071241464 0.057978515 0.071354136 0.09555152
-0.03562353 0.02566131 -0.008013525 0.13718265 -0.1014929 -0.029438924 -0.026423164 0.034747183
0.0072092544 0.00030382437 0.0028513877 0.003794419 0.04465462 0.030661307 0.04454251 0.0035970192
0.005573107 0.11825497 0.11193211 -0.021054301 0.022161866 -0.03190826 -0.01199781 -0.031110192
-0.04186483 -0.020268837 -0.01184416 0.08685305 0.028185727 0.108487286 0.11654036 -0.0071853227
-0.028870238 0.018383328 -0.012338876 -0.01292302 -0.12953609 0.009941494 0.046225216 0.049701057
-0.04110412 0.045108695 0.10318291 0.06585531 0.0150404405 -0.04360077 0.0031495432 0.023922335
-0.121805646 -0.0800516 -0.042198826 0.04051223 0.029344615 -0.031658676 0.0647799 -0.029349811
0.022002138 -0.1615826 -0.08360352 0.0043620504 -0.01836587 0.04769963 0.0796067 0.019899478
0.0061648237 0.020521209 0.14363608 -0.026885431 -0.015809227 0.09471122 0.07599758 0.10252489
0.06461654 0.03616658 -0.015697574 -0.048465088 -0.06727169 -0.048653867 -0.09218537 -0.037502225
0.028981876 0.050762497 0.0022002277 0.025578186 0.0208078 0.024429522 0.00017883252 0.0061605475
0.058361072 0.056874834 -0.0018074338 -0.026807103 -0.03138156 0.003127314 -0.07805803 0.05189391
-0.007964635 0.016748257 0.08227552 -0.038117845 -0.08701356 -0.10165914 -0.07214321 -0.048782945
-0.11327212 -0.0062041786 0.13200778 0.11100139 -0.04251121 -0.03489894 -0.00017127137 0.07093564
-0.1138819 -0.058245823 -0.08413207 -0.08507876 -0.085030645 -0.045566726 -0.045293514 0.019692961
0.09411395 -0.0036811566 0.02397703 -0.046602283 -0.018901493 0.012860088 0.0017554617 0.009504611
0.00046865782 -0.0034427398 -0.0084245475 -0.01691463 0.057688043 0.09708543 0.09535833 -0.0259843
00000000: 19c8 743c fa54 833b 849f 3f3d 3f56 9b3d
00000010: 715d c03d cad9 a13c 3a0d 1bbd 635d 0ebc
00000020: d6ec d0bd e9d7 a13d 7d39 e13d dc4c 8f3d
00000030: bd3f ee3b 4123 9937 7d3f 0cbe 2edb 52be
00000040: 467a be3c 2cea 833d be95 c1bb 6315 e2ba
00000050: d96a c33c 910d 24bd d5b4 a0bd 1629 35be
00000060: a456 25be 6731 aebd ba20 fc3c 271c 343c
00000070: f655 103c d84c 2a3d 7aad 483d dc8b be3d
00000080: 21eb 343d 468e 653b 9207 373a fb5b 22bd
00000090: 071c d7bd b98d 95bd 6d62 c4bd 4d68 7b3d
000000a0: 6233 ac3c 37b3 373b f714 c03b 6afa 913c
000000b0: 2fc1 8b3d 376f e73c cbe1 983d 2f12 d33d
000000c0: e6e4 a1bd a1e9 6abb 1579 8cbd e464 d2bd
000000d0: d4d4 553d d2c0 14bb a079 b43c b564 273c
000000e0: 48f3 ee3d 1c4b 153d e317 953d 1221 2fbd
000000f0: d38b 4bbd 6ba5 d33c 8b74 2abd b0bd 92bd
00000100: 97c8 42bd 5ae3 d1bc 7585 a0bd 880a 92bd
00000110: c7ab 423d ccc9 0ebc d443 a6bd 14b5 c5bb
00000120: 3b44 223d 16e8 cb39 67fe 59bd c3ee 6bbc
00000130: d81d a3bd 5bd9 f6bc cdcb ac3c a05d 50bd
00000140: 2732 9cbd 3c88 9bbd 1f71 98bd b998 13bd
00000150: e2b9 76bd 7bfc d3bc e2de 06bd c041 5cbd
00000160: 92ad cebc c64a 88bd 9875 2d3c 51dc d93c
00000170: 4dc2 163d 69ca 363d 896b 01bd e923 1c3b
00000180: 43fb 343d d7c5 953d f2e9 3b3d b024 a53d
00000190: 8462 ba3d cca5 5f3b 15c5 13bd 0951 09bd
000001a0: 7ede 4f3d 0973 eabd 7ae6 c3bd 58f7 8f3c
000001b0: 8a2b f2bc c9ab 9dbd 7c74 4cbd 3c07 d9bd
000001c0: 1ed5 dbbd ea10 61bd a99a ecbd f5d8 a6bd
000001d0: ac71 e9bb e17a 6d3d 1e22 923d 84b0 c33d
000001e0: fbe9 11bd ab37 d23c 294b 03bc 9c79 0c3e
000001f0: 82db cfbd e629 f1bc 6475 d8bc 1053 0e3d
00000200: 9c3b ec3b 9e4a 9f39 59de 3a3b caab 783b
00000210: c3e7 363d 6c2d fb3c 3572 363d f8bb 6b3b
00000220: 9c9e b63b a92f f23d a93c e53d 127a acbc
00000230: cd8c b53c 3cb2 02bd 7692 44bc cdda febc
00000240: 757a 2bbd d50a a6bc 020e 42bc 03e0 b13d
00000250: c1e5 e63c 952e de3d b6ac ee3d db72 ebbb
00000260: 4781 ecbc a298 963c ff28 4abc 13bb 53bc
00000270: 1ca5 04be a6e1 223c a756 3d3d 5693 4b3d
00000280: cb5c 28bd e5c3 383d 9051 d33d 26df 863d
00000290: 2e6c 763c b996 32bd 9168 4e3b c6f8 c33c
000002a0: 3d75 f9bd 18f2 a3bd add8 2cbd 27f0 253d
000002b0: 1e64 f03c 87ac 01bd 53ab 843d 046f f0bc
000002c0: d43d b43c e975 25be 5338 abbd 88ef 8e3b
000002d0: 0574 96bc b060 433d d608 a33d 3b04 a33c
000002e0: 4a02 ca3b 181c a83c 5615 133e d63e dcbc
000002f0: 5a82 81bc f5f7 c13d 9fa4 9b3d 92f8 d13d
00000300: ad55 843d 6823 143d 3398 80bc 5483 46bd
00000310: bdc5 89bd 4749 47bd afcb bcbd ef9b 19bd
00000320: 666b ed3c 56ec 4f3d b231 103b 5889 d13c
00000330: 1f75 aa3c 6c20 c83c fd84 3b39 6bde c93b
00000340: 050c 6f3d 96f5 683d 6ae7 ecba 929a dbbc
00000350: f389 00bd 9ff3 4c3b e3dc 9fbd b58e 543d
00000360: 1a7e 02bc a433 893c 1180 a83d 7521 1cbd
00000370: 2a34 b2bd ab32 d0bd d2bf 93bd a0d0 47bd
00000380: 37fb e7bd 6c4c cbbb 0c2d 073e b254 e33d
00000390: 3c20 2ebd 31f2 0ebd 4f97 33b9 b446 913d
000003a0: ea3a e9bd 2c93 6ebd 6f4d acbd c63d aebd
000003b0: 8c24 aebd 2da4 3abd b185 39bd 2253 a13c
000003c0: d1be c03d 8f3f 71bb 7a6b c43c 09e2 3ebd
000003d0: 4ed7 9abc 1eb3 523c 8517 e63a 3ab9 1b3c
000003e0: 30b6 f539 979f 61bb 1d07 0abc 8d90 8abc
000003f0: 4c4a 6c3d bad4 c63d 3a4b c33d 07dd d4bc

408 f4 [32]
0.20785779 0.492839 -0.12915173 -0.31831002 -0.29647166 1.1657603 -0.586661 0.7275674
0.87347645 0.5864041 -0.64629936 0.6245277 0.058527917 -0.068363994 0.6023725 0.44166705
0.0017891228 0.45669737 0.17984718 0.14953542 0.8900901 0.7989218 0.94947135 0.7694251
0.39911497 0.0924877 0.17105691 -0.13006759 0.49929532 0.3529346 0.6813405 0.18471533
00000000: acd8 543e 6555 fc3e 5a40 04be 88f9 a2be
00000010: 22cb 97be a237 953f 6a2f 16bf db41 3a3f
00000020: 279c 5f3f 941e 163f e073 25bf 0ce1 1f3f
00000030: f8ba 6f3d 6c02 8cbd 1635 1a3f 2f22 e23e
00000040: 0081 ea3a 3dd4 e93e dc29 383e d01f 193e
00000050: f2dc 633f 2486 4c3f 8e10 733f 0bf9 443f
00000060: cc58 cc3e 316a bd3d 8b29 2f3e 7030 05be
00000070: a3a3 ff3e d8b3 b43e 556c 2e3f 0426 3d3e

419 f4 [16, 16, 3, 3]
-0.11638918 -0.007913728 0.08269742 -0.0039460286 -0.13268994 -0.18740484 0.21011548 -0.05371633
0.07147793 -0.0065203947 0.23624483 -0.13686213 -0.15014793 -0.25238344 -0.032420862 -0.0342814
0.0017619776 0.09036582 0.17833658 0.29649472 0.19994755 0.1029531 -0.04520994 -0.09109617
-0.04507411 -0.15656824 -0.08416668 -0.26353258 -0.20417327 -0.0060462863 -0.18015115 -0.1543658
0.0310957 -0.14079657 -0.05844069 0.20731135 -0.1061851 0.074438795 0.113594055 -0.09529539
0.027412323 -0.041907366 -0.23321268 -0.10869146 -0.03262657 0.069250785 0.07177564 -0.073785305
0.19483241 -0.19085428 -0.09373769 -0.18700969 -0.09240775 -0.050102703 0.056956552 -0.019027539
0.057774227 -0.03677042 -0.079434514 -0.1493448 -0.02965437 -0.014058613 0.015382688 -0.031663675
-0.070208564 0.06579439 -0.09850895 -0.03578871 -0.08515371 0.008166965 -0.048305843 0.35083604
-0.15657774 -0.2217681 0.19701335 -0.12584956 -0.14896004 -0.1350169 0.00816449 0.1746913
0.10140321 -0.020601215 0.08596925 -0.0007972388 -0.05383492 0.10672625 -0.06112051 -0.033418667
0.005287712 -0.033715 -0.060031157 0.04137644 0.08506743 0.01271585 -0.052061252 -0.06595997
-0.07741401 -0.046352644 0.1124648 -0.19615223 -0.07749953 -0.13721293 0.14174046 -0.22545496
-0.14044821 0.12301309 0.06409327 -0.0012071333 -0.052830826 -0.15439284 -0.11971335 -0.11596375
0.067279294 -0.013345191 -0.036157552 -0.068832606 -0.04607827 -0.043706086 0.005877434 -0.22269312
0.044194322 -0.055144697 0.12913315 -0.10654198 -0.063022286 0.14270598 0.024669975 -0.025325056
0.23976733 0.049526047 0.045360256 -0.18777235 0.1701146 -0.0606587 0.038348403 0.014167423
-0.056116022 -0.010995763 -0.037453696 -0.13386825 -0.08238191 0.06229204 -0.22316356 0.0043196743
0.0108325165 0.1655977 0.0069093094 0.016470237 0.15201266 -0.03708194 0.06406675 -0.012246297
-0.08428418 0.014083062 0.14747706 -0.18066025 -0.055581674 0.051315263 0.13285664 0.1856846
-0.003832942 -0.022732034 0.014655774 0.12683015 -0.0041740793 -0.0068225963 -0.01226665 0.04274199
0.09966959 -0.02615908 -0.06591683 0.013033434 0.14677842 0.0568373 -0.09892781 0.16275775
0.13104478 -0.017609585 -0.11087895 0.000650386 0.13634191 0.038584117 -0.042401135 -0.105132155
0.05939311 -0.10133394 0.0147472145 -0.069677696 -0.043955833 -0.0008765617 0.019559557 -0.08501252
0.04372966 -0.1512063 -0.12885523 0.07089912 0.08115137 0.17590404 -0.090530485 -0.02640857
-0.05084219 -0.012719159 -0.04599841 -0.07897134 0.031089017 0.08935551 0.13434426 0.04110462
0.035932418 -0.071658224 -0.026309524 0.026638929 -0.09073652 -0.024720307 0.028299427 -0.03400207
-0.14511825 0.05243004 0.021681577 0.03367292 -0.17058812 -0.13642678 0.08562106 -0.19549742
0.016501965 0.045167126 -0.05381979 -0.044996228 0.030012652 -0.08016218 0.08677022 0.11937079
-0.10680608 0.061927687 -0.023547316 0.113632455 0.00014147669 0.05218488 0.084421255 0.13681395
-0.1120105 -0.1749895 -0.11551976 -0.24238832 -0.07581779 -0.039219752 -0.024855053 -0.11476741
0.068013035 0.08767742 0.10863676 0.006341661 0.011455066 0.11820553 -0.036151104 -0.18346693
00000000: 735d eebd 95a8 01bc 445d a93d b04d 81bb
00000010: dfdf 07be 0ee7 3fbe 8328 573e a805 5cbd
00000020: 0563 923d 09a9 d5bb 2aea 713e 9625 0cbe
00000030: 61c0 19be 6738 81be bdcb 04bd a76a 0cbd
00000040: 28f2 e63a b711 b93d dd9d 363e 28ce 973e
00000050: 0dbf 4c3e 13d9 d23d 0f2e 39bd a190 babd
00000060: a19f 38bd 6d53 20be 955f acbd beed 86be
00000070: cc12 51be ed1f c6bb 8b79 38be 1112 1ebe
00000080: 69bc fe3c fa2c 10be 815f 6fbd 6d49 543e
00000090: 9377 d9bd 5e73 983d 00a4 e83d 3b2a c3bd
000000a0: cf8f e03c 0fa7 2bbd 4ecf 6ebe a199 debd
000000b0: 70a3 05bd 5bd3 8d3d 1bff 923d c01c 97bd
000000c0: 2682 473e 4e6f 43be 8cf9 bfbd 787f 3fbe
000000d0: 4640 bdbd 7e38 4dbd 464b 693d a4df 9bbc
000000e0: aba4 6c3d 949c 16bd 90ae a2bd d8ed 18be
000000f0: b9ed f2bc 1956 66bc ab07 7c3c c5b1 01bd
00000100: 82c9 8fbd 36bf 863d 0fbf c9bd 2f97 12bd
00000110: 1165 aebd bcce 053c 59dc 45bd c8a0 b33e
00000120: ea55 20be 2d17 63be debd 493e b5de 00be
00000130: fb88 18be df41 0abe 5ac4 053c 47e2 323e
00000140: 7cac cf3d e1c3 a8bc a510 b03d cafd 50ba
00000150: 0182 5cbd 4b93 da3d 8059 7abd 03e2 08bd
00000160: 8b44 ad3b bd18 0abd 3be3 75bd 587a 293d
00000170: d537 ae3d 2456 503c 2e3e 55bd 0516 87bd
00000180: 3d8b 9ebd 45dc 3dbd f253 e63d 21dc 48be
00000190: 13b8 9ebd 8c81 0cbe 6924 113e aadd 66be
000001a0: a8d1 0fbe 49ee fb3d 5543 833d ac38 9eba
000001b0: 2365 58bd 2819 1ebe 462c f5bd 677e edbd
000001c0: bac9 893d caa5 5abc f119 14bd 1cf8 8cbd
000001d0: 91bc 3cbd 2705 33bd 7d97 c03b aa09 64be
000001e0: 1b05 353d 68df 61bd 7b3b 043e ae32 dabd
000001f0: d411 81bd 8421 123e b018 ca3c 7e76 cfbc
00000200: 9185 753e d3db 4a3d adcb 393d 6547 40be
00000210: 8632 2e3e 4275 78bd 3713 1d3d 7b1e 683c
00000220: ead9 65bd 9327 34bc 0c69 19bd c214 09be
00000230: d9b7 a8bd f025 7f3d fd84 64be 0e8c 8d3b
00000240: de7a 313c 7292 293e 7d67 e23b 97ec 863c
00000250: 35a9 1b3e 3be3 17bd 6e35 833d b1a4 48bc
00000260: 2f9d acbd a5bc 663c 3a04 173e 00ff 38be
00000270: 9ca9 63bd f42f 523d 920b 083e 1b24 3e3e
00000280: 1932 7bbb 8838 babc c61e 703c c3df 013e
00000290: b7c6 88bb 1690 dfbb 0ffa 48bc 3a12 2f3d
000002a0: 921f cc3d 914b d6bc 67ff 86bd 2f8a 553c
000002b0: 154d 163e 3bce 683d aa9a cabd f8a9 263e
000002c0: 9a30 063e fa41 90bc 8114 e3bd aa7e 2a3a
000002d0: 379d 0b3e 610a 1e3d d0ac 2dbd 874f d7bd
000002e0: 3146 733d 2b88 cfbd 4d9e 713c 2eb3 8ebd
000002f0: 080b 34bd 0fc9 65ba 5d3b a03c 0b1b aebd
00000300: df1d 333d d3d5 1abe a0f2 03be 8f33 913d
00000310: b132 a63d 3020 343e 0c68 b9bd c956 d8bc
00000320: e63f 50bd 0564 50bc d468 3cbd babb a1bd
00000330: 65ae fe3c 0600 b73d 8b91 093e 515d 283d
00000340: df2d 133d 8cc1 92bd 1287 d7bc e239 da3c
00000350: 12d4 b9bd 3e82 cabc 33d4 e73c c145 0bbd
00000360: e199 14be e2c0 563d 909d b13c 9eec 093d
00000370: a7ae 2ebe 76b3 0bbe 185a af3d 7a30 48be
00000380: 212f 873c 2a01 393d 2472 5cbd f74d 38bd
00000390: 18dd f53c 122c a4bd 96b4 b13d ac78 f43d
000003a0: 25bd dabd e3a7 7d3d 4de6 c0bc 22b8 e83d
000003b0: 5c59 1439 d0bf 553d 0de5 ac3d f518 0c3e
000003c0: c365 e5bd 7330 33be a095 ecbd a534 78be
000003d0: 5c46 9bbd e4a4 20bd d39c cbbc 2d0b ebbd
000003e0: 6b4a 8b3d 3890 b33d f37c de3d b5cd cf3b
000003f0: 07ae 3b3c be15 f23d 2e13 14bd c1de 3bbe

420 f4 [16]
-0.30579698 -0.13188861 0.31256106 -0.2345643 -0.021655023 -0.21581897 0.49007335 -0.54688704
-0.19532329 -0.43898264 0.17111121 0.008578718 -0.09210444 -0.53834915 -0.4656381 -0.26776877
00000000: 6c91 9cbe cf0d 07be 0108 a03e a031 70be
00000010: e065 b1bc a6ff 5cbe e5ea fa3e ca00 0cbf
00000020: d402 48be 55c2 e0be c737 2f3e c08d 0c3c
00000030: 41a1 bcbd 40d1 09bf 1e68 eebe fd18 89be

funsion_block_stream1_stage_3_before_PB.0.weight f4 [10, 32, 1, 1]
-0.16500881 0.28527892 -0.020715516 0.026811438 0.83127236 -0.07302487 0.43444067 -0.7085876
-0.21126519 0.81135416 0.7155922 -0.5723693 -0.094607726 -0.0583525 0.67367417 0.15585048
0.46387458 -0.096279986 -0.39080158 0.31931943 -0.32284212 -0.46489012 -0.012257077 -0.56483793
-0.020315072 -0.35220903 0.5260327 0.42269418 -0.062224463 0.40173754 0.1029276 -0.012155977
-0.13834965 -0.16391434 0.24247883 -0.14469847 -0.066670544 0.6211843 -0.2284737 0.0007776887
-0.23945391 0.70729965 -0.13041364 0.30153134 -0.5035429 -0.6085209 0.33814308 0.19588315
-0.8297452 0.34584412 -0.39073658 -0.64239055 -0.41019297 0.14844233 -0.6742224 0.23064749
0.2515654 0.14973465 0.115001045 0.015193036 1.1824645 -0.7397942 -0.33961102 0.07564653
-0.20255713 -0.08858379 0.10998192 -0.41334468 0.08505857 0.15976344 -0.32376447 0.31205437
0.4205016 -0.13007058 0.027062347 -0.089539565 -0.07843753 -0.07439862 0.07271266 -0.28274438
-0.18916161 -0.138176 -0.042229813 -0.2409837 0.1297779 0.048606217 -0.50793177 0.22532922
-0.049568307 -0.020956289 0.05779932 -0.64724123 0.32050815 -0.07948107 0.33785278 -0.26501852
0.34054953 0.035608653 -0.45928377 0.35000944 0.6142445 0.0035980802 -0.20662138 -0.5007148
-0.38634947 0.43889245 -0.45881808 -0.37059 -0.17788781 -0.38066727 0.21058796 0.20224434
0.33202684 0.7068015 -0.3643667 -0.26942417 -0.508428 -0.6415095 0.27713814 -0.6720003
0.11978066 -0.48122472 0.12256822 0.12672076 0.18678838 -0.14297505 0.11598927 -0.03326498
-0.44781768 -0.3212132 -0.046950918 -0.32384664 -0.15891941 0.4493709 0.006580799 -0.2378359
-0.31243226 -0.29256132 0.18827881 -0.32081872 -0.14950961 -0.632178 -0.06518342 -0.2492206
-0.22330308 -0.40952545 0.14751607 0.37405425 -0.25722173 -0.6771987 0.17794435 -0.6364275
0.3615133 -0.19519426 0.14068508 0.066434324 -0.33131698 0.20254456 -0.4216624 -0.1170807
-0.17238015 0.05147228 -0.012900548 0.027785983 -0.22106282 -0.3365241 0.35226348 -0.23431152
-0.09179898 -0.18684131 0.058113545 0.24181893 -0.033204567 -0.40071794 0.01852982 0.0014152572
-0.057051033 -0.18609773 -0.044549957 0.18431064 0.01626322 0.2358617 0.14267454 0.16768
-0.41057125 0.41707787 -0.33665764 -0.033462077 -0.2864626 0.3119272 -0.10883318 -0.08604929
0.4133038 -0.39078614 -0.32521492 0.285982 -0.28339687 -0.5839009 -0.0044161393 -0.39205584
-0.5440826 -0.07155241 0.367045 0.14526117 -0.016385704 0.46940053 0.17428593 0.23329689
-0.2638158 0.5592613 -0.35093993 -0.11052494 -0.2557527 -0.29825076 -0.5782261 0.05327433
0.2513993 -0.1880762 0.14581037 -0.30689704 0.058907554 -0.020712622 -0.032716874 0.24800856
0.12248788 0.12130302 0.074632704 -0.25817564 0.021027902 -0.30837888 -0.08313945 0.20813765
0.45746413 -0.2354424 -0.13423748 -0.2922395 -0.07336822 0.8158038 -0.22011797 -0.3966246
-0.16601844 0.021536414 -0.24637224 -0.051146604 -0.67818177 0.354337 0.10089127 -0.39571616
0.49573147 0.3560012 0.004771768 -0.20757137 -0.10573843 0.11071969 -0.0064765075 -0.08214356
00000000: 12f8 28be 1410 923e 96b3 a9bc a9a3 db3c
00000010: 44ce 543f 108e 95bd 026f de3e ff65 35bf
00000020: e755 58be e8b4 4f3f 0d31 373f cb86 12bf
00000030: b2c1 c1bd 0803 6fbd e975 2c3f 4597 1f3e
00000040: f880 ed3e 712e c5bd 2517 c8be d67d a33e
00000050: 904b a5be 1406 eebe e8d1 48bc 3899 10bf
00000060: cb6b a6bc be54 b4be 14aa 063f 5f6b d83e
00000070: 14df 7ebd 8bb0 cd3e b5cb d23d dd29 47bc
00000080: 88ab 0dbe 29d9 27be 5f4c 783e d62b 14be
00000090: 918a 88bd ef05 1f3f 02f5 69be cedd 4b3a
000000a0: 6833 75be 9711 353f 278b 05be 5162 9a3e
000000b0: 30e8 00bf 07c8 1bbf 1721 ad3e 9895 483e
000000c0: 2e6a 54bf 7b12 b13e a00e c8be b573 24bf
000000d0: d004 d2be 4401 183e d799 2cbf db2e 6c3e
000000e0: 2ecd 803e 0a54 193e ab85 eb3d 36ec 783c
000000f0: ff5a 973f 2763 3dbf 7fe1 adbe 91ec 9a3d
00000100: 236b 4fbe 6b6b b5bd 333e e13d eaa1 d3be
00000110: 3033 ae3d 0799 233e 75c4 a5be 97c5 9f3e
00000120: fc4b d73e 3931 05be dbb1 dd3c 8560 b7bd
00000130: dba3 a0bd 4e5e 98bd 60ea 943d dfc3 90be
00000140: 95b3 41be 027e 0dbe 2bf9 2cbd 6ec4 76be
00000150: 7fe4 043e 5017 473d d107 02bf b4bc 663e
00000160: 2308 4bbd 86ac abbc fbbe 6c3d 9ab1 25bf
00000170: a519 a43e f9c6 a2bd 0afb ac3e 82b0 87be
00000180: 825c ae3e 61da 113d 3e27 ebbe 7034 b33e
00000190: 213f 1d3f c5cd 6b3b 8e94 53be d82e 00bf
000001a0: 99cf c5be 83b6 e03e 34ea eabe f9bd bdbe
000001b0: 3928 36be d2e6 c2be 5fa4 573e 2419 4f3e
000001c0: 6cff a93e f1f0 343f 468e babe f7f1 89be
000001d0: 5628 02bf f739 24bf 0de5 8d3e 3608 2cbf
000001e0: 904f f53d 1663 f6be 0c05 fb3d 16c3 013e
000001f0: 7445 3f3e 0d68 12be c88b ed3d dc40 08bd
00000200: 5c48 e5be 0e76 a4be 9b4f 40bd 3acf a5be
00000210: c5bb 22be f113 e63e bea3 d73b 418b 73be
00000220: 1ff7 9fbe 99ca 95be 29cc 403e 5a42 a4be
00000230: 0c19 19be 6bd6 21bf e37e 85bd af33 7fbe
00000240: 90a9 64be 52ad d1be 740e 173e 0a84 bf3e
00000250: 91b2 83be e55c 2dbf 0b37 363e eaec 22bf
00000260: 4518 b93e 01e1 47be c00f 103e b80e 883d
00000270: 61a2 a9be d767 4f3e 22e4 d7be 02c8 efbd
00000280: 6c84 30be 99d4 523d d25c 53bc 6e9f e33c
00000290: 4b5e 62be e34c acbe e15b b43e 5cef 6fbe
000002a0: 1b01 bcbd 5453 3fbe 7808 6e3d 629f 773e
000002b0: 8301 08bd e72a cdbe d9cb 973c 2780 b93a
000002c0: 58ae 69bd 6790 3ebe 047a 36bd eebb 3c3e
000002d0: 723a 853c bb85 713e 4619 123e 4eb4 2b3e
000002e0: 6536 d2be 3b8b d53e 645e acbe 880f 09bd
000002f0: 3aab 92be ecb4 9f3e eee3 debd 9c3a b0bd
00000300: 8e9c d33e 1f15 c8be 9282 a6be 3c6c 923e
00000310: 6519 91be 887a 15bf 43b5 90bb 8bbb c8be
00000320: ff48 0bbf 128a 92bd 52ed bb3e 58bf 143e
00000330: 503b 86bc 4455 f03e 0378 323e 61e5 6e3e
00000340: dd12 87be c02b 0f3f 66ae b3be e65a e2bd
00000350: 05f2 82be 53b4 98be a006 14bf 2f36 5a3d
00000360: 69b7 803e 0c97 40be 504f 153e 9c21 9dbe
00000370: 0c49 713d 84ad a9bc 2102 06bd f5f5 7d3e
00000380: edda fa3d b86d f83d 08d9 983d 992f 84be
00000390: b542 ac3c d6e3 9dbe 0445 aabd 0922 553e
000003a0: bd38 ea3e d017 71be 8d75 09be 6aa0 95be
000003b0: 1442 96bd 85d8 503f 9b66 61be 6112 cbbe
000003c0: bd00 2abe 226d b03c 0149 7cbe 1a7f 51bd
000003d0: 529d 2dbf a96b b53e 15a0 ce3d 4f9b cabe
000003e0: 84d0 fd3e ca45 b63e 7e5c 9c3b 978d 54be
000003f0: 648d d8bd 01c1 e23d e238 d4bb e23a a8bd

funsion_block_stream1_stage_3_before_PB.0.bias f4 [10]
0.022970576 -0.2039344 0.09799278 0.17188865 0.021361569 0.054268803 0.070658594 -0.04745292
-0.32382813 0.17312357
00000000: ca2c bc3c 2ed4 50be 70b0 c83d 9403 303e
00000010: 75fe ae3c f748 5e3d 74b5 903d fe5d 42bd
00000020: cdcc a5be 4e47 313e

funsion_block_stream2_stage_3_before_PB.0.weight f4 [10, 16, 1, 1]
0.34974366 0.13452566 -0.5810638 -0.043359485 -1.0162988 0.1441286 0.043098465 0.18328364
-0.92159086 0.25834262 -0.6194785 0.14563346 -0.01854929 0.12350975 -0.26230374 0.19618808
-0.06865454 -0.26000458 -0.06714216 0.8127237 0.46977288 0.2827937 -0.22908694 0.80753267
0.76896375 0.46415895 -1.1431401 1.4387295 -0.21364985 -0.19684762 0.23055752 0.031013604
0.20137538 -0.61189896 0.31936944 -0.27469146 -0.14392547 -0.3499267 0.2326863 0.22676624
-0.059227586 -0.05231708 0.29256967 0.12658457 0.15268324 0.14314468 0.2673174 0.26794386
0.14172988 0.47687146 0.08705115 0.015044966 0.14140923 0.035371818 -0.49489287 -0.17032804
0.25586295 -0.076233104 0.12800162 -0.1651045 -0.013072188 0.08208127 -0.39905185 -0.29307386
0.4663985 -0.09662026 0.4917059 0.3043335 -0.12839529 0.19789383 -0.26143938 0.31488702
0.4749596 -0.1361954 -0.3371082 -0.2165469 1.0968693 0.844205 0.22679804 0.11314857
-0.17742355 -0.33477572 -0.076986514 -0.4964464 0.0054369234 -0.12390031 0.28086448 -0.03379899
-0.4315294 0.1547092 -0.7456926 0.11659184 -0.19394755 -0.11665722 0.10334219 0.15630968
-0.54275817 0.4716602 0.28148577 0.31958503 0.111477144 0.6960022 -0.39566702 -0.080179796
-0.77146775 0.1246844 0.14731444 0.07951213 -0.44543865 -0.5508528 -0.7333225 0.25957972
-0.20210299 0.44925606 -0.39765203 0.29635265 0.4892488 -1.2143238 0.6138094 0.22047754
0.026823875 0.7387992 0.33316234 -0.20255595 0.22784522 0.044319503 -0.018479945 0.11540977
0.098956645 -0.23657478 -0.14783573 -0.051587734 -0.20492361 0.54348403 -0.39261928 -0.1001209
0.07747444 0.5645131 0.4864181 0.0061407927 -0.342125 0.17912175 -0.55216557 0.54899585
0.29385215 0.20912422 -0.58119607 0.40391952 -0.09636277 0.43273982 0.2990132 0.45468765
-0.45551693 -0.48158002 -0.57142866 0.2620082 0.19488822 0.21241236 0.08437968 0.082251504
00000000: 9a11 b33e 18c1 093e 99c0 14bf b799 31bd
00000010: 1416 82bf 7396 133e 0488 303d b5ae 3b3e
00000020: 61ed 6bbf 7c45 843e 2596 1ebf f020 153e
00000030: aef4 97bc aef2 fc3d ad4c 86be 87e5 483e
00000040: c09a 8cbd 521f 85be d481 89bd a90e 503f
00000050: 1286 f03e 56ca 903e c495 6abe 76ba 4e3f
00000060: cfda 443f 3ea6 ed3e 6a52 92bf 4a28 b83f
00000070: 07c7 5abe 6c92 49be 4517 6c3e 3e10 fe3c
00000080: 5935 4e3e 69a5 1cbf 6484 a33e 5ca4 8cbe
00000090: 3361 13be 9829 b3be 5145 6e3e 6935 683e
000000a0: a098 72bd 6f4a 56bd b1cb 953e 639f 013e
000000b0: ff58 1c3e 8594 123e d4dd 883e f02f 893e
000000c0: a321 113e 7f28 f43e e047 b23d 297f 763c
000000d0: 95cd 103e 0ae2 103d 9962 fdbe 796a 2ebe
000000e0: 7800 833e 1a20 9cbd db12 033e 2711 29be
000000f0: bb2c 56bc 3a1a a83d 8650 ccbe c70d 96be
00000100: c9cb ee3e d8e0 c5bd e0c0 fb3e 9ad1 9b3e
00000110: 0e7a 03be aea4 4a3e 62db 85be df38 a13e
00000120: e82d f33e cf76 0bbe 7299 acbe 78be 5dbe
00000130: 3766 8c3f d21d 583f bf3d 683e 70ba e73d
00000140: 85ae 35be b967 abbe 1bab 9dbd 392e febe
00000150: 3828 b23b 72bf fdbd 78cd 8f3e cf70 0abd
00000160: 6cf1 dcbe 176c 1e3e b6e5 3ebf b4c7 ee3d
00000170: 309a 46be fbe9 eebd 12a5 d33d a50f 203e
00000180: 33f2 0abf 727d f13e e71e 903e a6a0 a33e
00000190: 214e e43d 332d 323f de94 cabe 4e35 a4bd
000001a0: e97e 45bf 895a ff3d 99d9 163e 41d7 a23d
000001b0: 8910 e4be b004 0dbf 06bb 3bbf a2e7 843e
000001c0: 16f4 4ebe e404 e63e 0c99 cbbe 89bb 973e
000001d0: d27e fa3e f66e 9bbf 9d22 1d3f ddc4 613e
000001e0: bebd db3c f221 3d3f 4194 aa3e d46a 4fbe
000001f0: 4250 693e 5e88 353d 4163 97bc f55b ec3d
00000200: c8a9 ca3d a940 72be 4062 17be a94d 53bd
00000210: 7fd7 51be c521 0b3f 6505 c9be 300c cdbd
00000220: ebaa 9e3d ee83 103f cb0b f93e b438 c93b
00000230: 022b afbe b16b 373e b95a 0dbf fe8a 0c3f
00000240: ca73 963e a924 563e 44c9 14bf 8ace ce3e
00000250: d859 c5bd 1390 dd3e 4218 993e d2cc e83e
00000260: 8439 e9be a891 f6be 2649 12bf f025 863e
00000270: c790 473e a082 593e 41cf ac3d 7a73 a83d

funsion_block_stream2_stage_3_before_PB.0.bias f4 [10]
-0.27645248 -0.1791259 0.22952822 -0.18669657 -0.0006416492 -0.05686698 0.04447596 -0.19347584
-0.08787334 -0.019989401
00000000: 2e8b 8dbe c86c 37be 7209 6b3e 632d 3fbe
00000010: 5934 28ba 5aed 68bd 6d2c 363d 881e 46be
00000020: f0f6 b3bd d0c0 a3bc

410 f4 [32, 32, 3, 3]
-0.20319149 -0.08301176 -0.08010048 -0.07726919 -0.10415438 0.0019813497 -0.15196066 -0.16027103
0.05216329 -0.060550306 -0.05436195 0.08549089 0.077554815 -0.013750266 -0.110750996 -0.043499146
-0.040862095 0.04196802 0.1362126 0.009489668 0.024758704 0.05966601 0.1330846 0.26676813
-0.027596526 -0.14903922 -0.07611432 -0.030026244 -0.02315153 0.067001514 0.030657459 -0.09506199
0.023611719 -0.16405092 -0.09820117 0.045126516 -0.086206555 -0.12508501 0.05855698 -0.10990886
-0.062478837 0.10813594 0.09061139 0.022923011 0.16715807 -0.023916451 0.051555105 0.056303088
0.12267721 -0.034524024 -0.11986746 0.06293833 0.13025992 -0.012828473 -0.15946114 -0.028436447
0.13353075 -0.016074745 -0.14023308 -0.094726585 0.14641821 0.15247063 0.004152657 0.019541819
-0.07677901 0.080474906 0.18864943 0.049776074 -0.10218984 -0.021184208 -0.21301018 -0.1720059
-0.079053216 -0.016214026 -0.011243677 -0.052889507 0.060266394 -0.004266476 0.18143123 0.16976853
0.043165624 0.13490395 0.012376456 -0.01692384 0.078287415 -0.2074228 0.0377975 0.02816031
-0.05572244 -0.08164108 -0.24676926 -0.20337166 -0.076356515 -0.16364874 -0.10234292 -0.056553353
0.0064493865 0.03701337 -0.035078563 0.023905082 0.1447501 -0.03072553 -0.052416682 0.07335212
0.08869149 0.007113247 0.122628346 -0.08081691 0.093050756 0.08205175 0.0050889524 -0.023652272
-0.122201376 -0.142295 0.12541245 -0.11880676 -0.05176942 0.016449582 0.011067168 -0.020322034
-0.015706042 -0.011243394 0.07878351 -0.07168421 0.010424054 -0.12898248 0.02553158 -0.041130286
0.0083474945 -0.08288617 -0.026283056 0.077206865 -0.08955298 0.0018484665 -0.04836025 -0.1866741
0.07822057 0.016515635 -0.25325772 -0.23076327 -0.0028147076 -0.16613309 -0.15703353 -0.025624733
0.08417829 -0.090543166 -0.099071905 0.00970602 -0.051345095 -0.077176295 0.1750593 -0.18083893
-0.053431712 -0.32322535 -0.030671837 0.1640913 -0.13877912 0.099532455 0.18211745 0.023457034
0.08683169 -0.07681621 -0.067766 -0.15538736 0.047369614 -0.009010993 -0.09963671 0.007198244
-0.07581413 0.048716474 0.077814914 0.13847902 -0.09553973 -0.12816711 0.08488395 0.054027822
0.057424903 0.025234383 -0.0629129 0.02463341 0.18288921 0.06118722 0.08034622 0.06120617
0.03440911 -0.027028356 0.020141767 0.027585581 -0.09358859 -0.15410437 -0.11287204 -0.11872923
-0.04027179 -0.015569412 -0.029193344 -0.18303 0.018491257 0.08452138 -0.041728735 -0.089897275
-0.073464915 0.07528285 0.10103719 0.040417343 -0.026428007 0.067553855 -0.11948814 0.071279
0.060258415 0.24788204 0.09990776 -0.10878212 -0.01429231 -0.0011015767 -0.23613575 -0.21813382
0.1061619 -0.090943955 -0.025977205 0.02916878 0.034239206 -0.050291974 -0.23450041 0.060815107
0.034714725 0.07867151 0.05669844 -0.00695537 0.052411504 0.020648265 0.042358402 -0.043596327
0.17137906 0.099197604 0.113851726 -0.22515416 -0.23934795 -0.011697827 -0.04521036 0.08513972
-0.204088 0.059276994 0.104471266 -0.026831225 0.14063619 0.05876493 -0.07932776 -0.020761026
0.136202 0.013111204 0.059813105 0.13194107 0.114701785 -0.046613023 0.034166846 0.0774967
00000000: 6e11 50be 1202 aabd b80b a4bd 4f3f 9ebd
00000010: e44e d5bd 88d9 013b 939b 1bbe 171e 24be
00000020: 2da9 553d 9903 78bd a3aa 5ebd d915 af3d
00000030: 0fd5 9e3d cc48 61bc 6bd1 e2bd 292c 32bd
00000040: 035f 27bd a9e6 2b3d 517b 0b3e 8d7a 1b3c
00000050: c4d2 ca3c 5964 743d 5447 083e d595 883e
00000060: 1c12 e2bc bd9d 18be d3e1 9bbd 99f9 f5bc
00000070: 47a8 bdbc 1738 893d 5a25 fb3c dcaf c2bd
00000080: 5d6d c13c f7fc 27be b21d c9bd 95d6 383d
00000090: 108d b0bd 4916 00be 72d9 6f3d e517 e1bd
000000a0: cfe9 7fbd 6076 dd3d 7792 b93d 0ac9 bb3c
000000b0: 7c2b 2b3e 6fec c3bc 722b 533d 119e 663d
000000c0: 303e fb3d 1069 0dbd 127d f5bd d0e5 803d
000000d0: db62 053e 842e 52bc c849 23be 8df3 e8bc
000000e0: 49bc 083e 2faf 83bc 4399 0fbe 0300 c2bd
000000f0: a8ee 153e 4321 1c3e 0313 883b 2a16 a03c
00000100: 503e 9dbd 07d0 a43d 512d 413e ffe1 4b3d
00000110: e848 d1bd 818a adbc 571f 5abe 5122 30be
00000120: a7e6 a1bd 47d3 84bc 6637 38bc aba2 58bd
00000130: e5d9 763d cbcd 8bbb 1cc9 393e cdd7 2d3e
00000140: 70ce 303d 4324 0a3e 9ec6 4a3c dda3 8abc
00000150: 2755 a03d a466 54be 8dd1 1a3d 73b0 e63c
00000160: 373d 64bd 7033 a7bd 15b1 7cbe a940 50be
00000170: ce60 9cbd 8993 27be 2a99 d1bd 7da4 67bd
00000180: 6055 d33b 559b 173d 8aae 0fbd 97d4 c33c
00000190: 5f39 143e 1bb4 fbbc e0b2 56bd a339 963d
000001a0: e2a3 b53d 3e16 e93b 9224 fb3d 5683 a5bd
000001b0: 6591 be3d bf0a a83d 3ac1 a63b 69c2 c1bc
000001c0: b744 fabd c8b5 11be 1f6c 003e f550 f3bd
000001d0: 2c0c 54bd 46c1 863c 1153 353c 657a a6bc
000001e0: f5a9 80bc 3636 38bc 4059 a13d 2ccf 92bd
000001f0: a7c9 2a3c fc13 04be 9b27 d13c 3b78 28bd
00000200: eec3 083c 39c0 a9bd 904f d7bc a21e 9e3d
00000210: 8e67 b7bd 3e48 f23a 6615 46bd 7f27 3fbe
00000220: 1b32 a03d cc4b 873c ffaa 81be 354d 6cbe
00000230: f576 38bb cb1e 2abe 66cd 20be f6ea d1bc
00000240: ab65 ac3d b26e b9bd 36e6 cabd 0006 1f3c
00000250: 3c4f 52bd 9b0e 9ebd bf42 333e d72d 39be
00000260: 36db 5abd cb7d a5be 8143 fbbc 8d07 283e
00000270: 1d1c 0ebe acd7 cb3d ff7c 3a3e f728 c03c
00000280: d0d4 b13d d151 9dbd e7c8 8abd dd1d 1fbe
00000290: a406 423d d8a2 13bc 550e ccbd 3fdf eb3b
000002a0: 7044 9bbd ed8a 473d 6d5d 9f3d 72cd 0d3e
000002b0: 55aa c3bd 3d3e 03be a3d7 ad3d 474c 5d3d
000002c0: 6036 6b3d 56b8 ce3c 7ad8 80bd 01cc c93c
000002d0: 4f47 3b3e 739f 7a3d 8f8c a43d 52b3 7a3d
000002e0: 91f0 0c3d 926a ddbc 5900 a53c 28fb e13c
000002f0: 60ab bfbd 89cd 1dbe 7529 e7bd 4f28 f3bd
00000300: 08f4 24bd d916 7fbc e126 efbc 376c 3bbe
00000310: fa7a 973c 8c19 ad3d c0eb 2abd 101c b8bd
00000320: c674 96bd e52d 9a3d 96ec ce3d a88c 253d
00000330: 8c7f d8bc ad59 8a3d 33b6 f4bd b9fa 913d
00000340: 87d1 763d cad4 7d3e 719c cc3d 29c9 debd
00000350: 4b2a 6abc c862 90ba 92cd 71be 795e 5fbe
00000360: 696b d93d d340 babd 26ce d4bc 5ef3 ee3c
00000370: 693e 0c3d f5fe 4dbd e020 70be 4319 793d
00000380: 0731 0e3d 871e a13d a03c 683d dfe9 e3bb
00000390: 72ad 563d 8d26 a93c 0180 2d3d 1092 32bd
000003a0: fe7d 2f3e 1d28 cb3d 182b e93d d08e 66be
000003b0: a117 75be 3ea8 3fbc 802e 39bd bc5d ae3d
000003c0: 72fc 50be 6fcc 723d 08f5 d53d 28cd dbbc
000003d0: ef02 103e 7fb3 703d 9876 a2bd 0713 aabc
000003e0: 8978 0b3e 60d0 563c 96fe 743d 8f1b 073e
000003f0: c5e8 ea3d 4ced 3ebd 89f2 0b3d 97b6 9e3d

411 f4 [32]
0.944561 0.89440435 0.6558059 -0.6155734 1.1360753 0.27428102 0.07353258 -0.3207423
-0.32751906 0.18573785 1.0021496 1.101245 -1.2411516 0.73021007 0.13793242 -0.29828328
0.62383056 0.6144593 1.5452362 0.24568528 0.55876327 0.49247736 0.25426102 -0.08226821
0.038166523 0.84598726 1.1241413 0.6768248 0.99951607 0.68975973 0.16887523 0.130601
00000000: c0ce 713f aff7 643f e5e2 273f 3896 1dbf
00000010: ea6a 913f 906e 8c3e 4098 963d 5638 a4be
00000020: 94b0 a7be 1032 3e3e 7046 803f 99f5 8c3f
00000030: 0ede 9ebf 0cef 3a3f 283e 0d3e 96b8 98be
00000040: 5cb3 1f3f 344d 1d3f 4dca c53f ec94 7b3e
00000050: 1c0b 0f3f fe25 fc3e 802e 823e 3c7c a8bd
00000060: 8054 1c3d 9f92 583f dde3 8f3f 6444 2d3f
00000070: 49e0 7f3f 1894 303f a1ed 2c3e 45bc 053e
