assets/ssrnet_age_float32.tflite (tflite, 206940 bytes, 59 tensors)

arith.constant f4 [10]
-0.27645248 -0.1791259 0.22952822 -0.18669657 -0.0006416492 -0.05686698 0.04447596 -0.19347584
-0.08787334 -0.019989401
00000000: 2e8b 8dbe c86c 37be 7209 6b3e 632d 3fbe
00000010: 5934 28ba 5aed 68bd 6d2c 363d 881e 46be
00000020: f0f6 b3bd d0c0 a3bc

arith.constant1 f4 [10]
0.022970576 -0.2039344 0.09799278 0.17188865 0.021361569 0.054268803 0.070658594 -0.04745292
-0.32382813 0.17312357
00000000: ca2c bc3c 2ed4 50be 70b0 c83d 9403 303e
00000010: 75fe ae3c f748 5e3d 74b5 903d fe5d 42bd
00000020: cdcc a5be 4e47 313e

arith.constant2 f4 [10]
-0.2707041 -0.0033080692 -0.23407067 -0.028993107 0.06219287 -0.20296097 -0.19798714 -0.1203738
-0.22317879 -0.0967843
00000000: ba99 8abe 31cc 58bb 39b0 6fbe f482 edbc
00000010: f3bd 7e3d 00d5 4fbe 24bd 4abe 8a86 f6bd
00000020: fb88 64be d936 c6bd

arith.constant3 f4 [10]
-0.21567658 -0.15399764 0.059842024 -0.17378472 -0.17837678 -0.14198732 -0.025797255 -0.018652176
-0.18526676 -0.03896111
00000000: 52da 5cbe 8fb1 1dbe e91c 753d 9ff4 31be
00000010: 67a8 36be 2065 11be c454 d3bc 73cc 98bc
00000020: 92b6 3dbe af95 1fbd

arith.constant4 f4 [10]
0.014737872 -0.09728052 -0.11273717 -0.08354836 -0.084664576 0.015553858 -0.06517953 -0.11287589
-0.1166472 -0.10504813
00000000: 1e77 713c 023b c7bd bfe2 e6bd 671b abbd
00000010: 9f64 adbd 9cd5 7e3c d87c 85bd 7a2b e7bd
00000020: bae4 eebd 7923 d7bd

arith.constant5 f4 [10]
-0.0767748 -0.044041663 -0.07640665 -0.06944634 0.032671504 -0.13120095 0.15222223 0.04735604
-0.06351389 0.19964464
00000000: 1b3c 9dbd 0865 34bd 177b 9cbd e239 8ebd
00000010: 8ed2 053d 8b59 06be 25e0 1b3e 68f8 413d
00000020: 9213 82bd a56f 4c3e

arith.constant6 f4 [32]
-0.45176047 -0.21166173 -0.010914527 -0.008589849 0.14302823 -0.063719876 0.41226244 0.51315445
0.08308117 -0.14813626 1.1197747 -0.26366377 0.53312755 0.8178737 -0.2887883 0.42538175
0.6168708 -0.017485589 0.5459234 0.18552664 -0.60775775 -0.068345025 0.42392197 -0.1317698
0.48067608 0.8260901 0.8005078 -0.21581288 -0.30378836 0.012713283 0.5689831 -0.79023767
00000000: 264d e7be dabd 58be d8d2 32bc 70bc 0cbc
00000010: fe75 123e 917f 82bd 1014 d33e 175e 033f
00000020: 7626 aa3d 08b1 17be c754 8f3f f0fe 86be
00000030: 0c7b 083f 2c60 513f 0fdc 93be a3cb d93e
00000040: 3feb 1d3f f03d 8fbc a3c1 0b3f b2fa 3d3e
00000050: 0396 1bbf 7af8 8bbd 4d0c d93e aaee 06be
00000060: 2d1b f63e a47a 533f 14ee 4c3f 0dfe 5cbe
00000070: 268a 9bbe 604b 503c e0a8 113f 044d 4abf

arith.constant7 f4 [32]
0.944561 0.89440435 0.6558059 -0.6155734 1.1360753 0.27428102 0.07353258 -0.3207423
-0.32751906 0.18573785 1.0021496 1.101245 -1.2411516 0.73021007 0.13793242 -0.29828328
0.62383056 0.6144593 1.5452362 0.24568528 0.55876327 0.49247736 0.25426102 -0.08226821
0.038166523 0.84598726 1.1241413 0.6768248 0.99951607 0.68975973 0.16887523 0.130601
00000000: c0ce 713f aff7 643f e5e2 273f 3896 1dbf
00000010: ea6a 913f 906e 8c3e 4098 963d 5638 a4be
00000020: 94b0 a7be 1032 3e3e 7046 803f 99f5 8c3f
00000030: 0ede 9ebf 0cef 3a3f 283e 0d3e 96b8 98be
00000040: 5cb3 1f3f 344d 1d3f 4dca c53f ec94 7b3e
00000050: 1c0b 0f3f fe25 fc3e 802e 823e 3c7c a8bd
00000060: 8054 1c3d 9f92 583f dde3 8f3f 6444 2d3f
00000070: 49e0 7f3f 1894 303f a1ed 2c3e 45bc 053e

arith.constant8 f4 [32]
0.20785779 0.492839 -0.12915173 -0.31831002 -0.29647166 1.1657603 -0.586661 0.7275674
0.87347645 0.5864041 -0.64629936 0.6245277 0.058527917 -0.068363994 0.6023725 0.44166705
0.0017891228 0.45669737 0.17984718 0.14953542 0.8900901 0.7989218 0.94947135 0.7694251
0.39911497 0.0924877 0.17105691 -0.13006759 0.49929532 0.3529346 0.6813405 0.18471533
00000000: acd8 543e 6555 fc3e 5a40 04be 88f9 a2be
00000010: 22cb 97be a237 953f 6a2f 16bf db41 3a3f
00000020: 279c 5f3f 941e 163f e073 25bf 0ce1 1f3f
00000030: f8ba 6f3d 6c02 8cbd 1635 1a3f 2f22 e23e
00000040: 0081 ea3a 3dd4 e93e dc29 383e d01f 193e
00000050: f2dc 633f 2486 4c3f 8e10 733f 0bf9 443f
00000060: cc58 cc3e 316a bd3d 8b29 2f3e 7030 05be
00000070: a3a3 ff3e d8b3 b43e 556c 2e3f 0426 3d3e

arith.constant10 f4 [16]
-0.40733886 0.09070344 0.14217116 0.9921964 -0.6397499 0.18588224 0.26932776 -0.10440525
0.06190779 -0.46922493 0.5454421 -0.3119905 0.058252335 0.03523566 -0.6838857 0.16869462
00000000: b88e d0be bac2 b93d 5195 113e 9500 7e3f
00000010: a6c6 23bf ea57 3e3e 54e5 893e 6bd2 d5bd
00000020: 0693 7d3d 403e f0be 18a2 0b3f 38bd 9fbe
00000030: 009a 6e3d 4453 103d 2213 2fbf 48be 2c3e

arith.constant11 f4 [16]
0.25022706 0.12046121 0.1705013 0.044670686 -0.34317708 -0.13568495 -0.32751244 -0.42864245
-0.045723736 0.22964062 0.59954345 -0.1390177 -0.7756987 0.0899293 0.22810817 0.6361141
00000000: c31d 803e 5eb4 f63d e597 2e3e 9cf8 363d
00000010: e8b4 afbe fff0 0abe b6af a7be 0677 dbbe
00000020: d048 3bbd e926 6b3e ae7b 193f a85a 0ebe
00000030: 3194 46bf da2c b83d 3095 693e 60d8 223f

arith.constant12 f4 [16]
-0.30579698 -0.13188861 0.31256106 -0.2345643 -0.021655023 -0.21581897 0.49007335 -0.54688704
-0.19532329 -0.43898264 0.17111121 0.008578718 -0.09210444 -0.53834915 -0.4656381 -0.26776877
00000000: 6c91 9cbe cf0d 07be 0108 a03e a031 70be
00000010: e065 b1bc a6ff 5cbe e5ea fa3e ca00 0cbf
00000020: d402 48be 55c2 e0be c737 2f3e c08d 0c3c
00000030: 41a1 bcbd 40d1 09bf 1e68 eebe fd18 89be

arith.constant13 f4 [16]
-0.07155373 -0.044432692 0.35652205 -0.4968791 -0.15233044 0.070809886 -0.14684658 -0.13314588
-0.37115133 -0.6910128 -0.010902852 -0.6453165 -0.44276673 -0.4600867 -0.10833561 0.48615205
00000000: c38a 92bd 0eff 35bd 0f8a b63e f066 febe
00000010: 83fc 1bbe c604 913d f35e 16be 6557 08be
00000020: 8c07 bebe 37e6 30bf e0a1 32bc 7633 25bf
00000030: 52b2 e2be 7c90 ebbe 0fdf ddbd ece8 f83e

arith.constant14 f4 [10, 1, 1, 16]
0.34974366 0.13452566 -0.5810638 -0.043359485 -1.0162988 0.1441286 0.043098465 0.18328364
-0.92159086 0.25834262 -0.6194785 0.14563346 -0.01854929 0.12350975 -0.26230374 0.19618808
-0.06865454 -0.26000458 -0.06714216 0.8127237 0.46977288 0.2827937 -0.22908694 0.80753267
0.76896375 0.46415895 -1.1431401 1.4387295 -0.21364985 -0.19684762 0.23055752 0.031013604
0.20137538 -0.61189896 0.31936944 -0.27469146 -0.14392547 -0.3499267 0.2326863 0.22676624
-0.059227586 -0.05231708 0.29256967 0.12658457 0.15268324 0.14314468 0.2673174 0.26794386
0.14172988 0.47687146 0.08705115 0.015044966 0.14140923 0.035371818 -0.49489287 -0.17032804
0.25586295 -0.076233104 0.12800162 -0.1651045 -0.013072188 0.08208127 -0.39905185 -0.29307386
0.4663985 -0.09662026 0.4917059 0.3043335 -0.12839529 0.19789383 -0.26143938 0.31488702
0.4749596 -0.1361954 -0.3371082 -0.2165469 1.0968693 0.844205 0.22679804 0.11314857
-0.17742355 -0.33477572 -0.076986514 -0.4964464 0.0054369234 -0.12390031 0.28086448 -0.03379899
-0.4315294 0.1547092 -0.7456926 0.11659184 -0.19394755 -0.11665722 0.10334219 0.15630968
-0.54275817 0.4716602 0.28148577 0.31958503 0.111477144 0.6960022 -0.39566702 -0.080179796
-0.77146775 0.1246844 0.14731444 0.07951213 -0.44543865 -0.5508528 -0.7333225 0.25957972
-0.20210299 0.44925606 -0.39765203 0.29635265 0.4892488 -1.2143238 0.6138094 0.22047754
0.026823875 0.7387992 0.33316234 -0.20255595 0.22784522 0.044319503 -0.018479945 0.11540977
0.098956645 -0.23657478 -0.14783573 -0.051587734 -0.20492361 0.54348403 -0.39261928 -0.1001209
0.07747444 0.5645131 0.4864181 0.0061407927 -0.342125 0.17912175 -0.55216557 0.54899585
0.29385215 0.20912422 -0.58119607 0.40391952 -0.09636277 0.43273982 0.2990132 0.45468765
-0.45551693 -0.48158002 -0.57142866 0.2620082 0.19488822 0.21241236 0.08437968 0.082251504
00000000: 9a11 b33e 18c1 093e 99c0 14bf b799 31bd
00000010: 1416 82bf 7396 133e 0488 303d b5ae 3b3e
00000020: 61ed 6bbf 7c45 843e 2596 1ebf f020 153e
00000030: aef4 97bc aef2 fc3d ad4c 86be 87e5 483e
00000040: c09a 8cbd 521f 85be d481 89bd a90e 503f
00000050: 1286 f03e 56ca 903e c495 6abe 76ba 4e3f
00000060: cfda 443f 3ea6 ed3e 6a52 92bf 4a28 b83f
00000070: 07c7 5abe 6c92 49be 4517 6c3e 3e10 fe3c
00000080: 5935 4e3e 69a5 1cbf 6484 a33e 5ca4 8cbe
00000090: 3361 13be 9829 b3be 5145 6e3e 6935 683e
000000a0: a098 72bd 6f4a 56bd b1cb 953e 639f 013e
000000b0: ff58 1c3e 8594 123e d4dd 883e f02f 893e
000000c0: a321 113e 7f28 f43e e047 b23d 297f 763c
000000d0: 95cd 103e 0ae2 103d 9962 fdbe 796a 2ebe
000000e0: 7800 833e 1a20 9cbd db12 033e 2711 29be
000000f0: bb2c 56bc 3a1a a83d 8650 ccbe c70d 96be
00000100: c9cb ee3e d8e0 c5bd e0c0 fb3e 9ad1 9b3e
00000110: 0e7a 03be aea4 4a3e 62db 85be df38 a13e
00000120: e82d f33e cf76 0bbe 7299 acbe 78be 5dbe
00000130: 3766 8c3f d21d 583f bf3d 683e 70ba e73d
00000140: 85ae 35be b967 abbe 1bab 9dbd 392e febe
00000150: 3828 b23b 72bf fdbd 78cd 8f3e cf70 0abd
00000160: 6cf1 dcbe 176c 1e3e b6e5 3ebf b4c7 ee3d
00000170: 309a 46be fbe9 eebd 12a5 d33d a50f 203e
00000180: 33f2 0abf 727d f13e e71e 903e a6a0 a33e
00000190: 214e e43d 332d 323f de94 cabe 4e35 a4bd
000001a0: e97e 45bf 895a ff3d 99d9 163e 41d7 a23d
000001b0: 8910 e4be b004 0dbf 06bb 3bbf a2e7 843e
000001c0: 16f4 4ebe e404 e63e 0c99 cbbe 89bb 973e
000001d0: d27e fa3e f66e 9bbf 9d22 1d3f ddc4 613e
000001e0: bebd db3c f221 3d3f 4194 aa3e d46a 4fbe
000001f0: 4250 693e 5e88 353d 4163 97bc f55b ec3d
00000200: c8a9 ca3d a940 72be 4062 17be a94d 53bd
00000210: 7fd7 51be c521 0b3f 6505 c9be 300c cdbd
00000220: ebaa 9e3d ee83 103f cb0b f93e b438 c93b
00000230: 022b afbe b16b 373e b95a 0dbf fe8a 0c3f
00000240: ca73 963e a924 563e 44c9 14bf 8ace ce3e
00000250: d859 c5bd 1390 dd3e 4218 993e d2cc e83e
00000260: 8439 e9be a891 f6be 2649 12bf f025 863e
00000270: c790 473e a082 593e 41cf ac3d 7a73 a83d

arith.constant15 f4 [10, 1, 1, 32]
-0.16500881 0.28527892 -0.020715516 0.026811438 0.83127236 -0.07302487 0.43444067 -0.7085876
-0.21126519 0.81135416 0.7155922 -0.5723693 -0.094607726 -0.0583525 0.67367417 0.15585048
0.46387458 -0.096279986 -0.39080158 0.31931943 -0.32284212 -0.46489012 -0.012257077 -0.56483793
-0.020315072 -0.35220903 0.5260327 0.42269418 -0.062224463 0.40173754 0.1029276 -0.012155977
-0.13834965 -0.16391434 0.24247883 -0.14469847 -0.066670544 0.6211843 -0.2284737 0.0007776887
-0.23945391 0.70729965 -0.13041364 0.30153134 -0.5035429 -0.6085209 0.33814308 0.19588315
-0.8297452 0.34584412 -0.39073658 -0.64239055 -0.41019297 0.14844233 -0.6742224 0.23064749
0.2515654 0.14973465 0.115001045 0.015193036 1.1824645 -0.7397942 -0.33961102 0.07564653
-0.20255713 -0.08858379 0.10998192 -0.41334468 0.08505857 0.15976344 -0.32376447 0.31205437
0.4205016 -0.13007058 0.027062347 -0.089539565 -0.07843753 -0.07439862 0.07271266 -0.28274438
-0.18916161 -0.138176 -0.042229813 -0.2409837 0.1297779 0.048606217 -0.50793177 0.22532922
-0.049568307 -0.020956289 0.05779932 -0.64724123 0.32050815 -0.07948107 0.33785278 -0.26501852
0.34054953 0.035608653 -0.45928377 0.35000944 0.6142445 0.0035980802 -0.20662138 -0.5007148
-0.38634947 0.43889245 -0.45881808 -0.37059 -0.17788781 -0.38066727 0.21058796 0.20224434
0.33202684 0.7068015 -0.3643667 -0.26942417 -0.508428 -0.6415095 0.27713814 -0.6720003
0.11978066 -0.48122472 0.12256822 0.12672076 0.18678838 -0.14297505 0.11598927 -0.03326498
-0.44781768 -0.3212132 -0.046950918 -0.32384664 -0.15891941 0.4493709 0.006580799 -0.2378359
-0.31243226 -0.29256132 0.18827881 -0.32081872 -0.14950961 -0.632178 -0.06518342 -0.2492206
-0.22330308 -0.40952545 0.14751607 0.37405425 -0.25722173 -0.6771987 0.17794435 -0.6364275
0.3615133 -0.19519426 0.14068508 0.066434324 -0.33131698 0.20254456 -0.4216624 -0.1170807
-0.17238015 0.05147228 -0.012900548 0.027785983 -0.22106282 -0.3365241 0.35226348 -0.23431152
-0.09179898 -0.18684131 0.058113545 0.24181893 -0.033204567 -0.40071794 0.01852982 0.0014152572
-0.057051033 -0.18609773 -0.044549957 0.18431064 0.01626322 0.2358617 0.14267454 0.16768
-0.41057125 0.41707787 -0.33665764 -0.033462077 -0.2864626 0.3119272 -0.10883318 -0.08604929
0.4133038 -0.39078614 -0.32521492 0.285982 -0.28339687 -0.5839009 -0.0044161393 -0.39205584
-0.5440826 -0.07155241 0.367045 0.14526117 -0.016385704 0.46940053 0.17428593 0.23329689
-0.2638158 0.5592613 -0.35093993 -0.11052494 -0.2557527 -0.29825076 -0.5782261 0.05327433
0.2513993 -0.1880762 0.14581037 -0.30689704 0.058907554 -0.020712622 -0.032716874 0.24800856
0.12248788 0.12130302 0.074632704 -0.25817564 0.021027902 -0.30837888 -0.08313945 0.20813765
0.45746413 -0.2354424 -0.13423748 -0.2922395 -0.07336822 0.8158038 -0.22011797 -0.3966246
-0.16601844 0.021536414 -0.24637224 -0.051146604 -0.67818177 0.354337 0.10089127 -0.39571616
0.49573147 0.3560012 0.004771768 -0.20757137 -0.10573843 0.11071969 -0.0064765075 -0.08214356
00000000: 12f8 28be 1410 923e 96b3 a9bc a9a3 db3c
00000010: 44ce 543f 108e 95bd 026f de3e ff65 35bf
00000020: e755 58be e8b4 4f3f 0d31 373f cb86 12bf
00000030: b2c1 c1bd 0803 6fbd e975 2c3f 4597 1f3e
00000040: f880 ed3e 712e c5bd 2517 c8be d67d a33e
00000050: 904b a5be 1406 eebe e8d1 48bc 3899 10bf
00000060: cb6b a6bc be54 b4be 14aa 063f 5f6b d83e
00000070: 14df 7ebd 8bb0 cd3e b5cb d23d dd29 47bc
00000080: 88ab 0dbe 29d9 27be 5f4c 783e d62b 14be
00000090: 918a 88bd ef05 1f3f 02f5 69be cedd 4b3a
000000a0: 6833 75be 9711 353f 278b 05be 5162 9a3e
000000b0: 30e8 00bf 07c8 1bbf 1721 ad3e 9895 483e
000000c0: 2e6a 54bf 7b12 b13e a00e c8be b573 24bf
000000d0: d004 d2be 4401 183e d799 2cbf db2e 6c3e
000000e0: 2ecd 803e 0a54 193e ab85 eb3d 36ec 783c
000000f0: ff5a 973f 2763 3dbf 7fe1 adbe 91ec 9a3d
00000100: 236b 4fbe 6b6b b5bd 333e e13d eaa1 d3be
00000110: 3033 ae3d 0799 233e 75c4 a5be 97c5 9f3e
00000120: fc4b d73e 3931 05be dbb1 dd3c 8560 b7bd
00000130: dba3 a0bd 4e5e 98bd 60ea 943d dfc3 90be
00000140: 95b3 41be 027e 0dbe 2bf9 2cbd 6ec4 76be
00000150: 7fe4 043e 5017 473d d107 02bf b4bc 663e
00000160: 2308 4bbd 86ac abbc fbbe 6c3d 9ab1 25bf
00000170: a519 a43e f9c6 a2bd 0afb ac3e 82b0 87be
00000180: 825c ae3e 61da 113d 3e27 ebbe 7034 b33e
00000190: 213f 1d3f c5cd 6b3b 8e94 53be d82e 00bf
000001a0: 99cf c5be 83b6 e03e 34ea eabe f9bd bdbe
000001b0: 3928 36be d2e6 c2be 5fa4 573e 2419 4f3e
000001c0: 6cff a93e f1f0 343f 468e babe f7f1 89be
000001d0: 5628 02bf f739 24bf 0de5 8d3e 3608 2cbf
000001e0: 904f f53d 1663 f6be 0c05 fb3d 16c3 013e
000001f0: 7445 3f3e 0d68 12be c88b ed3d dc40 08bd
00000200: 5c48 e5be 0e76 a4be 9b4f 40bd 3acf a5be
00000210: c5bb 22be f113 e63e bea3 d73b 418b 73be
00000220: 1ff7 9fbe 99ca 95be 29cc 403e 5a42 a4be
00000230: 0c19 19be 6bd6 21bf e37e 85bd af33 7fbe
00000240: 90a9 64be 52ad d1be 740e 173e 0a84 bf3e
00000250: 91b2 83be e55c 2dbf 0b37 363e eaec 22bf
00000260: 4518 b93e 01e1 47be c00f 103e b80e 883d
00000270: 61a2 a9be d767 4f3e 22e4 d7be 02c8 efbd
00000280: 6c84 30be 99d4 523d d25c 53bc 6e9f e33c
00000290: 4b5e 62be e34c acbe e15b b43e 5cef 6fbe
000002a0: 1b01 bcbd 5453 3fbe 7808 6e3d 629f 773e
000002b0: 8301 08bd e72a cdbe d9cb 973c 2780 b93a
000002c0: 58ae 69bd 6790 3ebe 047a 36bd eebb 3c3e
000002d0: 723a 853c bb85 713e 4619 123e 4eb4 2b3e
000002e0: 6536 d2be 3b8b d53e 645e acbe 880f 09bd
000002f0: 3aab 92be ecb4 9f3e eee3 debd 9c3a b0bd
00000300: 8e9c d33e 1f15 c8be 9282 a6be 3c6c 923e
00000310: 6519 91be 887a 15bf 43b5 90bb 8bbb c8be
00000320: ff48 0bbf 128a 92bd 52ed bb3e 58bf 143e
00000330: 503b 86bc 4455 f03e 0378 323e 61e5 6e3e
00000340: dd12 87be c02b 0f3f 66ae b3be e65a e2bd
00000350: 05f2 82be 53b4 98be a006 14bf 2f36 5a3d
00000360: 69b7 803e 0c97 40be 504f 153e 9c21 9dbe
00000370: 0c49 713d 84ad a9bc 2102 06bd f5f5 7d3e
00000380: edda fa3d b86d f83d 08d9 983d 992f 84be
00000390: b542 ac3c d6e3 9dbe 0445 aabd 0922 553e
000003a0: bd38 ea3e d017 71be 8d75 09be 6aa0 95be
000003b0: 1442 96bd 85d8 503f 9b66 61be 6112 cbbe
000003c0: bd00 2abe 226d b03c 0149 7cbe 1a7f 51bd
000003d0: 529d 2dbf a96b b53e 15a0 ce3d 4f9b cabe
000003e0: 84d0 fd3e ca45 b63e 7e5c 9c3b 978d 54be
000003f0: 648d d8bd 01c1 e23d e238 d4bb e23a a8bd

arith.constant16 f4 [10, 1, 1, 16]
-0.22300924 0.12040296 -0.30552256 -0.66093284 -0.588482 0.20711088 0.24933869 -0.609737
-0.6403928 -0.29338178 -0.6562263 0.5194045 0.30748442 0.16135132 -0.7803034 -0.68500024
0.026443565 0.038411256 0.14974031 0.37089777 -0.5690277 0.03894065 -0.10389407 0.6606158
-0.33878982 -0.60027677 -0.24404685 -0.2797099 -0.44506046 -0.46052486 -0.4175401 0.15538476
-0.8628642 -0.066954605 0.044069495 -0.41730458 -0.95105356 -0.61095387 -1.0889883 -0.39229625
-0.14287634 0.023825882 -0.37345666 -0.30820164 -0.39831567 0.29187578 -0.3711971 -0.19387849
-0.036899418 -0.6784507 0.52851856 -0.22921117 -0.5958509 0.27817297 0.38454002 0.28870225
0.16305123 -0.11873861 0.028731687 0.7605493 -0.08252337 0.16866527 -0.24744108 -0.283975
-0.2549955 -0.08441837 0.14530535 0.104878776 -0.42331898 -0.018706966 0.021938061 0.77283585
-0.17966802 -0.6805131 0.3580883 -0.4000834 0.3165917 -0.13697018 0.47189856 -0.23719893
-0.56077677 0.012377749 -0.95084393 0.5082705 -0.10816366 -0.13430876 -0.43659106 0.2300077
-0.6338787 0.15678586 0.25433233 -0.31609875 0.13694069 0.2735694 0.4417528 0.21855849
-0.77038634 0.5862184 0.110515416 -0.5418788 -0.14918932 -0.3338399 -0.28595644 -0.12076735
-0.09057934 -0.089976884 0.65666974 -0.093811244 0.4506519 -0.04278032 0.5257882 -0.015817057
-0.4202198 -0.35432544 0.0010968661 -0.53359956 0.24886101 0.4522284 -0.7451984 0.24194868
0.5185299 -0.7578713 0.191592 0.3795209 0.3332824 0.46709752 -0.53388596 0.7234072
-0.029108254 -0.28597113 0.39309707 0.43468344 -0.2599153 -0.663427 0.44558057 -0.05118293
-0.09989645 -0.34807998 -0.55403006 0.17275806 0.1951622 -0.5977206 0.5617492 0.62541115
0.1745949 -0.5624365 -0.63785255 -0.24017842 -0.9001081 -0.39307785 -0.9148216 -0.7593459
0.27313077 -0.6545422 -0.28912213 0.114684805 -0.96620935 0.19599864 -0.31860563 -0.36705717
00000000: 895c 64be d495 f63d 746d 9cbe e532 29bf
00000010: c2a6 16bf e014 543e a452 7f3e b917 1cbf
00000020: c8f0 23bf 2336 96be 72fe 27bf b1f7 043f
00000030: 996e 9d3e 4839 253e f7c1 47bf 2d5c 2fbf
00000040: 2da0 d83c 1f55 1d3d 8655 193e 50e6 bd3e
00000050: cdab 11bf 3b80 1f3d 6ac6 d4bd 1e1e 293f
00000060: dc75 adbe bdab 19bf 6be7 79be 2336 8fbe
00000070: f7de e3be eac9 ebbe d1c7 d5be 2f1d 1f3e
00000080: abe4 5cbf 7f1f 89bd 3782 343d f2a8 d5be
00000090: 3f78 73bf 7967 1cbf f863 8bbf 0edb c8be
000000a0: 2d4e 12be 7f2e c33c b635 bfbe 9bcc 9dbe
000000b0: 08f0 cbbe be70 953e 8c0d bebe 1588 46be
000000c0: d823 17bd f2ae 2dbf fe4c 073f 55b6 6abe
000000d0: af89 18bf b06c 8e3e 6ee2 c43e c8d0 933e
000000e0: e7f6 263e 3a2d f3bd b75e eb3c 5cb3 423f
000000f0: 0302 a9bd 97b6 2c3e 3261 7dbe 2c65 91be
00000100: c58e 82be 8ae3 acbd edca 143e afca d63d
00000110: 44bd d8be 5a3f 99bc 73b7 b33c 92d8 453f
00000120: e5fa 37be 1b36 2ebf 5a57 b73e bbd7 ccbe
00000130: 4f18 a23e e941 0cbe b09c f13e 47e4 72be
00000140: 118f 0fbf 0bcc 4a3c 826a 73bf 041e 023f
00000150: e984 ddbd 3c88 09be dd88 dfbe 2387 6b3e
00000160: e045 22bf 798c 203e d937 823e b2d7 a1be
00000170: 2e3a 0c3e 4a11 8c3e 6c2d e23e cccd 5f3e
00000180: 0a38 45bf 6912 163f e855 e23d 92b8 0abf
00000190: 16c5 18be 10ed aabe e268 92be df54 f7bd
000001a0: a981 b9bd cd45 b8bd 821b 283f 1c20 c0bd
000001b0: d9bb e63e 6b3a 2fbd 0e9a 063f c692 81bc
000001c0: 0d27 d7be 256a b5be b8c4 8f3a fb99 08bf
000001d0: 6cd5 7e3e 7b8a e73e 53c5 3ebf 65c1 773e
000001e0: 60be 043f db03 42bf b130 443e 9050 c23e
000001f0: fea3 aa3e 6827 ef3e c0ac 08bf 3731 393f
00000200: 6f74 eebc cf6a 92be 0544 c93e d48e de3e
00000210: 9e13 85be 5ad6 29bf 2323 e43e 31a5 51bd
00000220: 8396 ccbd 8a37 b2be ead4 0dbf 7de7 303e
00000230: 9ad8 473e 3804 19bf ccce 0f3f f21a 203f
00000240: 01c9 323e d7fb 0fbf 4e4a 23bf 55f1 75be
00000250: 7c6d 66bf 8041 c9be c031 6abf 7e64 42bf
00000260: ccd7 8b3e 1490 27bf d107 94be dedf ea3d
00000270: 7f59 77bf deb3 483e 4720 a3be ebee bbbe

arith.constant17 f4 [10, 1, 1, 16]
-0.066124976 -0.64591855 -0.36277485 -0.15813011 0.46065977 0.17883478 0.37034813 -0.3971591
0.047443163 -0.4299236 0.21381436 -0.046665598 -0.7019173 0.31840187 -0.1610135 0.9021764
0.3889626 -0.62698376 -0.13696048 -0.27311385 0.44030002 0.97152275 0.52856404 -0.050070617
0.5671112 -0.04469613 -0.5667307 0.7017757 0.009619193 0.58604383 -0.029609578 0.13497566
-0.19845079 0.031296216 -0.83453816 -0.31549996 0.3678267 0.8011215 0.09541196 0.38285965
0.18173017 -0.0936391 -0.093046084 -0.20728472 -0.24830884 -0.081876196 0.12347046 -0.0869207
-0.3021622 -0.7341656 -0.29560965 0.44087526 0.25752294 0.26470345 -0.30059046 0.367753
-0.38213438 -0.38494813 -0.8198217 0.08976671 -0.033696286 0.12212491 -0.010368457 0.042385682
0.04970315 -0.16714214 0.30730647 -0.46918702 0.035938732 -0.056789815 -0.31321576 0.46828088
-0.53896195 0.3762383 -0.22681564 0.33696002 0.29149684 -0.16175838 -0.40440267 -0.7194484
-0.3325162 0.4681747 -0.40736273 -0.60420084 -0.40395436 -0.12238295 -0.44874537 -0.882268
-0.14344297 0.2874265 0.116938174 0.4351218 0.042884577 -0.06829133 0.45509014 -0.39734286
0.1912114 0.16529252 -0.15128498 -0.45635927 0.39323172 0.082222246 -0.3646164 -0.15450148
0.18522033 0.24471506 0.091578886 -0.2995977 0.6390814 -0.14675081 -0.2727311 -0.43093255
0.37920034 0.09126293 -0.045705006 -0.06856539 0.10717526 -0.17358242 0.14596392 -0.13422708
-0.27361953 0.36511546 -0.008769206 0.09658179 -0.16862457 -0.27164474 0.29383963 -0.24219766
-0.67683417 -0.075729825 0.48046696 -0.3231581 0.36054686 -0.17920004 0.8356677 -0.076275475
0.0616453 -0.026740339 0.52752507 -0.32420135 0.16603614 0.74274814 0.0019323113 -0.76871383
-0.057193484 -0.7440805 0.12635048 0.48717266 0.12059439 0.26128525 -0.032859962 0.16985863
0.13911192 0.5675926 0.55310863 0.25762108 0.16429715 0.03588201 -0.02516108 0.3517822
00000000: 886c 87bd eb5a 25bf a0bd b9be dcec 21be
00000010: 99db eb3e 7720 373e 459e bd3e 7058 cbbe
00000020: c353 423d f21e dcbe 27f2 5a3e 6d24 3fbd
00000030: dab0 33bf 9205 a33e b9e0 24be 08f5 663f
00000040: 1b26 c73e 0282 20bf 5e3f 0cbe 94d5 8bbe
00000050: 016f e13e b7b5 783f f94f 073f d916 4dbd
00000060: 332e 113f 4a13 37bd 4315 11bf 93a7 333f
00000070: d299 1d3c f806 163f c98f f2bc 0f37 0a3e
00000080: af36 4bbe 7630 003d 4ba4 55bf 3689 a1be
00000090: c853 bc3e 4c16 4d3f 5867 c33d 2e06 c43e
000000a0: 7917 3a3e dbc5 bfbd f28e bebd 7242 54be
000000b0: ac44 7ebe b5ae a7bd 15de fc3d 7b03 b2bd
000000c0: 01b5 9abe 47f2 3bbf 265a 97be 67ba e13e
000000d0: 0cda 833e 3687 873e fee6 99be 1f4a bc3e
000000e0: 1ea7 c3be ec17 c5be d6df 51bf 9cd7 b73d
000000f0: 1e05 0abd a01c fa3d 76e0 29bc 9c9c 2d3d
00000100: 8895 4b3d 4f27 2bbe 4657 9d3e 4839 f0be
00000110: 7e34 133d 709c 68bd d15d a0be 83c2 ef3e
00000120: 69f9 09bf 4ea2 c03e 5c42 68be 0686 ac3e
00000130: 133f 953e fda3 25be de0d cfbe c52d 38bf
00000140: 903f aabe 98b4 ef3e d991 d0be e8ac 1abf
00000150: 1bd3 cebe e9a3 fabd f4c1 e5be 51dc 61bf
00000160: b7e2 12be 9129 933e 487d ef3d 49c8 de3e
00000170: bda7 2f3d 53dc 8bbd 9301 e93e 8670 cbbe
00000180: eccc 433e 7142 293e 73ea 1abe eca7 e9be
00000190: ab55 c93e 2364 a83d 00af babe a335 1ebe
000001a0: 66aa 3d3e 9696 7a3e b68d bb3d df64 99be
000001b0: d79a 233f d845 16be 69a3 8bbe 31a3 dcbe
000001c0: 8c26 c23e 0fe8 ba3d 2c35 3bbd 036c 8cbd
000001d0: b47e db3d 97bf 31be 9177 153e d372 09be
000001e0: dc17 8cbe 6af0 ba3e b7ac 0fbc accc c53d
000001f0: ebab 2cbe 0515 8bbe 2672 963e aa02 78be
00000200: 0145 2dbf 3d18 9bbd c4ff f53e fa74 a5be
00000210: 9999 b83e 3780 37be 52ee 553f 5136 9cbd
00000220: c87f 7c3d 8e0e dbbc e20b 073f b8fd a5be
00000230: 6105 2a3e be24 3e3f 9c45 fd3a 6eca 44bf
00000240: b743 6abd 0f7c 3ebf 0562 013e b26e f93e
00000250: 31fa f63d 2ec7 853e 2b98 06bd 6cef 2d3e
00000260: 5b73 0e3e c04d 113f 8798 0d3f e9e6 833e
00000270: 833d 283e 04f9 123d 9c1e cebc cc1c b43e

arith.constant18 f4 [16, 3, 3, 16]
0.12970053 0.05610238 -0.04918415 -0.04410291 0.062108953 0.11834456 0.07634397 0.011192281
0.1725881 -0.090075284 0.0144620715 0.16524374 0.016116196 -0.103937514 0.020254245 0.046032663
-0.07442315 0.009840186 -0.25173765 0.029209493 0.064784445 0.10473273 -0.021189747 -0.022629635
-0.044304978 -0.016402679 -0.10970555 0.12988523 0.07923382 0.123302706 -0.08477679 0.0864348
0.00818451 0.051238265 -0.0935365 -0.21094452 0.10751931 0.1503772 0.20032637 -0.17596065
-0.36964238 -0.12210839 0.037104584 -0.2559163 -0.15968192 -0.07028191 -0.011876584 0.14827526
-0.13924864 -0.17446095 0.14471637 -0.10725365 -0.11743781 -0.03865327 0.14292155 -0.04491177
-0.1851147 -0.020979084 -0.006376749 0.18315361 0.12163454 0.11038465 -0.22665031 0.0042421613
-0.13611728 0.033439893 -0.283264 0.3244816 0.12903564 -0.12040679 0.17616959 -0.20362586
-0.23920847 0.19195586 -0.23025884 0.07721234 0.37633502 -0.061715193 -0.070670456 -0.1377974
0.14446473 -0.33819735 0.010043167 0.02649982 0.099862374 -0.16373321 0.08666509 -0.05327295
0.35435072 0.03877784 0.25156933 0.064363845 0.0014226636 0.36745316 -0.25019905 -0.19400425
0.13810818 0.1909989 0.21572325 0.21417388 0.2183162 0.084431656 0.031465165 0.10757789
0.00029470513 -0.025618678 0.09832486 0.022938572 -0.032148212 0.28812167 -0.12431071 0.15175903
-0.03975791 -0.03757201 0.16594075 -0.26686782 -0.007642688 -0.16611053 0.111382686 0.23402604
-0.23147552 -0.019572852 0.10835195 -0.6744353 0.14761165 0.2624285 -0.3345177 -0.0038921514
0.16336535 0.07170704 -0.17111681 -0.077101804 -0.24411719 0.20449947 0.46367127 0.2985903
0.03916776 0.17123 -0.38431647 -0.0149384085 -0.070393935 0.21211788 -0.024659583 -0.30501923
-0.24100311 0.07235774 0.04357276 0.084149115 0.17968135 0.024640108 -0.12211173 -0.1140218
-0.04751165 -0.19899163 0.08694919 -0.018892301 -0.007193839 -0.23064142 -0.18902552 -0.15497953
0.1389732 0.027849048 0.11650034 -0.15758373 -0.25736752 0.09947744 0.19498894 0.31931162
0.58551973 -0.105128326 -0.03853545 0.117354624 -0.0077993213 -0.14950632 0.1737849 0.40277022
-0.08636506 -0.00742081 0.17531766 0.054580398 -0.119287826 -0.05301067 -0.09067944 -0.17567438
-0.4405828 -0.16024421 -0.093708895 0.12596586 0.009901319 -0.2526193 0.15656142 0.13070679
0.0065458775 0.021518288 0.11017246 0.051754948 0.08853035 -0.08691406 0.06343633 0.08909238
-0.013478442 0.06932775 0.12078805 0.12098279 -0.20294987 -0.085919626 0.037387025 0.10418909
-0.010708837 -0.27324113 0.24237348 0.2809966 0.03395236 0.40509033 -0.11644889 -0.2323786
0.19459365 0.31335476 0.12098468 0.084073246 -0.21852401 -0.23703465 0.26665583 0.18717241
-0.14198558 -0.03676073 -0.101132795 0.027708525 0.0062784883 0.087000966 0.08843024 -0.103394836
-0.07393238 -0.28452426 0.07968621 -0.29010513 0.118096806 -0.049407206 0.32788047 0.043596447
0.09497347 0.01208249 -0.15809537 -0.040921833 -0.13201536 0.15622087 -0.008464537 0.066148944
0.16270831 -0.03814079 0.16073154 0.013612587 0.12056273 0.003683672 -0.033709314 -0.060037427
00000000: 37d0 043e 9ccb 653d 5275 49bd 41a5 34bd
00000010: f565 7e3d a25e f23d 3a5a 9c3d d45f 373c
00000020: efba 303e 6479 b8bd 53f2 6c3c a835 293e
00000030: 1d06 843c 31dd d4bd 3bec a53c bf8c 3c3d
00000040: 2a6b 98bd bb38 213c c2e3 80be bf48 ef3c
00000050: b5ad 843d 1d7e d63d 1f96 adbc c961 b9bc
00000060: 2379 35bd e95e 86bc 4ead e0bd a200 053e
00000070: 5745 a23d 2186 fc3d 749f adbd ba04 b13d
00000080: 5318 063c 37df 513d 1190 bfbd d701 58be
00000090: 1633 dc3d 7bfc 193e 5b22 4d3e 072f 34be
000000a0: c441 bdbe f713 fabd fafa 173d 7607 83be
000000b0: a883 23be f6ef 8fbd 0196 42bc 78d5 173e
000000c0: 3297 0ebe e4a5 32be 8730 143e cda7 dbbd
000000d0: 3c83 f0bd e452 1ebd 075a 123e 67f5 37bd
000000e0: b58e 3dbe 54dc abbc 0cf4 d0bb 9f8c 3b3e
000000f0: 881b f93d 5911 e23d 0517 68be d401 8b3b
00000100: 5462 0bbe 45f8 083d fb07 91be 7422 a63e
00000110: eb21 043e d697 f6bd cd65 343e 4c83 50be
00000120: 11f3 74be 1490 443e f9c8 6bbe 8121 9e3d
00000130: fcae c03e 12c9 7cbd acbb 90bd c31a 0dbe
00000140: 90ee 133e 3428 adbe 188c 243c 2716 d93c
00000150: a584 cc3d aea9 27be 777d b13d bd34 5abd
00000160: 756d b53e 83d5 1e3d b2cd 803e 31d1 833d
00000170: ab78 ba3a d222 bc3e 171a 80be 0da9 46be
00000180: 3b6c 0d3e 3795 433e 8ee6 5c3e 6650 5b3e
00000190: 488e 5f3e 81ea ac3d 9ee1 003d cc51 dc3d
000001a0: a782 9a39 43de d1bc 8b5e c93d ace9 bb3c
000001b0: d8ad 03bd af84 933e 9d96 febd b866 1b3e
000001c0: 31d9 22bd 1ce5 19bd 5fec 293e e6a2 88be
000001d0: 846f fabb e118 2abe 9b1c e43d 86a4 6f3e
000001e0: eb07 6dbe 3f57 a0bc a1e7 dd3d cba7 2cbf
000001f0: 8227 173e 075d 863e e745 abbe 7713 7fbb
00000200: 3f49 273e 24db 923d 3f39 2fbe 8de7 9dbd
00000210: dbf9 79be 4f68 513e 5266 ed3e d4e0 983e
00000220: 606e 203d eb56 2f3e 21c5 c4be 3ac0 74bc
00000230: b22a 90bd 6e35 593e e502 cabc 7b2b 9cbe
00000240: 85c9 76be 4b30 943d 5a79 323d 5f56 ac3d
00000250: 63fe 373e 0dda c93c b715 fabd 4384 e9bd
00000260: 939b 42bd 76c4 4bbe 6b12 b23d 07c4 9abc
00000270: 4cba ebbb 442d 6cbe e88f 41be f4b2 1ebe
00000280: fe4e 0e3e b023 e43c bb97 ee3d a15d 21be
00000290: adc5 83be d4ba cb3d 2eab 473e d07c a33e
000002a0: 9fe4 153f 854d d7bd 59d7 1dbd 9f57 f03d
000002b0: 7391 ffbb 2f18 19be abf4 313e e637 ce3e
000002c0: 2ae0 b0bd 442a f3bb 7986 333e b28f 5f3d
000002d0: 2d4d f4bd b721 59bd 24b6 b9bd fce3 33be
000002e0: 1294 e1be 0f17 24be 73ea bfbd 32fd 003e
000002f0: 2439 223c 5157 81be a351 203e 00d8 053e
00000300: cd7e d63b 1f47 b03c 19a2 e13d fffc 533d
00000310: 664f b53d 0000 b2bd e8ea 813d 1176 b63d
00000320: afd4 5cbc b5fb 8d3d ba5f f73d d3c5 f73d
00000330: 17d2 4fbe a1f6 afbd 2323 193d 1761 d53d
00000340: 1e74 2fbc 43e6 8bbe c130 783e c9de 8f3e
00000350: a111 0b3d 0068 cf3e c17c eebd a8f4 6dbe
00000360: 8f43 473e 0970 a03e d1c6 f73d 982e ac3d
00000370: c2c4 5fbe 36b9 72be 1d87 883e 20aa 3f3e
00000380: ab64 11be 6b92 16bd b61e cfbd fdfc e23c
00000390: c7bb cd3b 902d b23d ea1a b53d acc0 d3bd
000003a0: dc69 97bd 2aad 91be 8632 a33d a988 94be
000003b0: bddc f13d 365f 4abd f3df a73e 3092 323d
000003c0: 7381 c23d a3f5 453c c1e3 21be a79d 27bd
000003d0: 092f 07be 5df8 1f3e d7ae 0abc 1979 873d
000003e0: 029d 263e 8439 1cbd cf96 243e 5407 5f3c
000003f0: 98e9 f63d c369 713b c712 0abd cee9 75bd

arith.constant19 f4 [16, 3, 3, 16]
0.046683576 -0.26454276 -0.05883399 0.1408268 0.111320496 -0.19164021 -0.05111755 0.40611488
-0.061114524 -0.1832251 -0.17174232 -0.17915694 0.15660898 0.040430184 0.16825004 -0.080642916
-0.10301503 0.08249061 -0.0070133237 -0.035399858 0.14536184 -0.28765357 -0.18042906 -0.07942107
0.11166183 -0.080510646 0.13422976 -0.13513927 0.19240162 0.109333366 -0.09231816 -0.22092731
0.25158888 -0.27727613 0.04430194 0.2627724 0.09704469 0.017947746 0.16294935 -0.14142175
0.005598015 -0.11168771 -0.114153385 -0.04771957 0.13426422 0.09086296 -0.11303089 -0.039736934
-0.048577223 -0.17681229 0.014249434 0.11062353 -0.038565435 -0.08446578 0.19033569 0.040060483
-0.2554489 -0.02295885 0.06391054 0.08776848 0.11658954 0.22143102 0.15552819 -0.20624557
0.1254448 -0.14491338 -0.12228544 0.05886719 -0.17096066 0.008285783 0.22835413 -0.17955552
0.17165759 -0.08787578 0.13811825 0.070693225 0.009365166 -0.10253322 -0.1425276 0.00337845
-0.072037384 0.07989413 -0.15419064 -0.2927705 -0.20414512 -0.031346012 -0.07281564 0.04345133
-0.09732266 -0.014972396 -0.06407442 0.2620066 0.00071628415 0.044803202 -0.017784871 0.02253506
0.07821286 0.037785016 -0.05799102 0.04133681 -0.09560581 -0.07400891 0.18983242 0.059828006
-0.09917498 0.14208095 -0.04333644 -0.23649397 -0.12458709 -0.0021603743 -0.21355028 -0.0014829324
-0.10683012 0.33903342 -0.09518535 0.021647796 0.20504196 -0.035162542 -0.106616706 -0.036907014
-0.008371511 0.04709356 0.15392579 -0.26660255 -0.08798401 -0.0006452346 0.1939205 -0.2688543
0.16821003 0.061956286 -0.056004107 0.1493506 0.3941588 -0.05577319 0.15529561 0.08908979
-0.20487423 0.050520092 -0.08454213 0.07758393 0.12773876 -0.011287931 -0.03445913 0.07566702
-0.06354473 0.039282195 0.12314247 -0.19545382 -0.09303425 0.039524026 -0.15293987 -0.020058347
-0.15429054 -0.036083028 0.13303675 0.13026115 -0.009905144 -0.18508972 -0.07471439 -0.15735847
0.018536204 0.00043705592 -0.0847706 -0.047952432 0.20452794 -0.07618628 -0.042393815 0.056764342
0.02504431 0.15139093 0.112032786 0.03400201 -0.012319101 0.04500562 0.17913298 -0.052568518
0.03669331 0.014436228 -0.088986754 0.080190144 0.021104395 0.16269124 0.08731776 0.022774374
-0.12645504 -0.20256135 -0.16698486 0.019155145 0.1335096 0.024976099 0.14979163 0.04960847
-0.13856901 0.110026546 0.06699437 0.12439806 0.04726626 -0.2708534 0.32014295 -0.011201863
0.12955593 0.07044094 -0.093227156 -0.050657865 -0.008571352 0.025691718 0.21020971 -0.18352681
-0.09448781 -0.0663746 0.060244698 -0.016578741 -0.03673168 0.07113594 -0.075586475 0.033270907
0.08551082 0.116374075 0.026782103 -0.10642071 -0.08903199 -0.12125667 -0.0064493762 -0.084167294
0.028604006 -0.0775158 -0.18013372 -0.043790247 -0.074742354 0.13213347 -0.2647819 0.07443934
0.0454 0.02716425 -0.07776205 0.012820426 0.13965927 -0.07226656 0.0054632905 -0.14573443
-0.028198028 -0.02252644 0.013595103 0.0290829 -0.13525845 0.06358148 -0.089507215 0.05490425
-0.10882977 0.06791926 -0.119947836 0.0836957 0.026945425 0.076072045 0.120825484 -0.09041918
00000000: 4737 3f3d 2672 87be e9fb 70bd e734 103e
00000010: 00fc e33d 553d 44be a360 51bd 4aee cf3e
00000020: 3953 7abd 5c9f 3bbe 38dd 2fbe eb74 37be
00000030: 1b5e 203e 1f9a 253d bd49 2c3e 1d28 a5bd
00000040: 8bf9 d2bd d6f0 a83d 06d0 e5bb 71ff 10bd
00000050: bcd9 143e 5447 93be 65c2 38be 84a7 a2bd
00000060: f5ae e43d c4e2 a4bd 8773 093e f361 0abe
00000070: ee04 453e 2cea df3d 4e11 bdbd c53a 62be
00000080: 42d0 803e 23f7 8dbe f375 353d 1b8a 863e
00000090: 5ebf c63d 2707 933c 32dc 263e ddd0 10be
000000a0: 8e6f b73b 87bc e4bd 40c9 e9bd 9975 43bd
000000b0: 8f7c 093e 5c16 ba3d bd7c e7bd 32c3 22bd
000000c0: e9f8 46bd 480e 35be 7576 693c 978e e23d
000000d0: caf6 1dbd 65fc acbd 5ce7 423e 7616 243d
000000e0: 33ca 82be 3314 bcbc 87e3 823d f6bf b33d
000000f0: 7fc6 ee3d d0be 623e c842 1f3e 0a32 53be
00000100: 9a74 003e 2c64 14be ca70 fabd b91e 713d
00000110: 5010 2fbe 18c1 073c aad5 693e 67dd 37be
00000120: 02c7 2f3e 38f8 b3bd df6e 0d3e 9cc7 903d
00000130: 5a70 193c f0fc d1bd c1f2 11be fc68 5d3b
00000140: 5688 93bd 899f a33d 27e4 1dbe 04e6 95be
00000150: 6b0b 51be ad64 00bd 5e20 95bd 06fa 313d
00000160: 1a51 c7bd c84e 75bc 7339 83bd bb25 863e
00000170: 04c5 3b3a 9083 373d 94b1 91bc 729b b83c
00000180: 102e a03d 76c4 1a3d fe87 6dbd c950 293d
00000190: fbcc c3bd fc91 97bd 6e63 423e 360e 753d
000001a0: 401c cbbd ab7d 113e 8d81 31bd 7a2b 72be
000001b0: 8427 ffbd 1195 0dbb edac 5abe f45e c2ba
000001c0: c0c9 dabd ca95 ad3e 89f0 c2bd b856 b13c
000001d0: 85f6 513e 9906 10bd dc59 dabd cf2b 17bd
000001e0: a928 09bc 2de5 403d b99e 1d3e 2180 88be
000001f0: f630 b4bd f624 29ba 1893 463e 45a7 89be
00000200: 403f 2c3e e0c5 7d3d 9064 65bd 5def 183e
00000210: 2fcf c93e 6e72 64bd d005 1f3e b574 b63d
00000220: 8dca 51be 28ee 4e3d 6d24 adbd 53e4 9e3d
00000230: f3cd 023e 04f1 38bc 0425 0dbd 50f7 9a3d
00000240: bd23 82bd 5ee6 203d 1f32 fc3d 0c25 48be
00000250: be88 bebd f2e3 213d 459c 1cbe 6751 a4bc
00000260: 57fe 1dbe cccb 13bd c93a 083e 2e63 053e
00000270: 2f49 22bc 2988 3dbe dc03 99bd 9422 21be
00000280: 3dd9 973c a724 e539 359c adbd c569 44bd
00000290: c66f 513e 8d07 9cbd 23a5 2dbd ba81 683d
000002a0: ba29 cd3c 3906 1b3e 7271 e53d b145 0b3d
000002b0: 0ed6 49bc d057 383d a36e 373e 1652 57bd
000002c0: b94b 163d ee85 6c3c b03e b6bd bb3a a43d
000002d0: 20e3 ac3c 8898 263e a7d3 b23d 5391 ba3c
000002e0: 6e7d 01be 3e6c 4fbe 14fe 2abe 40eb 9c3c
000002f0: beb6 083e ad9a cc3c fa62 193e 4032 4b3d
00000300: 09e5 0dbe 9955 e13d 5834 893d 69c4 fe3d
00000310: 449a 413d 4cad 8abe c7e9 a33e 0588 37bc
00000320: 4faa 043e 5743 903d e1ed bebd 9f7e 4fbd
00000330: db6e 0cbc 7077 d23c 3741 573e 74ee 3bbe
00000340: d382 c1bd 68ef 87bd 25c3 763d 24d0 87bc
00000350: f573 16bd b8af 913d 15cd 9abd 1347 083d
00000360: 4c20 af3d 8855 ee3d 2466 db3c 1af3 d9bd
00000370: 6756 b6bd 6b55 f8bd 4a55 d3bb e75f acbd
00000380: f352 ea3c 9bc0 9ebd f974 38be 675d 33bd
00000390: 8512 99bd ff4d 073e 7e91 87be a773 983d
000003a0: 5af5 393d 9087 de3c b641 9fbd c40c 523c
000003b0: d702 0f3e 7d00 94bd 6705 b33b 683b 15be
000003c0: 8dff e6bc 5e89 b8bc ffbd 5e3c 433f ee3c
000003d0: 3181 0abe 0237 823d 8f4f b7bd 47e3 603d
000003e0: 24e2 debd 4119 8b3d 36a7 f5bd a768 ab3d
000003f0: a7bc dc3c a9cb 9b3d 5a73 f73d b12d b9bd

arith.constant20 f4 [16, 3, 3, 16]
-0.11638918 -0.0065203947 0.17833658 -0.26353258 -0.1061851 0.069250785 0.056956552 -0.031663675
-0.15657774 -0.020601215 -0.060031157 -0.19615223 -0.052830826 -0.043706086 0.024669975 0.014167423
-0.007913728 0.23624483 0.29649472 -0.20417327 0.074438795 0.07177564 -0.019027539 -0.070208564
-0.2217681 0.08596925 0.04137644 -0.07749953 -0.15439284 0.005877434 -0.025325056 -0.056116022
0.08269742 -0.13686213 0.19994755 -0.0060462863 0.113594055 -0.073785305 0.057774227 0.06579439
0.19701335 -0.0007972388 0.08506743 -0.13721293 -0.11971335 -0.22269312 0.23976733 -0.010995763
-0.0039460286 -0.15014793 0.1029531 -0.18015115 -0.09529539 0.19483241 -0.03677042 -0.09850895
-0.12584956 -0.05383492 0.01271585 0.14174046 -0.11596375 0.044194322 0.049526047 -0.037453696
-0.13268994 -0.25238344 -0.04520994 -0.1543658 0.027412323 -0.19085428 -0.079434514 -0.03578871
-0.14896004 0.10672625 -0.052061252 -0.22545496 0.067279294 -0.055144697 0.045360256 -0.13386825
-0.18740484 -0.032420862 -0.09109617 0.0310957 -0.041907366 -0.09373769 -0.1493448 -0.08515371
-0.1350169 -0.06112051 -0.06595997 -0.14044821 -0.013345191 0.12913315 -0.18777235 -0.08238191
0.21011548 -0.0342814 -0.04507411 -0.14079657 -0.23321268 -0.18700969 -0.02965437 0.008166965
0.00816449 -0.033418667 -0.07741401 0.12301309 -0.036157552 -0.10654198 0.1701146 0.06229204
-0.05371633 0.0017619776 -0.15656824 -0.05844069 -0.10869146 -0.09240775 -0.014058613 -0.048305843
0.1746913 0.005287712 -0.046352644 0.06409327 -0.068832606 -0.063022286 -0.0606587 -0.22316356
0.07147793 0.09036582 -0.08416668 0.20731135 -0.03262657 -0.050102703 0.015382688 0.35083604
0.10140321 -0.033715 0.1124648 -0.0012071333 -0.04607827 0.14270598 0.038348403 0.0043196743
0.0108325165 0.014083062 0.014655774 0.013033434 0.13634191 -0.0008765617 -0.090530485 0.04110462
-0.14511825 0.045167126 -0.023547316 -0.24238832 0.011455066 -0.07035851 0.051145416 0.12804246
0.1655977 0.14747706 0.12683015 0.14677842 0.038584117 0.019559557 -0.02640857 0.035932418
0.05243004 -0.05381979 0.113632455 -0.07581779 0.11820553 -0.07385272 0.03919419 -0.043115474
0.0069093094 -0.18066025 -0.0041740793 0.0568373 -0.042401135 -0.08501252 -0.05084219 -0.071658224
0.021681577 -0.044996228 0.00014147669 -0.039219752 -0.036151104 -0.18037073 -0.045938473 -0.019866785
0.016470237 -0.055581674 -0.0068225963 -0.09892781 -0.105132155 0.04372966 -0.012719159 -0.026309524
0.03367292 0.030012652 0.05218488 -0.024855053 -0.18346693 -0.15280996 0.06769999 -0.023527347
0.15201266 0.051315263 -0.01226665 0.16275775 0.05939311 -0.1512063 -0.04599841 0.026638929
-0.17058812 -0.08016218 0.084421255 -0.11476741 0.03948211 0.22929901 -0.08814102 0.046824217
-0.03708194 0.13285664 0.04274199 0.13104478 -0.10133394 -0.12885523 -0.07897134 -0.09073652
-0.13642678 0.08677022 0.13681395 0.068013035 -0.007219757 0.16309035 -0.07601338 -0.087976255
0.06406675 0.1856846 0.09966959 -0.017609585 0.0147472145 0.07089912 0.031089017 -0.024720307
0.08562106 0.11937079 -0.1120105 0.08767742 0.026608987 0.14925483 0.022662997 0.026810125
00000000: 735d eebd 09a9 d5bb dd9d 363e beed 86be
00000010: 9377 d9bd 5bd3 8d3d 464b 693d c5b1 01bd
00000020: ea55 20be e1c3 a8bc 3be3 75bd 21dc 48be
00000030: 2365 58bd 2705 33bd b018 ca3c 7b1e 683c
00000040: 95a8 01bc 2aea 713e 28ce 973e cc12 51be
00000050: 5e73 983d 1bff 923d a4df 9bbc 82c9 8fbd
00000060: 2d17 63be a510 b03d 587a 293d 13b8 9ebd
00000070: 2819 1ebe 7d97 c03b 7e76 cfbc ead9 65bd
00000080: 445d a93d 9625 0cbe 0dbf 4c3e ed1f c6bb
00000090: 00a4 e83d c01c 97bd aba4 6c3d 36bf 863d
000000a0: debd 493e cafd 50ba d537 ae3d 8c81 0cbe
000000b0: 462c f5bd aa09 64be 9185 753e 9327 34bc
000000c0: b04d 81bb 61c0 19be 13d9 d23d 8b79 38be
000000d0: 3b2a c3bd 2682 473e 949c 16bd 0fbf c9bd
000000e0: b5de 00be 0182 5cbd 2456 503c 6924 113e
000000f0: 677e edbd 1b05 353d d3db 4a3d 0c69 19bd
00000100: dfdf 07be 6738 81be 0f2e 39bd 1112 1ebe
00000110: cf8f e03c 4e6f 43be 90ae a2bd 2f97 12bd
00000120: fb88 18be 4b93 da3d 2e3e 55bd aadd 66be
00000130: bac9 893d 68df 61bd adcb 393d c214 09be
00000140: 0ee7 3fbe bdcb 04bd a190 babd 69bc fe3c
00000150: 0fa7 2bbd 8cf9 bfbd d8ed 18be 1165 aebd
00000160: df41 0abe 8059 7abd 0516 87bd a8d1 0fbe
00000170: caa5 5abc 7b3b 043e 6547 40be d9b7 a8bd
00000180: 8328 573e a76a 0cbd a19f 38bd fa2c 10be
00000190: 4ecf 6ebe 787f 3fbe b9ed f2bc bcce 053c
000001a0: 5ac4 053c 03e2 08bd 3d8b 9ebd 49ee fb3d
000001b0: f119 14bd ae32 dabd 8632 2e3e f025 7f3d
000001c0: a805 5cbd 28f2 e63a 6d53 20be 815f 6fbd
000001d0: a199 debd 4640 bdbd 1956 66bc 59dc 45bd
000001e0: 47e2 323e 8b44 ad3b 45dc 3dbd 5543 833d
000001f0: 1cf8 8cbd d411 81bd 4275 78bd fd84 64be
00000200: 0563 923d b711 b93d 955f acbd 6d49 543e
00000210: 70a3 05bd 7e38 4dbd ab07 7c3c c8a0 b33e
00000220: 7cac cf3d bd18 0abd f253 e63d ac38 9eba
00000230: 91bc 3cbd 8421 123e 3713 1d3d 0e8c 8d3b
00000240: de7a 313c a5bc 663c c61e 703c 2f8a 553c
00000250: 379d 0b3e 0fc9 65ba 0c68 b9bd 515d 283d
00000260: e199 14be 2a01 393d 4de6 c0bc a534 78be
00000270: 07ae 3b3c 1f18 90bd db7d 513d 901d 033e
00000280: 7292 293e 3a04 173e c3df 013e 154d 163e
00000290: 610a 1e3d 5d3b a03c c956 d8bc df2d 133d
000002a0: e2c0 563d 2472 5cbd 22b8 e83d 5c46 9bbd
000002b0: be15 f23d 1840 97bd 168a 203d da99 30bd
000002c0: 7d67 e23b 00ff 38be b7c6 88bb 3bce 683d
000002d0: d0ac 2dbd 0b1b aebd e63f 50bd 8cc1 92bd
000002e0: 909d b13c f74d 38bd 5c59 1439 e4a4 20bd
000002f0: 2e13 14bd 1bb3 38be fb29 3cbd abbf a2bc
00000300: 97ec 863c 9ca9 63bd 1690 dfbb aa9a cabd
00000310: 874f d7bd df1d 333d 0564 50bc 1287 d7bc
00000320: 9eec 093d 18dd f53c d0bf 553d d39c cbbc
00000330: c1de 3bbe 377a 1cbe 4ba6 8a3d 6cbc c0bc
00000340: 35a9 1b3e f42f 523d 0ffa 48bc f8a9 263e
00000350: 3146 733d d3d5 1abe d468 3cbd e239 da3c
00000360: a7ae 2ebe 122c a4bd 0de5 ac3d 2d0b ebbd
00000370: feb7 213d 5ccd 6a3e 4783 b4bd c0ca 3f3d
00000380: 3be3 17bd 920b 083e 3a12 2f3d 9a30 063e
00000390: 2b88 cfbd a0f2 03be babb a1bd 12d4 b9bd
000003a0: 76b3 0bbe 96b4 b13d f518 0c3e 6b4a 8b3d
000003b0: b693 ecbb 2801 273e e7ac 9bbd e52c b4bd
000003c0: 6e35 833d 1b24 3e3e 921f cc3d fa41 90bc
000003d0: 4d9e 713c 8f33 913d 65ae fe3c 3e82 cabc
000003e0: 185a af3d ac78 f43d c365 e5bd 3890 b33d
000003f0: 17fb d93c 42d6 183e c0a7 b93c e8a0 db3c

arith.constant21 f4 [10, 1, 1, 32]
-0.4940276 -0.14624515 0.32867104 0.049743235 -0.57578766 0.33305568 -0.0670426 -0.12836358
0.16937052 0.4324602 0.29607865 -0.37830818 -0.31819662 -0.44314775 0.23586683 -1.1464065
0.31939593 -0.3707272 -0.018122293 0.53155494 0.05643237 0.5903438 -0.6326613 -0.40211138
0.2991906 0.21146621 0.40109292 -0.5410797 -0.318705 -0.39028922 0.55163646 -0.6110227
0.2654093 -0.32899505 -0.32316002 -0.5720946 -0.7315624 -1.0185608 0.16065405 -0.5150421
0.7607137 -0.51934516 -0.28895438 -0.0729372 0.13829267 -0.20917025 -0.55058026 0.37952334
-0.27204853 0.5874638 -0.8415764 -0.067007214 0.183892 0.5786794 -0.294389 0.2518898
-0.5800753 0.25336358 -0.052859012 0.367362 -0.44426587 -0.029127307 0.26486704 0.16159306
0.1098684 0.022850294 0.041118722 -0.124775745 -0.30915114 0.21119055 0.29979932 0.34606433
-0.57875586 -0.15122637 0.054297388 0.29928625 -0.15186353 -0.46211568 -0.5613824 -0.19542256
-0.18664993 0.28571612 -0.5440939 -0.007328431 1.1096597 0.13611653 -0.17768297 -0.17425844
-0.0003008223 -0.98582274 -0.9432331 0.20226432 0.684839 0.50603706 0.4278551 -0.96778256
-1.57275 -0.11613279 0.007510783 -0.9881486 0.045342635 -0.27595216 -0.08624129 -0.13076657
-0.22565843 -0.42587003 -0.18667537 0.7353682 0.021303676 -0.49362838 -0.20275833 -0.34597093
0.10650203 0.55308974 0.2701842 -0.25567067 0.87560827 0.21411791 -0.184391 -0.7440696
-0.24908097 0.050591476 -0.08173274 -0.29581133 -0.3499031 0.69510466 0.3638723 -0.1602092
0.15963133 -0.012281161 0.42622846 -0.5507485 0.15027297 0.2795795 -0.03711161 0.1292204
-0.65451974 -1.122284 -0.9223743 -0.08502597 0.07140615 -0.83427244 -0.95248365 -0.42942384
0.022462906 0.1187155 0.8889374 0.37867272 -0.39692467 -0.11741103 0.13341878 -0.19030176
-0.3716792 -0.34717718 -0.022273157 0.9358405 0.74992335 -0.4578621 0.9843041 -0.7206158
0.39691633 0.26798216 0.18135244 -0.5570046 0.07908817 0.3411571 0.26576093 0.3973932
-0.33544433 -1.4270086 -0.12971255 0.0029794902 -0.1267223 0.16523857 -0.43795738 -0.025140561
0.2157381 -0.21278557 -1.3610283 0.58678246 0.54762053 -0.38580668 -0.028633634 -0.060833197
0.4361932 0.36849806 -0.88308775 -0.0025489843 0.19852932 0.07250129 -0.03296551 -0.60844064
-0.1601707 0.5997107 -0.102135964 0.22431454 -0.44762385 0.42206544 0.41940734 0.73549014
-0.6541609 -0.4984972 -0.11756727 0.27123114 -0.40329725 0.3115036 -0.2613115 -0.8369489
0.024055872 -0.9009862 -1.5254954 -0.10417711 -0.46572718 -0.6181672 0.38218898 -0.15431337
-0.79761297 -0.21519409 -0.2462332 -0.2772957 -0.2060266 0.6314654 -0.06557499 0.42336777
0.06277687 -0.015750315 -0.22377476 -0.77995735 -0.8811896 0.28616965 0.044047903 -0.14989756
-0.06196948 0.886315 -0.2165986 0.11816638 -0.5438149 0.3424317 -0.24411081 -0.59757674
-0.42773 -0.40022075 0.9046585 -0.34715033 -0.11925849 -0.25203416 -0.056647874 -0.34168217
0.87260276 -0.30803478 -0.37375885 0.48181942 -0.3274465 -0.19772409 -0.13431177 -0.41868055
00000000: 30f1 fcbe 4ac1 15be 9247 a83e 90bf 4b3d
00000010: d266 13bf 4686 aa3e a14d 89bd be71 03be
00000020: 776f 2d3e 6c6b dd3e 9f97 973e 9cb1 c1be
00000030: abea a2be 43e4 e2be 1387 713e 73bd 92bf
00000040: dd87 a33e f5cf bdbe 3475 94bc fc13 083f
00000050: a125 673d c520 173f 17f6 21bf 8be1 cdbe
00000060: 832f 993e 998a 583e 0d5c cd3e 3384 0abf
00000070: 4d2d a3be fdd3 c7be 0c38 0d3f fc6b 1cbf
00000080: bae3 873e 0a72 a8be 3b75 a5be cb74 12bf
00000090: ac47 3bbf 3360 82bf 7f82 243e cdd9 03bf
000000a0: 22be 423f cef3 04bf d4f1 93be 1960 95bd
000000b0: 989c 0d3e ba30 56be d4f2 0cbf e250 c23e
000000c0: f249 8bbe 0764 163f 8d71 57bf 143b 89bd
000000d0: 2f4e 3c3e 5524 143f 28ba 96be b3f7 803e
000000e0: d17f 14bf dfb8 813e b182 58bd df16 bc3e
000000f0: d176 e3be 649c eebc a79c 873e a778 253e
00000100: af02 e13d 8a30 bb3c 1b6c 283d 6d8a ffbd
00000110: 0f49 9ebe 5642 583e 4c7f 993e 582f b13e
00000120: 5829 14bf 16db 1abe f066 5e3d 0c3c 993e
00000130: 1d82 1bbe 6d9a ecbe c2b6 0fbf da1c 48be
00000140: 2921 3fbe 6249 923e bd49 0bbf 5623 f0bb
00000150: 5409 8e3f 2262 0b3e 86f2 35be ce70 32be
00000160: b0b7 9db9 e15e 7cbf b977 71bf 611e 4f3e
00000170: 9c51 2f3f a58b 013f d30f db3e 99c0 77bf
00000180: df4f c9bf 07d7 edbd 041d f63b 4ff7 7cbf
00000190: 33b9 393d 9a49 8dbe 469f b0bd ace7 05be
000001a0: 0113 67be a30b dabe d427 3fbe 1741 3c3f
000001b0: 0c85 ae3c dcbc fcbe e19f 4fbe 1a23 b1be
000001c0: bc1d da3d 4a97 0d3f 9555 8a3e 44e7 82be
000001d0: dd27 603f ba41 5b3e ffd0 3cbe 587b 3ebf
000001e0: 150f 7fbe 0239 4f3d 7f63 a7bd 9574 97be
000001f0: 8026 b3be 61f2 313f 784d ba3e e10d 24be
00000200: 6576 233e ec36 49bc 9e3a da3e dbfd 0cbf
00000210: 28e1 193e 0b25 8f3e 5802 18bd 5a52 043e
00000220: 9b8e 27bf 01a7 8fbf b920 6cbf 1922 aebd
00000230: 633d 923d e192 55bf f8d5 73bf 71dd dbbe
00000240: 2104 b83c 1d21 f33d 6791 633f 64e1 c13e
00000250: b639 cbbe 3275 f0bd ef9e 083e 77de 42be
00000260: bc4c bebe 35c1 b1be 3276 b6bc 3e93 6f3f
00000270: fafa 3f3f e76c eabe 5afb 7b3f 477a 38bf
00000280: 9e38 cb3e f534 893e 74b4 393e da97 0ebf
00000290: faf8 a13d 25ac ae3e d111 883e 1f77 cb3e
000002a0: 5cbf abbe 38a8 b6bf 5ed3 04be 8d43 433b
000002b0: 7ec3 01be 4d34 293e f33b e0be 94f3 cdbc
000002c0: 73ea 5c3e 76e4 59be 2d36 aebf 6037 163f
000002d0: dc30 0c3f 7488 c5be 1591 eabc 3b2c 79bd
000002e0: b754 df3e c7ab bc3e 0a12 62bf dc0c 27bb
000002f0: 454b 4b3e 8e7b 943d d806 07bd c4c2 1bbf
00000300: ca03 24be a486 193f a92c d1bd b6b2 653e
00000310: f42e e5be f618 d83e 8fbc d63e 1549 3c3f
00000320: 1777 27bf 063b ffbe 1cc7 f0bd cfde 8a3e
00000330: fa7c cebe 667d 9f3e 9fca 85be 4842 56bf
00000340: d210 c53c 08a7 66bf 6f43 c3bf cf5a d5bd
00000350: cb73 eebe 3540 1ebf 46ae c33e 5304 1ebe
00000360: 5d30 4cbf d75b 5cbe 8e24 7cbe b4f9 8dbe
00000370: a3f8 52be b7a7 213f 2e4c 86bd a9c3 d83e
00000380: 2991 803d ce06 81bc 3625 65be 49ab 47bf
00000390: a495 61bf d484 923e 936b 343d bf7e 19be
000003a0: b6d3 7dbd 8ae5 623f 06cc 5dbe 3701 f23d
000003b0: 7437 0bbf 3553 af3e 2ff8 79be cafa 18bf
000003c0: 6dff dabe bce9 ccbe b397 673f b0bd b1be
000003d0: cc3d f4bd 9f0a 81be 9a07 68bd f7f0 aebe
000003e0: e562 5f3f bcb6 9dbe 525d bfbe 09b1 f63e
000003f0: 11a7 a7be 2f78 4abe 0689 09be 4c5d d6be
