assets/ultraface_detector_float16.tflite (tflite, 623844 bytes, 106 tensors)

arith.constant1 f2 [1, 4420, 2]
0.0125 0.01666 0.0125 0.01666 0.0125 0.01666 0.0375 0.01666
0.0375 0.01666 0.0375 0.01666 0.0625 0.01666 0.0625 0.01666
0.0625 0.01666 0.0875 0.01666 0.0875 0.01666 0.0875 0.01666
0.1125 0.01666 0.1125 0.01666 0.1125 0.01666 0.1375 0.01666
0.1375 0.01666 0.1375 0.01666 0.1625 0.01666 0.1625 0.01666
0.1625 0.01666 0.1875 0.01666 0.1875 0.01666 0.1875 0.01666
0.2125 0.01666 0.2125 0.01666 0.2125 0.01666 0.2375 0.01666
0.2375 0.01666 0.2375 0.01666 0.2625 0.01666 0.2625 0.01666
0.2625 0.01666 0.2876 0.01666 0.2876 0.01666 0.2876 0.01666
0.3125 0.01666 0.3125 0.01666 0.3125 0.01666 0.3374 0.01666
0.3374 0.01666 0.3374 0.01666 0.3625 0.01666 0.3625 0.01666
0.3625 0.01666 0.3875 0.01666 0.3875 0.01666 0.3875 0.01666
0.4126 0.01666 0.4126 0.01666 0.4126 0.01666 0.4375 0.01666
0.4375 0.01666 0.4375 0.01666 0.4624 0.01666 0.4624 0.01666
0.4624 0.01666 0.4875 0.01666 0.4875 0.01666 0.4875 0.01666
0.5127 0.01666 0.5127 0.01666 0.5127 0.01666 0.5376 0.01666
0.5376 0.01666 0.5376 0.01666 0.5625 0.01666 0.5625 0.01666
0.5625 0.01666 0.5874 0.01666 0.5874 0.01666 0.5874 0.01666
0.6123 0.01666 0.6123 0.01666 0.6123 0.01666 0.6377 0.01666
0.6377 0.01666 0.6377 0.01666 0.6626 0.01666 0.6626 0.01666
0.6626 0.01666 0.6875 0.01666 0.6875 0.01666 0.6875 0.01666
0.7124 0.01666 0.7124 0.01666 0.7124 0.01666 0.7373 0.01666
0.7373 0.01666 0.7373 0.01666 0.7627 0.01666 0.7627 0.01666
0.7627 0.01666 0.7876 0.01666 0.7876 0.01666 0.7876 0.01666
0.8125 0.01666 0.8125 0.01666 0.8125 0.01666 0.8374 0.01666
0.8374 0.01666 0.8374 0.01666 0.8623 0.01666 0.8623 0.01666
0.8623 0.01666 0.8877 0.01666 0.8877 0.01666 0.8877 0.01666
0.9126 0.01666 0.9126 0.01666 0.9126 0.01666 0.9375 0.01666
0.9375 0.01666 0.9375 0.01666 0.9624 0.01666 0.9624 0.01666
0.9624 0.01666 0.9873 0.01666 0.9873 0.01666 0.9873 0.01666
0.0125 0.05 0.0125 0.05 0.0125 0.05 0.0375 0.05
0.0375 0.05 0.0375 0.05 0.0625 0.05 0.0625 0.05
00000000: 6622 4424 6622 4424 6622 4424 cd28 4424
00000010: cd28 4424 cd28 4424 002c 4424 002c 4424
00000020: 002c 4424 9a2d 4424 9a2d 4424 9a2d 4424
00000030: 332f 4424 332f 4424 332f 4424 6630 4424
00000040: 6630 4424 6630 4424 3331 4424 3331 4424
00000050: 3331 4424 0032 4424 0032 4424 0032 4424
00000060: cd32 4424 cd32 4424 cd32 4424 9a33 4424
00000070: 9a33 4424 9a33 4424 3334 4424 3334 4424
00000080: 3334 4424 9a34 4424 9a34 4424 9a34 4424
00000090: 0035 4424 0035 4424 0035 4424 6635 4424
000000a0: 6635 4424 6635 4424 cd35 4424 cd35 4424
000000b0: cd35 4424 3336 4424 3336 4424 3336 4424
000000c0: 9a36 4424 9a36 4424 9a36 4424 0037 4424
000000d0: 0037 4424 0037 4424 6637 4424 6637 4424
000000e0: 6637 4424 cd37 4424 cd37 4424 cd37 4424
000000f0: 1a38 4424 1a38 4424 1a38 4424 4d38 4424
00000100: 4d38 4424 4d38 4424 8038 4424 8038 4424
00000110: 8038 4424 b338 4424 b338 4424 b338 4424
00000120: e638 4424 e638 4424 e638 4424 1a39 4424
00000130: 1a39 4424 1a39 4424 4d39 4424 4d39 4424
00000140: 4d39 4424 8039 4424 8039 4424 8039 4424
00000150: b339 4424 b339 4424 b339 4424 e639 4424
00000160: e639 4424 e639 4424 1a3a 4424 1a3a 4424
00000170: 1a3a 4424 4d3a 4424 4d3a 4424 4d3a 4424
00000180: 803a 4424 803a 4424 803a 4424 b33a 4424
00000190: b33a 4424 b33a 4424 e63a 4424 e63a 4424
000001a0: e63a 4424 1a3b 4424 1a3b 4424 1a3b 4424
000001b0: 4d3b 4424 4d3b 4424 4d3b 4424 803b 4424
000001c0: 803b 4424 803b 4424 b33b 4424 b33b 4424
000001d0: b33b 4424 e63b 4424 e63b 4424 e63b 4424
000001e0: 6622 662a 6622 662a 6622 662a cd28 662a
000001f0: cd28 662a cd28 662a 002c 662a 002c 662a

arith.constant2 f2 [1, 4420, 2]
0.03125 0.04166 0.05 0.06665 0.075 0.1 0.03125 0.04166
0.05 0.06665 0.075 0.1 0.03125 0.04166 0.05 0.06665
0.075 0.1 0.03125 0.04166 0.05 0.06665 0.075 0.1
0.03125 0.04166 0.05 0.06665 0.075 0.1 0.03125 0.04166
0.05 0.06665 0.075 0.1 0.03125 0.04166 0.05 0.06665
0.075 0.1 0.03125 0.04166 0.05 0.06665 0.075 0.1
0.03125 0.04166 0.05 0.06665 0.075 0.1 0.03125 0.04166
0.05 0.06665 0.075 0.1 0.03125 0.04166 0.05 0.06665
0.075 0.1 0.03125 0.04166 0.05 0.06665 0.075 0.1
0.03125 0.04166 0.05 0.06665 0.075 0.1 0.03125 0.04166
0.05 0.06665 0.075 0.1 0.03125 0.04166 0.05 0.06665
0.075 0.1 0.03125 0.04166 0.05 0.06665 0.075 0.1
0.03125 0.04166 0.05 0.06665 0.075 0.1 0.03125 0.04166
0.05 0.06665 0.075 0.1 0.03125 0.04166 0.05 0.06665
0.075 0.1 0.03125 0.04166 0.05 0.06665 0.075 0.1
0.03125 0.04166 0.05 0.06665 0.075 0.1 0.03125 0.04166
0.05 0.06665 0.075 0.1 0.03125 0.04166 0.05 0.06665
0.075 0.1 0.03125 0.04166 0.05 0.06665 0.075 0.1
0.03125 0.04166 0.05 0.06665 0.075 0.1 0.03125 0.04166
0.05 0.06665 0.075 0.1 0.03125 0.04166 0.05 0.06665
0.075 0.1 0.03125 0.04166 0.05 0.06665 0.075 0.1
0.03125 0.04166 0.05 0.06665 0.075 0.1 0.03125 0.04166
0.05 0.06665 0.075 0.1 0.03125 0.04166 0.05 0.06665
0.075 0.1 0.03125 0.04166 0.05 0.06665 0.075 0.1
0.03125 0.04166 0.05 0.06665 0.075 0.1 0.03125 0.04166
0.05 0.06665 0.075 0.1 0.03125 0.04166 0.05 0.06665
0.075 0.1 0.03125 0.04166 0.05 0.06665 0.075 0.1
0.03125 0.04166 0.05 0.06665 0.075 0.1 0.03125 0.04166
0.05 0.06665 0.075 0.1 0.03125 0.04166 0.05 0.06665
0.075 0.1 0.03125 0.04166 0.05 0.06665 0.075 0.1
0.03125 0.04166 0.05 0.06665 0.075 0.1 0.03125 0.04166
0.05 0.06665 0.075 0.1 0.03125 0.04166 0.05 0.06665
00000000: 0028 5529 662a 442c cd2c 662e 0028 5529
00000010: 662a 442c cd2c 662e 0028 5529 662a 442c
00000020: cd2c 662e 0028 5529 662a 442c cd2c 662e
00000030: 0028 5529 662a 442c cd2c 662e 0028 5529
00000040: 662a 442c cd2c 662e 0028 5529 662a 442c
00000050: cd2c 662e 0028 5529 662a 442c cd2c 662e
00000060: 0028 5529 662a 442c cd2c 662e 0028 5529
00000070: 662a 442c cd2c 662e 0028 5529 662a 442c
00000080: cd2c 662e 0028 5529 662a 442c cd2c 662e
00000090: 0028 5529 662a 442c cd2c 662e 0028 5529
000000a0: 662a 442c cd2c 662e 0028 5529 662a 442c
000000b0: cd2c 662e 0028 5529 662a 442c cd2c 662e
000000c0: 0028 5529 662a 442c cd2c 662e 0028 5529
000000d0: 662a 442c cd2c 662e 0028 5529 662a 442c
000000e0: cd2c 662e 0028 5529 662a 442c cd2c 662e
000000f0: 0028 5529 662a 442c cd2c 662e 0028 5529
00000100: 662a 442c cd2c 662e 0028 5529 662a 442c
00000110: cd2c 662e 0028 5529 662a 442c cd2c 662e
00000120: 0028 5529 662a 442c cd2c 662e 0028 5529
00000130: 662a 442c cd2c 662e 0028 5529 662a 442c
00000140: cd2c 662e 0028 5529 662a 442c cd2c 662e
00000150: 0028 5529 662a 442c cd2c 662e 0028 5529
00000160: 662a 442c cd2c 662e 0028 5529 662a 442c
00000170: cd2c 662e 0028 5529 662a 442c cd2c 662e
00000180: 0028 5529 662a 442c cd2c 662e 0028 5529
00000190: 662a 442c cd2c 662e 0028 5529 662a 442c
000001a0: cd2c 662e 0028 5529 662a 442c cd2c 662e
000001b0: 0028 5529 662a 442c cd2c 662e 0028 5529
000001c0: 662a 442c cd2c 662e 0028 5529 662a 442c
000001d0: cd2c 662e 0028 5529 662a 442c cd2c 662e
000001e0: 0028 5529 662a 442c cd2c 662e 0028 5529
000001f0: 662a 442c cd2c 662e 0028 5529 662a 442c

arith.constant14 f2 [16, 3, 3, 3]
-0.2795 0.1782 0.11884 -0.3108 0.1748 0.11816 -0.2451 0.1469
0.1018 -0.2556 0.1676 0.10156 -0.307 0.178 0.1289 -0.227
0.1392 0.10516 -0.2482 0.1383 0.1201 -0.3022 0.1488 0.1392
-0.246 0.11304 0.1317 0.0804 0.0545 0.08185 -0.02332 -0.0451
-0.072 -0.326 -0.3066 -0.3184 -0.01971 0.00267 0.002777 0.02223
0.0121 -0.00922 -0.04608 -0.0351 -0.0577 -0.00806 0.01862 0.04324
-0.007576 -0.02615 -0.02301 0.0389 0.01791 0.02783 0.1653 0.0906
0.064 -0.328 -0.2019 -0.2103 0.03378 0.04245 0.04877 0.304
0.2242 0.2257 -0.3137 -0.2161 -0.2015 0.0424 0.0523 0.0813
0.1757 0.0956 0.0526 -0.0659 -0.01458 -0.04907 -0.053 -0.03088
0.001752 0.1254 0.0822 0.04285 0.001346 0.01651 0.01682 -0.03088
-0.02141 -0.006214 0.10974 0.0658 0.05756 -0.2874 -0.2659 -0.1823
0.02031 0.0024 0.01459 -0.02342 -0.002422 0.00774 -0.071 -0.03522
-0.02669 0.1567 0.1384 0.07526 -0.1733 -0.1343 -0.1329 0.1902
0.1304 0.1074 0.00466 0.01717 0.0262 0.1162 0.10406 0.0772
0.1969 0.138 0.10736 -0.1658 -0.1324 -0.1017 0.03714 0.01915
0.0171 -0.0951 -0.09314 -0.0727 -0.0888 -0.0364 -0.0222 0.0539
0.05954 0.0525 0.001814 0.0359 0.01418 -0.02808 -0.01228 -0.03152
0.0782 0.04633 0.04025 0.03503 0.03668 0.02425 -0.0157 -0.01888
-0.03046 -0.006237 -0.03091 -0.01884 0.013824 -0.006508 0.00749 0.01415
0.006374 0.02074 0.056 0.1428 -0.154 0.1181 0.1597 -0.2886
0.0623 0.08307 -0.154 0.09705 0.1967 -0.3135 0.2847 0.2416
-0.5215 0.1095 0.1819 -0.272 0.2032 0.2625 -0.4434 0.3435
0.2788 -0.644 0.2241 0.2073 -0.4385 -0.11273 -0.076 -0.06573
-0.1763 -0.1444 -0.1437 -0.1035 -0.07776 -0.0584 0.1589 0.1136
0.11035 0.256 0.2152 0.1909 0.1368 0.0974 0.0992 -0.0537
-0.0452 -0.036 -0.0682 -0.0652 -0.07355 -0.02814 -0.02565 -0.02184
0.1268 0.1106 0.0976 0.1578 0.1228 0.0994 0.0841 0.05124
0.02673 -0.0686 -0.04752 -0.0437 -0.075 -0.0881 -0.0768 -0.04132
-0.011406 -0.010925 -0.01499 -0.01855 -0.02168 -0.011375 -0.04904 -0.0508
-0.04596 -0.01622 -0.01501 0.02548 0.0858 0.09143 0.1207 0.1559
0.1447 0.01573 0.03038 -0.0408 0.1455 0.1365 0.1155 -0.1875
00000000: 79b4 b431 9b2f f9b4 9831 902f d8b3 b330
00000010: 842e 17b4 5d31 802e e9b4 b231 2030 44b3
00000020: 7430 bb2e f1b3 6d30 b02f d6b4 c330 7430
00000030: dfb3 3c2f 3730 252d fa2a 3d2d f8a5 c6a9
00000040: 9cac 37b5 e8b4 18b5 0ca5 7819 b019 b125
00000050: 3222 b8a0 e6a9 7ea8 63ab 20a0 c424 8929
00000060: c29f b2a6 e4a5 fb28 9624 2027 4a31 cc2d
00000070: 192c 3fb5 76b2 bbb2 5328 6f29 3e2a dd34
00000080: 2d33 3933 05b5 eab2 73b2 6d29 b22a 342d
00000090: 9f31 1e2e bc2a 38ac 77a3 48aa c9aa e8a7
000000a0: 2d17 0330 432d 7c29 8315 3a24 4e24 e8a7
000000b0: 7ba5 5d9e 062f 362c 5e2b 99b4 41b4 d5b1
000000c0: 3325 ea18 7823 ffa5 f698 ed1f 8bac 82a8
000000d0: d5a6 0431 6e30 d12c 8cb1 4cb0 41b0 1632
000000e0: 2c30 e02e c61c 6524 b526 702f a92e f12c
000000f0: 4d32 6a30 df2e 4eb1 3db0 82ae c128 e724
00000100: 6124 16ae f6ad a7ac afad a9a8 afa5 e62a
00000110: 9f2b b82a 6e17 9828 4323 30a7 4aa2 09a8
00000120: 012d ee29 2729 7c28 b228 3526 05a4 d5a4
00000130: cca7 639e eaa7 d3a4 1423 aa9e ab1f 3f23
00000140: 871e 4f25 2b2b 9230 eeb0 8f2f 1c31 9eb4
00000150: f92b 512d eeb0 362e 4b32 04b5 8e34 bb33
00000160: 2cb8 022f d231 5ab4 8132 3334 18b7 7f35
00000170: 7634 27b9 2c33 a232 04b7 37af ddac 35ac
00000180: a4b1 9fb0 99b0 a0ae faac 7aab 1631 452f
00000190: 102f 1934 e332 1c32 6130 3c2e 592e e0aa
000001a0: c9a9 9ca8 5dac 2cac b5ac 34a7 91a6 97a5
000001b0: 0f30 142f 3f2e 0d31 dc2f 5d2e 622d 8f2a
000001c0: d826 64ac 15aa 98a9 cdac a3ad eaac 4aa9
000001d0: d7a1 98a1 ada3 c0a4 8da5 d3a1 47aa 81aa
000001e0: e2a9 27a4 afa3 8626 7e2d da2d ba2f fd30
000001f0: a130 0724 c727 39a9 a830 5e30 642f 00b2

arith.constant15 f2 [1, 3, 3, 16]
-0.6553 -0.4934 -0.23 -0.603 -0.04538 0.04672 -0.08954 0.2142
0.3203 -0.049 1.483 0.5947 -0.2283 0.04138 -0.2834 1.31
-0.6157 -0.4304 -0.2913 1.833 0.945 -1.19 1.072 0.3352
0.01121 -0.542 0.05173 -0.2219 -0.9736 0.67 -0.12427 2.229
-0.569 -0.2025 -0.0904 0.10803 0.1625 -0.9556 0.0239 0.1862
0.2053 0.1998 -1.474 0.0615 -0.2017 0.063 0.1475 0.0875
0.3997 -1.025 -0.2668 0.3047 0.7993 -0.1998 0.4937 0.0907
-0.1553 -0.4758 3.902 -0.5586 -0.08765 0.0583 1.307 0.74
2.252 -0.86 3.012 -4.734 -4.49 0.8726 -3.082 -5.21
-3.92 2.7 -2.736 -4.676 2.719 -5.082 -0.9404 1.13
0.36 -0.2144 -0.919 0.5527 0.768 -1.079 0.3164 -0.1292
-0.12335 -0.4695 -1.6455 0.632 -0.0669 0.088 -0.1581 -0.8276
-0.427 1.6045 -0.0694 0.528 0.2593 -0.124 -0.03558 0.1493
-0.2174 -0.2751 -0.7305 0.159 -0.2544 0.1 -0.432 -1.309
0.529 2.396 -0.0756 0.4373 0.3948 2.61 0.6616 -0.08185
3.635 -0.1346 0.6025 0.4211 -0.0717 -0.3076 0.699 -3.158
-0.4048 -0.4797 -0.426 0.0396 -0.1037 0.7935 0.0003293 0.1437
-0.2073 -0.1863 0.3765 0.2803 -0.2568 0.1349 0.0233 0.3286
00000000: 3eb9 e5b7 5cb3 d3b8 cfa9 fb29 bbad db32
00000010: 2035 46aa ef3d c238 4eb3 4c29 89b4 3d3d
00000020: edb8 e3b6 a9b4 553f 8f3b c3bc 4a3c 5d35
00000030: bd21 56b8 9f2a 1ab3 cabb 5c39 f4af 7540
00000040: 8db8 7bb2 c9ad ea2e 3331 a5bb 1e26 f531
00000050: 9232 6532 e5bd df2b 74b2 082c b830 9a2d
00000060: 6536 1abc 45b4 e034 653a 65b2 e637 ce2d
00000070: f8b0 9db7 ce43 78b8 9cad 762b 3a3d ec39
00000080: 8140 e1ba 0642 bcc4 7dc4 fb3a 2ac2 36c5
00000090: d7c3 6641 79c1 adc4 7041 15c5 86bb 853c
000000a0: c335 dcb2 5abb 6c38 253a 51bc 1035 22b0
000000b0: e5af 83b7 95be 0e39 48ac a22d 0fb1 9fba
000000c0: d5b6 6b3e 71ac 3938 2634 f0af 8ea8 c730
000000d0: f5b2 67b4 d8b9 1731 12b4 662e e9b6 3cbd
000000e0: 3b38 cb40 d7ac ff36 5136 3841 4b39 3dad
000000f0: 4543 4fb0 d238 bd36 97ac ecb4 9839 51c2
00000100: 7ab6 adb7 d1b6 1229 a3ae 593a 650d 9930
00000110: a2b2 f6b1 0636 7c34 1cb4 5130 f725 4235

arith.constant16 f2 [32, 1, 1, 16]
0.00892 0.1395 0.5337 0.10645 -0.2101 -0.1626 -0.05573 0.04297
-0.1754 -0.5522 0.4617 0.555 0.02483 -0.1587 0.3591 -0.067
0.1871 -0.0696 -0.02025 -0.02205 -0.011345 -0.0677 -0.3784 -0.004353
-0.008026 -0.01449 -0.03186 0.0449 0.28 0.0112 -0.01127 -0.07635
-0.3884 0.0936 0.01353 0.01128 0.03152 0.08765 0.3916 -0.01361
0.01962 0.04166 -0.02257 -0.013084 -0.4019 -0.002808 -0.009476 0.05472
-0.02205 0.04205 0.11115 -0.3525 -0.2498 -0.171 -0.03513 -0.0823
-0.1362 -0.02162 -0.1428 0.059 0.0252 -0.5483 -0.9683 -0.1361
-0.01955 -0.0605 -0.445 -0.05408 0.04852 0.4673 -0.03268 -0.02562
-0.05136 -0.06033 -0.1472 -0.2301 0.01999 -0.10846 0.03653 -0.8784
-0.9473 -0.221 0.04883 0.1162 0.045 0.1527 0.3416 0.02612
0.1414 -0.0579 -0.0051 -0.06085 -0.6914 0.08246 0.2612 0.154
0.05365 0.159 -0.01434 0.0772 0.05103 0.138 1.024 0.00899
0.0403 0.01724 0.0423 -0.01593 0.04877 0.00577 0.0485 0.02762
-0.02605 0.2605 -0.1914 -0.1313 -0.1809 -0.332 0.008766 0.6084
-0.305 0.0496 -0.02505 -0.1196 0.0445 0.6265 0.05643 -0.1945
0.03372 0.001091 0.01058 0.05902 0.01642 -0.00477 -0.05804 -0.1187
-0.1455 0.03787 0.05466 0.02466 0.02737 -0.1484 -0.0232 -0.05515
0.0739 -0.2386 -0.009254 -0.02785 -0.1581 0.264 -0.10706 -0.554
0.06744 -0.2979 0.03125 -0.0402 0.05917 -0.2373 0.1141 -0.441
0.009766 -0.2104 0.01463 -0.2446 -0.296 0.05435 -0.004242 -0.2866
-0.00368 -0.3127 -0.945 0.174 -0.01161 -0.1311 0.3027 -0.1251
-0.03998 0.1046 0.238 0.3586 0.2314 -0.004864 0.03644 -0.3132
-0.2168 0.1764 0.1351 0.1528 0.013115 -0.325 0.1849 -0.1292
0.692 -0.1243 -0.004097 -0.0773 -0.1026 -0.06134 -0.3816 0.03732
0.0872 -0.0605 -0.03735 0.00405 0.3635 0.0814 -0.013145 -0.08136
0.00789 0.2153 -0.05978 0.1345 0.02 0.03119 -0.004402 -0.2489
-0.4578 0.1766 0.0457 -0.02032 0.003263 -0.01778 0.03232 0.244
0.1043 -0.1918 0.0471 0.0507 0.00651 0.1337 -0.11414 -0.2354
0.007107 -0.1335 -0.002628 -0.01102 0.08887 -0.2944 0.0552 -0.3965
0.015305 0.0993 -0.4438 -0.03915 -0.3093 -0.4504 -0.03424 -0.1838
-0.2444 -0.1553 0.4536 -0.588 0.010185 -0.05426 0.2803 -0.0805
00000000: 9120 7730 4538 d02e b9b2 34b1 22ab 8029
00000010: 9db1 6bb8 6337 7138 5b26 14b1 bf35 4aac
00000020: fd31 74ac 2fa5 a5a5 cfa1 55ac 0eb6 759c
00000030: 1ca0 6ba3 14a8 bf29 7b34 bc21 c5a1 e3ac
00000040: 37b6 fe2d ed22 c621 0928 9c2d 4436 f8a2
00000050: 0625 5529 c7a5 b3a2 6eb6 c099 daa0 012b
00000060: a5a5 6229 1d2f a4b5 feb3 79b1 7fa8 44ad
00000070: 5cb0 89a5 92b0 8d2b 7426 63b8 bfbb 5bb0
00000080: 01a5 beab 1fb7 ecaa 362a 7a37 2fa8 8fa6
00000090: 93aa b9ab b6b0 5db3 1e25 f1ae ad28 07bb
000000a0: 94bb 12b3 402a 702f c329 e330 7735 b026
000000b0: 8630 69ab 399d caab 88b9 472d 2e34 ee30
000000c0: de2a 1731 58a3 f12c 882a 6a30 193c 9a20
000000d0: 2929 6a24 6a29 14a4 3e2a e91d 352a 1227
000000e0: aba6 2b34 20b2 34b0 cab1 50b5 7d20 de38
000000f0: e1b4 592a 6aa6 a8af b229 0339 392b 39b2
00000100: 5128 7814 6b21 8e2b 3424 e29c 6eab 99af
00000110: a8b0 d928 ff2a 5026 0227 c0b0 f0a5 0fab
00000120: bb2c a3b3 bda0 21a7 0fb1 3934 daae 6fb8
00000130: 512c c4b4 0028 25a9 932b 98b3 4d2f 0eb7
00000140: 0021 bcb2 7e23 d4b3 bcb4 f52a 589c 96b4
00000150: 899b 01b5 8fbb 9131 f2a1 32b0 d834 01b0
00000160: 1ea9 b22e 9e33 bd35 6833 fb9c aa28 03b5
00000170: f0b2 a531 5330 e430 b722 33b5 eb31 22b0
00000180: 8939 f5af 329c f2ac 91ae daab 1bb6 c728
00000190: 952d beab c8a8 261c d135 362d bba2 35ad
000001a0: 0a20 e432 a7ab 4e30 1f25 fc27 829c f7b3
000001b0: 53b7 a731 d929 34a5 af1a 8da4 2328 cf33
000001c0: ad2e 23b2 072a 7d2a ab1e 4730 4eaf 88b3
000001d0: 471f 46b0 6299 a4a1 b02d b6b4 112b 58b6
000001e0: d623 5b2e 1ab7 03a9 f3b4 35b7 62a8 e2b1
000001f0: d2b3 f8b0 4237 b4b8 3721 f2aa 7c34 27ad

arith.constant17 f2 [1, 3, 3, 32]
0.2043 0.2747 0.6636 0.4697 0.277 0.13 0.1049 0.1035
1.615 0.00362 0.3132 0.1401 0.1742 0.0361 0.501 0.3452
-0.11554 -0.09406 -0.2057 -1.186 -0.1747 -0.9976 -0.07007 -0.1284
0.204 0.127 -1.04 0.1576 0.23 -0.255 -0.1476 0.2512
0.2578 -0.4639 0.9585 0.5737 0.5527 0.2467 0.2198 0.1838
0.8745 0.05136 0.674 -0.1409 -0.337 -0.08936 0.5425 0.492
-0.1749 -0.55 -0.253 0.3557 -0.3083 -1.943 -0.0497 -0.3953
0.382 0.2712 -1.293 0.2827 0.4539 -0.4285 -1.318 0.4585
0.1175 -0.5796 0.4329 0.1364 0.2788 0.1979 0.1401 0.1427
-0.627 0.1237 0.4983 -0.3628 -0.2551 -0.04514 0.3875 0.325
-0.0597 -0.432 -0.0764 1.268 -0.221 -0.817 0.12103 -0.3386
0.2092 0.2996 -0.3608 0.283 0.3123 -0.2386 0.01335 0.2737
0.4148 1.363 0.03195 0.57 0.4785 0.258 0.1553 0.2041
1.548 0.2976 0.1891 0.2009 -0.1637 0.2073 0.3057 0.579
-0.547 -0.457 -0.3586 -1.338 -0.2354 0.0269 -0.3936 -0.3674
0.3635 0.3325 -0.4526 0.4011 -0.6885 -0.4924 -1.287 0.3933
0.505 -0.0687 0.5327 0.9688 0.777 0.504 0.4172 0.4243
0.3936 0.6006 0.717 -0.6216 -0.7944 0.3457 0.4504 0.799
-0.6963 -1.009 -0.596 -0.991 -0.534 0.3687 -0.608 -0.892
0.6123 0.5405 -0.328 0.7705 -1.167 -0.862 -0.4446 0.658
0.155 -1.406 0.5576 0.5806 0.3506 0.3027 0.279 0.293
-1.305 0.4019 0.622 -0.6104 -0.5327 0.186 0.3577 0.4355
-0.3923 -0.4958 -0.258 1.8955 -0.426 0.3474 -0.2542 -0.6133
0.3503 0.482 0.1153 0.3914 -0.573 -0.515 1.529 0.4978
0.2445 0.9487 -1.255 0.09576 0.4011 0.268 0.1392 0.0665
0.2273 0.3425 -0.1757 0.1613 0.02478 -0.7876 -0.6743 0.2615
-0.2659 -0.4534 -0.3167 -0.1556 -0.2118 0.4717 -0.1318 -0.3
0.2014 0.4072 0.76 0.3274 0.05338 -0.3147 -0.9683 0.2007
0.3003 0.3643 -1.726 0.524 0.5684 0.3633 0.2573 0.1774
-0.3071 0.667 0.1604 -0.516 0.162 -1.164 -1.7 0.5415
-0.6206 -0.576 -0.4219 -0.986 -0.4595 1.058 -0.5596 -0.4148
0.3425 0.55 1.08 0.4907 0.06195 -0.531 1.0625 0.3855
00000000: 8a32 6534 4f39 8437 6f34 2930 b72e a02e
00000010: 763e 6a1b 0335 7c30 9331 9f28 0238 8635
00000020: 65af 05ae 95b2 bebc 97b1 fbbb 7cac 1cb0
00000030: 8732 1030 29bc 0b31 5c33 14b4 b9b0 0534
00000040: 2034 6cb7 ab3b 9738 6c38 e533 0933 e231
00000050: ff3a 932a 6439 82b0 64b5 b8ad 5738 df37
00000060: 99b1 66b8 0cb4 b135 efb4 c6bf 5daa 53b6
00000070: 1d36 5734 2cbd 8634 4337 dbb6 46bd 5637
00000080: 852f a3b8 ed36 5d30 7634 5532 7c30 9130
00000090: 04b9 eb2f f937 ceb5 15b4 c7a9 3336 3335
000000a0: a4ab e9b6 e4ac 123d 12b3 89ba bf2f 6bb5
000000b0: b232 cb34 c6b5 8734 ff34 a3b3 d622 6134
000000c0: a336 743d 1728 8f38 a837 2134 f830 8832
000000d0: 313e c334 0d32 6e32 3db1 a232 e434 a238
000000e0: 60b8 50b7 bdb5 5abd 88b3 e326 4cb6 e1b5
000000f0: d135 5235 3eb7 6b36 82b9 e1b7 26bd 4b36
00000100: 0a38 66ac 4338 c03b 373a 0838 ad36 ca36
00000110: 4c36 ce38 bc39 f9b8 5bba 8835 3537 643a
00000120: 92b9 09bc c5b8 eebb 46b8 e635 ddb8 23bb
00000130: e638 5338 3fb5 2a3a abbc e5ba 1db7 4439
00000140: f630 a0bd 7638 a538 9c35 d834 7734 b034
00000150: 38bd 6e36 fa38 e2b8 43b8 f431 b935 f836
00000160: 47b6 efb7 21b4 953f d1b6 8f35 11b4 e8b8
00000170: 9b35 b637 612f 4336 96b8 1fb8 1e3e f737
00000180: d333 973b 05bd 212e 6b36 4a34 7430 422c
00000190: 4633 7b35 9fb1 2931 5826 4dba 65b9 2f34
000001a0: 41b4 41b7 11b5 fbb0 c7b2 8c37 38b0 cdb4
000001b0: 7232 8436 143a 3d35 d52a 09b5 bfbb 6c32
000001c0: ce34 d435 e7be 3138 8c38 d035 1e34 ad31
000001d0: eab4 5639 2231 21b8 2f31 a8bc cdbe 5538
000001e0: f7b8 9cb8 c0b6 e3bb 5ab7 3b3c 7ab8 a3b6
000001f0: 7b35 6638 523c da37 ee2b 3fb8 403c 2b36

arith.constant18 f2 [32, 1, 1, 32]
0.011986 -0.0707 0.11115 0.00944 0.0648 0.04883 0.06525 0.0813
-0.05807 0.1109 -0.006382 0.002565 0.01216 0.091 0.0725 -0.04468
-0.006283 -0.03723 -0.02623 -0.02882 -0.02931 0.04007 -0.03625 -0.0767
0.05038 0.06885 0.0739 0.02956 0.0332 -0.01195 0.02547 0.10345
0.12286 -0.04477 -0.1653 -0.02872 0.09296 -0.015495 -0.00495 -0.2776
-0.0741 -0.5425 -0.01371 0.03842 -0.05695 -0.2693 -0.00994 -0.0739
-0.04794 -0.05585 -0.0912 -0.1021 0.03305 -0.2352 -0.362 -0.06903
-0.1973 -0.01141 -0.1794 -0.1116 -0.245 -0.1453 -0.05173 0.3083
-0.0768 0.08575 -0.08453 -0.03793 -0.281 -0.03674 -0.04562 -0.05664
0.1508 -0.04553 0.4297 0.003212 0.01361 -0.009224 -0.003702 0.3296
-0.1359 -0.0776 0.1377 0.4006 0.04453 -0.0579 0.01851 -0.0004542
0.2367 -0.0323 -0.01897 0.0729 -0.01091 0.203 0.01067 -0.02316
0.0865 0.1368 0.02512 0.1969 0.00699 -0.05603 0.02359 0.0599
-0.02074 0.0825 0.1826 -0.0395 0.0761 -0.02489 0.01877 0.1737
0.0886 -0.2192 -0.0225 0.05475 -0.03485 -0.0297 -0.02641 0.04236
-0.1097 -0.04675 -0.05984 -0.1786 -0.02827 0.1049 -0.02676 -0.01595
-0.11 0.03522 0.1087 0.05576 0.263 -0.10803 -0.05972 -0.11615
-0.05554 0.3306 -0.022 -0.0243 -0.07983 -0.0854 0.08185 0.097
0.01498 -0.0422 0.05505 -0.06854 0.06744 0.077 0.1729 0.2542
-0.0003884 -0.01332 -0.127 0.1401 -0.0765 -0.014435 0.07104 -0.2235
0.2097 0.0156 -0.01058 -0.04306 -0.013466 0.03976 0.01834 -0.02036
0.06714 -0.0807 -0.04135 -0.098 0.04565 -0.03827 -0.0422 -0.03693
-0.1666 -0.03378 -0.1902 0.0538 -0.02783 0.010635 0.007362 0.0855
0.0195 0.008194 -0.01555 -0.03677 -0.06256 -0.06934 -0.002375 -0.01547
0.063 0.1465 0.0158 0.0889 0.03586 -0.02072 -0.013916 -0.01341
0.0786 -0.01854 0.05484 -0.1735 -0.0319 -0.0399 -0.0338 -0.01392
-0.1464 -0.07666 -0.0633 0.0717 -0.005848 0.04282 -0.05887 0.0292
0.04333 0.01709 -0.000305 0.04733 -0.01619 -0.12146 0.0663 -0.04135
0.1111 0.075 0.0311 0.03156 -0.1213 -0.06027 -0.1312 -0.0247
0.01823 0.1477 0.08124 0.07465 -0.2756 -0.05215 0.05362 0.108
0.01009 -0.0903 -0.02715 0.0171 0.2402 -0.0448 0.05432 -0.0801
-0.2026 -0.0524 0.08563 -0.1385 -0.004066 0.03223 -0.273 -0.02182
00000000: 2322 86ac 1d2f d520 262c 402a 2d2c 342d
00000010: 6fab 192f 899e 4119 3a22 d32d a42c b8a9
00000020: 6f9e c4a8 b7a6 61a7 81a7 2129 a4a8 e9ac
00000030: 732a 682c bb2c 9127 4028 1ea2 8526 9f2e
00000040: dd2f bba9 4ab1 5aa7 f32d efa3 129d 71b4
00000050: beac 57b8 05a3 eb28 4aab 4fb4 17a1 bbac
00000060: 23aa 26ab d6ad 89ae 3b28 87b3 cbb5 6bac
00000070: 50b2 d8a1 beb1 24af d7b3 a6b0 9faa ef34
00000080: eaac 7d2d 69ad dba8 7fb4 b4a8 d7a9 40ab
00000090: d330 d4a9 e036 941a f822 b9a0 959b 4635
000000a0: 59b0 f7ac 6830 6936 b329 69ab bd24 718f
000000b0: 9333 22a8 dba4 aa2c 96a1 7f32 7721 eea5
000000c0: 892d 6130 6e26 4d32 281f 2cab 0a26 ab2b
000000d0: 4fa5 482d d831 0ea9 df2c 5fa6 ce24 8f31
000000e0: ac2d 04b3 c3a5 022b 76a8 9aa7 c3a6 6c29
000000f0: 05af fca9 a9ab b7b1 3da7 b72e daa6 15a4
00000100: 0aaf 8228 f52e 232b 3534 eaae a5ab 6faf
00000110: 1cab 4a35 a2a5 39a6 1cad 77ad 3d2d 352e
00000120: ab23 67a9 0c2b 63ac 512c ee2c 8831 1134
00000130: 5d8e d2a2 10b0 7c30 e5ac 64a3 8c2c 27b3
00000140: b632 fd23 6ba1 83a9 e5a2 1729 b224 36a5
00000150: 4c2c 2aad 4ba9 46ae d829 e6a8 67a9 baa8
00000160: 55b1 53a8 16b2 e32a 20a7 7221 8a1f 792d
00000170: fe24 3220 f6a3 b5a8 01ac 70ac dd98 eca3
00000180: 082c b030 0b24 b12d 9728 4ea5 20a3 dea2
00000190: 082d bfa4 052b 8db1 15a8 1ba9 54a8 21a3
000001a0: afb0 e8ac 0dac 972c fd9d 7b29 89ab 7a27
000001b0: 8c29 6024 ff8c 0f2a 25a4 c6af 3e2c 4ba9
000001c0: 1c2f cd2c f627 0a28 c3af b7ab 33b0 53a6
000001d0: ab24 ba30 332d c72c 69b4 adaa dd2a e92e
000001e0: 2b21 c7ad f3a6 6124 b033 bca9 f42a 20ad
000001f0: 7cb2 b5aa 7b2d 6fb0 2a9c 2028 5eb4 96a5

arith.constant19 f2 [1, 3, 3, 32]
0.3257 -0.0805 -0.01378 0.656 0.01067 0.533 -0.1599 0.393
0.007763 -0.264 0.449 -0.01796 -0.1102 0.0695 0.1924 0.1302
-0.37 -0.00182 0.05222 -0.026 0.298 -0.4033 0.6484 -0.376
0.3572 -0.1799 0.0875 -0.084 0.2195 -0.04602 -0.389 -0.279
1.175 -0.5103 -0.1782 -0.2395 -0.515 1.339 0.3228 -0.8306
-0.8574 -0.909 -0.401 1.817 -0.3125 3.932 0.939 0.2362
0.4368 -0.4507 0.783 -2.36 0.3115 -2.926 -1.601 1.885
-0.01942 -0.03973 -0.615 0.651 -0.3704 -0.6353 0.1682 -0.747
0.4492 -0.2499 0.4062 -0.5425 -0.1393 0.5874 -0.2993 -0.895
0.08795 -0.241 0.638 0.5415 -0.2169 0.579 -0.523 0.3464
0.731 -0.4885 0.1202 -0.2698 -0.2158 2.125 0.592 -0.5376
-0.2886 -0.4595 -0.0974 0.2559 0.498 -0.1637 -0.3494 0.1141
0.816 -0.2283 -0.39 0.532 -0.2067 -0.5405 0.1055 -0.726
-0.10297 -0.04654 0.8657 -0.1437 0.2432 -0.1804 -1.328 0.1691
-0.3457 -0.1947 -0.2617 -0.8154 3.262 -1.582 0.511 -0.1963
-0.03857 -0.64 1.205 -0.51 0.5815 -0.11566 -0.2722 -1.155
-3.045 -0.1473 -0.868 -1.42 0.9233 -5.188 2.482 -1.184
-1.234 -2.967 -1.59 -1.3 1.327 -2.312 -0.2522 0.8164
-0.01746 -0.4695 1.102 -1.6875 -1.335 3.717 -1.327 0.1383
1.167 3.408 -1.969 -0.8506 -4.242 -0.2935 -0.728 1.927
-2.11 -0.006184 -0.5703 -0.7915 -0.2393 -0.211 -0.2068 0.859
-0.1837 -0.793 1.01 -0.641 0.4053 -0.915 1.001 0.512
-0.1964 -0.4856 0.362 -0.4766 -0.6196 -1.189 4.324 -0.2184
0.6772 -0.746 0.991 1.409 1.926 2.543 -0.55 -0.1122
0.0878 -0.1609 -0.1376 -0.4417 -0.03876 0.424 -0.719 -0.341
0.3008 0.335 0.4282 -0.0731 -0.1531 0.1444 -0.213 -0.006393
0.2114 0.3127 -0.4995 0.6743 0.95 0.1321 -0.6406 0.534
0.03262 -0.1902 0.4065 0.0914 0.803 -0.4138 0.1631 -0.5464
0.2244 -0.8237 -0.47 0.232 1.025 -0.12054 0.4937 1.099
0.3086 4.832 -1.251 0.0866 -0.7197 0.0008683 -0.4832 0.02199
1.093 1.03 -0.00906 4.566 -1.0625 0.362 0.7017 -1.148
0.3154 0.4055 -1.115 -0.2249 -1.678 -0.7104 1.5205 0.5913
00000000: 3635 27ad 0ea3 3f39 7721 4438 1eb1 4a36
00000010: f31f 39b4 2f37 99a4 0eaf 732c 2832 2b30
00000020: ecb5 7497 af2a a8a6 c534 74b6 3039 04b6
00000030: b735 c2b1 9a2d 60ad 0633 e4a9 39b6 77b4
00000040: b33c 15b8 b4b1 aab3 1fb8 5b3d 2a35 a5ba
00000050: dcba 46bb 6ab6 453f 00b5 dd43 833b 8f33
00000060: fd36 36b7 443a b8c0 fc34 dac1 67be 8a3f
00000070: f9a4 16a9 ecb8 3539 edb5 15b9 6231 fab9
00000080: 3037 ffb3 8036 57b8 75b0 b338 cab4 29bb
00000090: a12d b6b3 1b39 5538 f1b2 a238 2fb8 8b35
000000a0: d939 d1b7 b12f 51b4 e8b2 4040 bc38 4db8
000000b0: 9eb4 5ab7 3cae 1834 f837 3db1 97b5 4d2f
000000c0: 873a 4eb3 3db6 4238 9db2 53b8 c12e cfb9
000000d0: 97ae f5a9 ed3a 99b0 c833 c6b1 50bd 6931
000000e0: 88b5 3bb2 30b4 86ba 8642 54be 1738 48b2
000000f0: f0a8 1fb9 d23c 14b8 a738 67af 5bb4 9fbc
00000100: 17c2 b7b0 f2ba aebd 633b 30c5 f740 bcbc
00000110: f0bc efc1 5cbe 33bd 4f3d a0c0 09b4 883a
00000120: 78a4 83b7 683c c0be 57bd 6f43 4fbd 6d30
00000130: ab3c d142 e0bf ceba 3ec4 b2b4 d3b9 b53f
00000140: 38c0 559e 90b8 55ba a8b3 c1b2 9eb2 df3a
00000150: e1b1 58ba 0a3c 21b9 7c36 52bb 013c 1938
00000160: 49b2 c5b7 cb35 a0b7 f5b8 c2bc 5344 fdb2
00000170: 6b39 f8b9 ee3b a33d b43f 1641 66b8 2eaf
00000180: 9f2d 26b1 67b0 11b7 f6a8 c936 c1b9 75b5
00000190: d034 5c35 da36 aeac e6b0 9f30 d1b2 8c9e
000001a0: c432 0135 feb7 6539 9a3b 3a30 20b9 4638
000001b0: 2d28 16b2 8136 d92d 6d3a 9fb6 3831 5fb8
000001c0: 2e33 97ba 85b7 6d33 1a3c b7af e637 653c
000001d0: f034 d544 01bd 8b2d c2b9 1d13 bbb7 a125
000001e0: 5f3c 1f3c a4a0 9144 40bc cb35 9d39 98bc
000001f0: 0c35 7d36 76bc 32b3 b6be afb9 153e bb38

arith.constant20 f2 [32, 1, 1, 32]
0.018 -0.02643 0.00784 0.04123 0.01144 -0.2188 0.11646 0.0927
0.03372 -0.003677 0.01645 -0.0414 -0.034 -0.06775 0.1285 -0.05988
0.1272 -0.01372 -0.04523 -0.0794 -0.02174 0.03552 -0.0815 -0.0501
-0.04785 0.04803 0.0759 -0.01733 0.02946 0.0672 -0.09174 0.02322
0.05283 -0.07 -0.0806 -0.2542 0.1372 0.04626 0.06018 -0.237
-0.001867 0.2045 -0.01968 -0.039 -0.0799 0.07684 -0.02194 -0.005585
0.01787 0.2085 -0.3596 -0.02724 -0.05814 -0.10803 0.02975 -0.1544
0.0795 -0.0482 0.1323 0.0832 0.1997 0.03918 0.02449 0.04102
-0.07355 -0.2114 -0.01021 -0.169 -0.1012 -0.3298 -0.29 -0.08124
0.169 -0.3164 0.08813 -0.357 0.11194 0.2045 -0.02516 -0.205
-0.1848 -0.1256 0.2408 -0.3083 -0.04895 -0.0209 0.296 0.3364
-0.2024 0.3352 0.1412 -0.02837 -0.01703 -0.0997 0.3154 0.094
-0.3218 -0.1693 -0.1621 0.02716 0.117 0.014595 0.07983 0.1798
-0.01727 0.001568 -0.0187 -0.0686 -0.1359 -0.07007 0.00938 -0.1432
0.1207 0.0158 0.2795 0.07556 0.0566 0.3975 0.0813 -0.2576
-0.1498 -0.1406 0.11255 0.002934 -0.104 -0.001229 0.0641 0.1538
0.2119 -0.0684 -0.2339 0.1486 -0.04727 0.01021 0.0655 0.05414
0.3237 -0.01043 -0.02647 -0.2245 -0.00427 0.0997 0.2307 0.0355
0.1956 -0.1501 0.1164 -0.05972 -0.01648 -0.0451 0.009735 0.1467
0.1283 -0.1884 0.02834 -0.02531 0.4731 0.077 -0.01389 0.10626
0.2979 -0.0406 0.005226 0.0609 0.0705 0.1351 -0.1991 -0.1108
0.0002367 -0.0883 -0.0547 0.08813 0.128 0.1059 -0.07306 -0.05548
-0.3096 -0.03253 -0.0816 -0.1558 -0.169 -0.1729 0.1981 0.2266
-0.07806 0.1099 -0.0005093 0.0063 -0.05154 -0.04688 0.05844 0.0819
0.075 -0.0928 -0.10474 -0.4194 -0.02795 0.1222 -0.6543 0.04236
-0.2673 0.2113 0.1519 -0.03534 0.1119 0.002304 0.4673 -0.1211
-0.1694 0.1426 0.11664 -0.001514 -0.0806 -0.07294 0.02882 0.0715
-0.006504 0.0269 -0.198 -0.02536 0.0421 -0.3325 -0.1302 0.003752
0.1099 0.01368 0.2834 0.1921 0.1792 0.3638 -0.3599 0.1921
-0.0642 0.1395 -0.22 0.02673 0.1329 0.148 0.1406 -0.2045
0.1251 0.003727 -0.274 0.05737 -0.03558 -0.0721 0.1367 -0.02554
0.06366 -0.05515 -0.1648 -0.0339 -0.2216 0.1724 -0.01921 -0.1373
00000000: 9c24 c4a6 0420 4729 db21 00b3 742f ef2d
00000010: 5128 889b 3624 4da9 5aa8 56ac 1d30 aaab
00000020: 1230 06a3 caa9 15ad 91a5 8c28 37ad 6aaa
00000030: 20aa 262a dc2c 70a4 8b27 4d2c dfad f225
00000040: c32a 7bac 29ad 11b4 6430 ec29 b42b 96b3
00000050: a697 8b32 0aa5 fea8 1dad eb2c 9ea5 b89d
00000060: 9324 ac32 c1b5 f9a6 71ab eaae 9e27 f1b0
00000070: 172d 2baa 3c30 532d 6432 0429 4526 4029
00000080: b5ac c4b2 3aa1 68b1 7aae 47b5 a4b4 33ad
00000090: 6831 10b5 a42d b6b5 2a2f 8b32 71a6 8fb2
000000a0: eab1 05b0 b533 efb4 44aa 5aa5 bc34 6235
000000b0: 7ab2 5d35 8530 43a7 5ca4 61ae 0c35 042e
000000c0: 26b5 6bb1 30b1 f426 7d2f 7923 1c2d c131
000000d0: 6ca4 6c16 caa4 64ac 59b0 7cac cd20 95b0
000000e0: ba2f 0b24 7934 d62c 3f2b 5c36 342d 1fb4
000000f0: cbb0 80b0 342f 021a a8ae 0995 1a2c ec30
00000100: c832 61ac 7cb3 c130 0daa 3a21 312c ee2a
00000110: 2e35 57a1 c7a6 2fb3 5f9c 612e 6233 8b28
00000120: 4232 ceb0 732f a5ab 38a4 c6a9 fc20 b230
00000130: 1b30 07b2 4127 7ba6 9237 ee2c 1da3 cd2e
00000140: c434 32a9 5a1d cc2b 832c 5330 5fb2 17af
00000150: c20b a7ad 00ab a42d 1930 c72e adac 1aab
00000160: f4b4 2aa8 39ad fcb0 68b1 88b1 5732 4033
00000170: ffac 092f 2c90 741e 99aa 00aa 7b2b 3e2d
00000180: cd2c f0ad b4ae b6b6 28a7 d22f 3cb9 6c29
00000190: 47b4 c332 dc30 86a8 292f b818 7a37 c0af
000001a0: 6cb1 9030 772f 3496 29ad abac 6127 932c
000001b0: a99e e326 56b2 7ea6 6429 52b5 2bb0 af1b
000001c0: 092f 0123 8934 2632 bc31 d235 c2b5 2632
000001d0: 1cac 7730 0ab3 d826 4130 bc30 8030 8bb2
000001e0: 0130 a21b 62b4 582b 8ea8 9dac 6030 8aa6
000001f0: 132c 0fab 46b1 57a8 17b3 8431 eba4 65b0

arith.constant21 f2 [1, 3, 3, 32]
0.1746 0.3374 -0.2197 -0.0806 -0.12366 -0.006252 0.3713 0.2512
-0.375 -0.1826 -0.052 0.0811 -0.664 0.1693 0.00893 -0.01837
0.367 0.0456 0.04358 0.5474 0.4727 0.4172 -0.1134 -0.07806
-0.1821 0.259 0.1439 -0.3298 0.2128 -0.1344 -0.03287 0.2458
0.866 0.4558 -0.4097 -0.331 -0.2522 0.1952 0.5356 0.3386
-0.6787 -0.2588 -0.1466 0.177 -0.861 0.4373 -0.2434 0.0678
0.7915 -0.02933 0.2507 0.4502 0.665 0.8896 0.169 -0.0642
-0.07104 0.4053 -0.04028 0.639 0.414 0.0676 -0.273 0.3396
0.127 0.1912 -0.45 -0.1954 -0.1981 0.44 0.387 0.216
-0.3643 0.0158 0.07336 0.2424 -0.3625 0.2742 -0.1833 -0.04672
0.576 0.051 0.6997 0.07526 0.1654 0.6064 0.2903 -0.10266
0.194 0.199 -0.06046 1.655 0.2084 0.2632 -0.3916 -0.2109
0.442 0.3455 0.2915 -0.3215 -0.2947 -0.485 0.523 0.2666
-0.607 -0.3713 0.0001839 0.1533 -0.808 0.2244 -0.3748 0.2852
0.1925 0.4404 -0.1619 0.609 0.0153 0.3254 -0.1769 0.2202
0.0734 0.503 0.1552 -0.4285 0.278 -0.1885 -0.3403 0.0899
1.068 0.558 0.763 -0.59 -0.5156 0.87 0.825 0.807
-0.938 -0.6387 0.06433 0.5967 -0.9233 0.541 -0.5894 0.4934
0.689 0.595 0.257 0.5728 -0.2988 0.8687 -0.1813 0.4954
0.435 0.587 -0.4478 -0.4397 0.527 -1.069 -0.6353 1.313
-0.1729 0.271 0.809 -0.2698 -0.259 0.529 0.6025 0.488
-0.6025 -0.2463 0.5566 0.671 -0.2179 0.3298 0.09924 -0.0934
0.673 0.2502 1.252 0.1081 -0.559 0.659 0.9087 0.369
0.5312 0.1238 -1.038 0.9497 0.3987 -1.237 -0.378 -0.1039
0.1495 0.1282 -0.084 -0.328 -0.1781 -0.0807 0.1508 0.1915
-0.525 -0.2712 -0.02647 -0.0487 -0.06152 0.12164 -0.01773 0.5054
-0.0805 0.4578 -0.1188 0.2118 -0.501 -0.1003 0.29 0.3264
0.2478 0.29 0.0731 0.00408 0.11 0.316 -0.1832 -0.4612
0.2004 0.2219 -0.5474 -0.3926 -0.3184 0.654 0.3235 0.5933
-0.3928 -0.6113 0.3801 0.3054 -0.0075 0.2673 0.4617 0.7627
-0.3135 0.632 0.2238 0.2842 -0.8394 0.01199 -0.5825 0.6133
0.6133 0.3262 -0.3884 -0.6304 0.2292 0.847 -0.4119 0.633
00000000: 9631 6635 08b3 29ad eaaf 679e f135 0534
00000010: 00b6 d8b1 a8aa 312d 50b9 6b31 9220 b4a4
00000020: df35 d629 9429 6138 9037 ad36 42af ffac
00000030: d4b1 2534 9b30 47b5 cf32 4db0 35a8 de33
00000040: ee3a 4b37 8eb6 4cb5 09b4 3f32 4938 6b35
00000050: 6eb9 24b4 b1b0 aa31 e3ba ff36 cab3 572c
00000060: 553a 82a7 0334 3437 5239 1e3b 6831 1cac
00000070: 8cac 7c36 28a9 1d39 a036 542c 5eb4 6f35
00000080: 1030 1e32 33b7 41b2 57b2 0a37 3136 e932
00000090: d4b5 0b24 b22c c233 cdb5 6334 deb1 fba9
000000a0: 9c38 872a 9939 d12c 4b31 da38 a534 92ae
000000b0: 3532 5e32 bdab 9f3e ab32 3634 44b6 c0b2
000000c0: 1237 8735 aa34 25b5 b7b4 c3b7 2f38 4434
000000d0: dbb8 f1b5 070a e830 77ba 2e33 ffb5 9034
000000e0: 2932 0c37 2eb1 df38 d523 3535 a9b1 0c33
000000f0: b32c 0638 f730 dbb6 7334 08b2 72b5 c12d
00000100: 463c 7738 1b3a b8b8 20b8 f63a 9a3a 753a
00000110: 81bb 1cb9 1e2c c638 63bb 5438 b7b8 e537
00000120: 8339 c338 1d34 9538 c8b4 f33a cdb1 ed37
00000130: f636 b238 2ab7 09b7 3738 47bc 15b9 413d
00000140: 88b1 5634 793a 51b4 25b4 3b38 d238 cf37
00000150: d2b8 e2b3 7438 5e39 f9b2 4735 5a2e faad
00000160: 6239 0134 023d eb2e 79b8 4639 453b e735
00000170: 4038 ec2f 27bc 993b 6136 f3bc 0cb6 a6ae
00000180: c930 1a30 60ad 3fb5 b3b1 2aad d330 2132
00000190: 33b8 57b4 c7a6 3caa e0ab c92f 8aa4 0b38
000001a0: 27ad 5337 9aaf c732 02b8 6bae a434 3935
000001b0: ee33 a434 ae2c 2e1c 0a2f 0e35 ddb1 61b7
000001c0: 6a32 1a33 61b8 48b6 18b5 3b39 2d35 bf38
000001d0: 49b6 e4b8 1536 e334 ae9f 4734 6337 1a3a
000001e0: 04b5 0e39 2933 8c34 b7ba 2422 a9b8 e838
000001f0: e838 3835 37b6 0bb9 5633 c73a 97b6 1039

arith.constant22 f2 [64, 1, 1, 32]
-0.1301 0.11096 -0.02089 -0.004436 0.0713 0.01431 -0.01549 0.02126
-0.10675 0.075 0.1628 0.07715 0.0766 -0.002344 0.02478 0.02454
0.0713 0.0877 -0.03857 0.1007 0.02504 -0.00785 0.01393 -0.0168
-0.0747 -0.10736 -0.005337 0.0455 -0.01988 -0.002567 0.05722 0.12244
-0.04016 0.04858 -0.01709 0.06665 -0.1006 0.02924 -0.04175 0.06836
0.0731 -0.0568 -0.02954 -0.06775 0.02734 0.0007668 -0.05386 0.02882
-0.0383 -0.000985 2.89e-05 -0.0771 -0.0614 0.11035 0.05078 0.03662
-0.00848 -0.03592 -0.0006037 0.01128 -0.0917 0.00901 0.05414 0.001936
0.0661 0.02301 0.0625 -0.05167 -0.1943 -0.0315 -0.05945 -0.2852
0.01602 -0.07825 0.0525 0.11646 -0.01367 0.2717 -0.1034 0.1543
0.004467 -0.1051 0.09674 0.2067 -0.0658 0.01009 -0.047 0.2207
-0.1017 0.001472 -0.01991 0.03412 -0.1821 -0.03897 0.0379 0.03397
-0.01831 -0.02492 -0.00585 -0.04044 0.0304 0.0998 0.01675 0.0005317
-0.01608 -0.02371 -0.0473 0.01633 -0.03183 0.0229 0.04538 0.0531
-0.0136 0.02321 0.000642 -0.01085 0.01826 -0.009544 -0.08594 -0.01787
0.01778 -0.0178 -0.03464 -0.04242 -0.01432 -0.00888 0.002968 0.0363
0.1663 -0.02332 -0.0347 -0.04688 -0.005714 0.0469 -0.02751 0.003502
0.03415 -0.02507 0.02563 -0.03693 -0.02554 -0.0733 -0.07117 -0.01204
0.01709 -0.0355 -0.02531 0.12305 -0.02309 0.00881 0.01011 -0.03513
0.01904 -0.07605 -0.02757 -0.03357 0.03915 -0.01173 0.0922 0.07886
-0.001853 0.04803 0.06647 -0.1832 0.02682 0.133 -0.10455 0.003365
-0.003489 -0.1284 0.02057 0.1365 0.03574 -0.1304 -0.09186 -0.087
-0.08997 -0.134 0.1302 0.0961 0.03833 -0.0164 0.1221 -0.08307
0.05377 0.04382 -0.06305 -0.01208 0.1448 0.0303 -0.06903 0.01211
0.00736 -0.02226 0.06555 0.2075 -0.2917 -0.03537 0.03635 -0.10675
-0.1126 -0.0997 0.04694 0.2761 0.0519 -0.08496 -0.02103 0.011116
-0.01695 0.0692 -0.1191 0.0783 -0.0154 -0.002426 0.01379 -0.07367
0.0398 0.1249 0.05 -0.05273 -0.02885 -0.1603 0.0745 -0.03015
-0.063 0.1771 -0.03876 0.1415 -0.02641 -0.05194 0.05093 0.015114
-0.001222 0.0912 0.04532 0.01221 0.0954 0.0729 -0.03568 -0.001281
-0.03067 -0.04736 -0.0626 -0.01251 0.0243 0.04065 0.014854 -0.011505
-0.02744 -0.02884 -0.01321 -0.04626 -0.07074 -0.003214 -0.03598 -0.010124
00000000: 2ab0 1a2f 59a5 8b9c 902c 5423 eea3 7125
00000010: d5ae cd2c 3631 f02c e72c cd98 5826 4826
00000020: 902c 9d2d f0a8 722e 6926 05a0 2223 4da4
00000030: c8ac dfae 779d d329 17a5 4299 532b d62f
00000040: 24a9 382a 60a4 442c 70ae 7c27 58a9 602c
00000050: ae2c 45ab 90a7 56ac 0027 4812 e5aa 6127
00000060: e7a8 0994 e501 efac dcab 102f 802a b028
00000070: 57a0 99a8 f290 c621 dead 9d20 ee2a ee17
00000080: 3b2c e425 002c 9daa 38b2 08a8 9cab 90b4
00000090: 1a24 02ad b82a 742f 00a3 5934 9eae f030
000000a0: 931c baae 312e 9d32 36ac 2b21 04aa 1033
000000b0: 82ae 0816 19a5 5e28 d4b1 fda8 da28 5928
000000c0: b0a4 61a6 fe9d 2da9 c827 632e 4a24 5b10
000000d0: 1ea4 12a6 0eaa 2e24 13a8 dd25 cf29 cc2a
000000e0: f7a2 f125 4211 8ea1 ad24 e3a0 80ad 93a4
000000f0: 8d24 8fa4 6fa8 6ea9 55a3 8ca0 141a a528
00000100: 5231 f8a5 71a8 00aa da9d 012a 0ba7 2c1b
00000110: 5f28 6ba6 9026 baa8 8aa6 b1ac 8eac 2aa2
00000120: 6024 8ba8 7ba6 e02f e9a5 8320 2d21 7fa8
00000130: e024 deac 0fa7 4ca8 0329 01a2 e72d 0c2d
00000140: 9797 262a 412c ddb1 de26 4230 b1ae e41a
00000150: 259b 1cb0 4425 5e30 9328 2cb0 e1ad 91ad
00000160: c2ad 4ab0 2b30 272e e828 33a4 d02f 51ad
00000170: e22a 9c29 09ac 2fa2 a230 c227 6bac 3322
00000180: 891f b3a5 322c a432 abb4 87a8 a728 d5ae
00000190: 35af 61ae 022a 6b34 a52a 70ad 62a5 b121
000001a0: 57a4 6e2c 9faf 032d e3a3 f898 0f23 b7ac
000001b0: 1829 fe2f 662a c0aa 63a7 21b1 c52c b8a7
000001c0: 08ac ab31 f6a8 8730 c3a6 a6aa 852a bd23
000001d0: 0195 d62d cd29 4022 1b2e aa2c 91a8 3f95
000001e0: daa7 10aa 02ac 68a2 3926 3429 9b23 e4a1
000001f0: 06a7 62a7 c3a2 eca9 87ac 959a 9ba8 2fa1

arith.constant23 f2 [1, 3, 3, 64]
-0.2185 0.1984 -0.1211 0.1422 -0.05344 0.10376 0.04648 0.51
-0.2028 0.07733 1.939 0.3286 1.294 -0.3562 0.1295 -0.1508
-0.19 0.2019 -0.05252 0.258 0.1588 0.2073 -0.1614 0.2294
-0.1318 -0.0676 -0.3757 -0.1659 -0.2037 -0.014244 0.11035 0.05112
0.1289 0.03427 -0.2152 -0.1714 -0.3318 -0.0182 -0.1978 0.0953
-0.988 -0.02634 -0.2207 -0.1527 -0.2272 0.2534 0.05212 -0.7686
0.0131 -0.02174 -0.09015 -0.1387 -0.2201 0.1547 -0.3855 -0.516
0.01332 -0.4238 -0.02599 0.09235 -0.1622 -0.02475 -0.1023 -0.3943
0.1333 1.672 -0.04837 -0.1726 -0.2388 0.0846 -0.1681 -1.14
0.2485 1.187 -0.4678 1.14 -0.0156 0.5356 0.6484 0.5356
-0.272 -0.418 0.3364 0.92 0.0481 1.392 0.295 -0.6177
0.1216 0.03546 -0.6665 0.5117 -0.539 -0.6846 0.6343 0.663
0.303 -0.3413 0.09454 -0.551 0.5913 -0.09424 -0.376 -0.01932
0.10297 0.536 -0.7583 0.2227 0.01204 1.616 0.8228 0.1737
0.4697 1.07 0.3613 -0.01011 0.1832 -0.10846 -0.6694 -0.0564
-0.0799 -0.703 -0.1843 2.264 0.2115 -1.229 0.226 -1.073
-0.258 0.3318 -0.3464 -0.01022 -0.4487 0.1577 0.1487 -0.8594
0.167 0.4497 -1.184 -0.2598 -0.911 -0.1077 -0.1562 0.1422
-0.1843 -0.0863 -0.0561 0.0635 -0.1793 -0.2214 -0.01288 0.02773
-0.4075 -0.09216 0.0953 0.01796 -0.3425 -0.0291 0.2047 0.2128
0.1309 0.07324 -0.1159 -0.0542 1.433 -0.03558 -0.187 0.10297
0.31 -0.7466 -0.1584 -0.0808 -0.0798 0.127 -0.0992 0.5625
0.2029 0.425 -0.2272 0.3691 -0.1781 -0.3276 -0.7446 -0.309
0.005478 -0.0788 -0.1902 -1.418 0.7314 -0.6978 -0.4297 -0.543
-0.7817 -0.0645 -0.1423 0.9556 0.3325 0.1545 0.0376 -1.202
0.6895 0.2883 -0.7075 -0.3206 1.036 0.715 1.522 0.497
-0.2961 0.3533 -0.1117 -0.4607 2.104 0.4182 0.692 0.558
-0.2622 -0.1699 -0.01517 -0.3289 -0.8286 -0.9956 -0.344 -0.193
-0.10986 -0.158 -0.4658 0.911 0.09644 -0.2272 -2.94 0.1813
-0.617 -0.8213 1.558 -0.02415 -0.676 0.11 -0.00833 0.014694
0.05908 -0.672 -0.627 -0.228 -0.1433 0.4905 0.2217 -0.7393
-0.2084 -0.316 0.514 0.685 -0.5366 -0.502 -0.3042 -0.6533
00000000: feb2 5932 c0af 8d30 d7aa a42e f329 1438
00000010: 7db2 f32c c23f 4235 2d3d b3b5 2530 d3b0
00000020: 14b2 7632 b9aa 2134 1531 a232 2ab1 5733
00000030: 38b0 54ac 03b6 4fb1 85b2 4ba3 102f 8b2a
00000040: 2030 6328 e3b2 7cb1 4fb5 a9a4 54b2 192e
00000050: e7bb bea6 10b3 e3b0 45b3 0e34 ac2a 26ba
00000060: b522 91a5 c5ad 70b0 0bb3 f330 2bb6 21b8
00000070: d222 c8b6 a7a6 e92d 31b1 56a6 8cae 4fb6
00000080: 4430 b03e 31aa 86b1 a4b3 6a2d 61b1 8fbc
00000090: f433 bf3c 7cb7 8f3c fda3 4938 3039 4938
000000a0: 5ab4 b0b6 6235 5c3b 282a 913d b834 f1b8
000000b0: c82f 8a28 55b9 1838 50b8 7ab9 1339 4e39
000000c0: d934 76b5 0d2e 68b8 bb38 08ae 04b6 f2a4
000000d0: 972e 4a38 11ba 2033 2a22 773e 953a 8f31
000000e0: 8437 483c c835 2da1 dd31 f1ae 5bb9 38ab
000000f0: 1dad a0b9 e6b1 8740 c532 eabc 3b33 4bbc
00000100: 21b4 4f35 8bb5 3ca1 2eb7 0c31 c230 e0ba
00000110: 5831 3237 bcbc 28b4 4abb e5ae 00b1 8d30
00000120: e6b1 86ad 2eab 102c bdb1 16b3 98a2 1927
00000130: 85b6 e6ad 192e 9924 7bb5 73a7 8d32 cf32
00000140: 3030 b02c 6baf f0aa bb3d 8ea8 fcb1 972e
00000150: f634 f9b9 12b1 2cad 1bad 1030 59ae 8038
00000160: 7e32 cd36 45b3 e835 b3b1 3eb5 f5b9 f2b4
00000170: 9c1d 0bad 16b2 acbd da39 95b9 e0b6 58b8
00000180: 41ba 21ac 8eb0 a53b 5235 f230 d028 cfbc
00000190: 8439 9d34 a9b9 21b5 253c b839 173e f437
000001a0: bdb4 a735 26af 5fb7 3540 b136 8939 7738
000001b0: 32b4 70b1 c4a3 43b5 a1ba f7bb 81b5 2db2
000001c0: 08af 0eb1 74b7 4a3b 2c2e 45b3 e1c1 cd31
000001d0: f0b8 92ba 3b3e 2fa6 68b9 0a2f 44a0 8623
000001e0: 902b 60b9 04b9 4cb3 96b0 d937 1833 eab9
000001f0: abb2 0eb5 1d38 7b39 4bb8 04b8 deb4 3ab9

arith.constant24 f2 [64, 1, 1, 64]
0.08417 -0.03925 0.04553 -0.00482 -0.02652 -0.02567 0.03183 -0.00535
-0.01337 -0.12396 0.2466 -0.2666 0.0442 -0.0676 0.09247 -0.04596
0.0019245 0.202 0.04865 -0.1294 -0.1104 -0.05304 0.092 -0.03473
-0.10236 -0.03302 0.071 -0.1617 -0.117 0.02663 -0.03052 0.1381
0.1444 0.0807 0.0776 0.10065 0.1711 -0.02211 0.08246 -0.1032
0.2302 -0.05942 0.06076 -0.05273 -0.02774 -0.2365 0.03 -0.0713
0.01213 -0.1194 0.0322 0.1081 0.0821 0.0658 -0.01602 0.11914
0.01073 -0.05304 -0.0773 0.007374 -0.04846 0.02571 -0.0427 -0.2269
-0.002903 -0.1372 -0.0743 0.03064 -0.1101 0.003714 0.1478 0.283
-0.11365 -0.1779 0.1808 -0.04333 0.0525 0.01542 -0.04846 -0.0384
0.01242 0.09814 0.05795 -0.2634 -0.1565 0.1713 -0.1393 -0.11145
0.01247 -0.0952 -0.093 -0.00234 0.003172 0.1536 -0.03232 -0.0639
-0.0553 0.02666 0.01362 0.08466 0.0512 -0.1322 0.1306 -0.001756
0.1316 0.0879 -0.1262 -0.10645 -0.2332 -0.1699 -0.02776 -0.0347
0.03668 0.0923 0.014145 0.1177 0.04785 0.02481 0.1443 0.04626
0.02548 -0.11884 -0.03998 0.1381 0.06696 -0.1381 -0.0452 0.02406
0.09106 0.04782 -0.03384 0.0543 0.0178 0.0192 -0.01334 -0.03162
-0.04135 0.0008035 -0.1472 -0.01839 -0.1445 0.051 -0.0342 -0.0757
-0.1155 0.1384 -0.05658 -0.1158 0.02695 -0.0627 0.014305 -0.0262
0.1315 0.010254 -0.0825 -0.007355 0.012436 -0.0524 0.0999 -0.02249
0.0254 0.002016 0.0974 0.086 0.0643 -0.0475 -0.04507 -0.0336
0.0008035 0.0701 -0.07825 -0.1539 0.1231 -0.0679 -0.103 0.1438
0.1075 0.0821 -0.013756 -0.10486 -0.0631 0.10095 0.0832 -0.1533
-0.011765 -0.152 0.0763 0.01593 0.03296 -0.02869 0.023 0.0931
-0.03864 -0.05045 -0.077 -0.045 0.3044 -0.2219 -0.2573 -0.0749
0.1577 -0.1948 0.1935 -0.1005 -0.2632 -0.06976 -0.03366 -0.05313
0.2042 0.1975 -0.1092 -0.02628 -0.2974 0.1302 0.01933 0.01912
0.07434 -0.01634 0.1006 -0.05182 -0.1048 -0.193 -0.1469 -0.0664
-0.05673 -0.02715 -0.02454 -0.03522 0.01119 0.04785 -0.2063 0.08746
-0.04126 -0.1293 -0.0702 -0.1799 -0.0907 0.03302 0.10925 0.08344
-0.03494 -0.004177 -0.0414 0.1354 0.08386 0.263 -0.05722 -0.01852
-0.008766 0.07166 -0.001702 -0.00286 0.03915 0.1682 0.1333 -0.1573
00000000: 632d 06a9 d429 f09c caa6 92a6 1328 7a9d
00000010: d8a2 efaf e433 44b4 a829 54ac eb2d e2a9
00000020: e217 7732 3a2a 24b0 11af caaa e32d 72a8
00000030: 8dae 3aa8 8b2c 2db1 7daf d126 d0a7 6b30
00000040: 9f30 2a2d f72c 712e 7a31 a9a5 472d 9bae
00000050: 5e33 9bab c72b c0aa 1aa7 91b3 ae27 90ac
00000060: 3622 a4af 1f28 eb2e 412d 362c 1aa4 a02f
00000070: 7e21 caaa f2ac 8d1f 34aa 9526 77a9 43b3
00000080: f299 64b0 c1ac d827 0caf 9b1b bb30 8734
00000090: 46af b1b1 c931 8ca9 b82a e523 34aa eaa8
000000a0: 5c22 482e 6b2b 37b4 02b1 7b31 75b0 22af
000000b0: 6222 18ae f4ad cb98 7f1a ea30 23a8 17ac
000000c0: 14ab d326 f922 6b2d 8e2a 3bb0 2e30 3197
000000d0: 3630 a02d 0ab0 d0ae 76b3 70b1 1ba7 71a8
000000e0: b228 e82d 3e23 882f 202a 5a26 9e30 ec29
000000f0: 8626 9baf 1ea9 6b30 492c 6bb0 c9a9 2926
00000100: d42d 1f2a 55a8 f32a 8f24 ea24 d5a2 0ca8
00000110: 4ba9 9512 b6b0 b5a4 a0b0 872a 61a8 d8ac
00000120: 64af 6e30 3eab 69af e626 03ac 5323 b5a6
00000130: 3530 4021 48ad 889f 5e22 b5aa 652e c2a5
00000140: 8126 2118 3c2e 812d 1d2c 14aa c5a9 4da8
00000150: 9512 7d2c 02ad edb0 e12f 58ac 98ae 9a30
00000160: e12e 412d 0ba3 b6ae 0aac 762e 532d e8b0
00000170: 06a2 ddb0 e22c 1424 3828 58a7 e325 f52d
00000180: f2a8 75aa eeac c3a9 df34 1ab3 1eb4 cbac
00000190: 0c31 3cb2 3132 6fae 36b4 77ac 4fa8 cdaa
000001a0: 8932 5232 fdae baa6 c2b4 2b30 f324 e524
000001b0: c22c 2fa4 702e a2aa b5ae 2db2 b3b0 40ac
000001c0: 43ab f3a6 48a6 82a8 bb21 202a 9ab2 992d
000001d0: 48a9 23b0 7eac c2b1 cead 3a28 fe2e 572d
000001e0: 79a8 479c 4da9 5530 5e2d 3534 53ab bea4
000001f0: 7da0 962c f996 db99 0329 6231 4430 09b1

arith.constant25 f2 [1, 3, 3, 64]
1.107 -0.01346 0.7603 0.247 -0.578 2.162 0.2322 -0.0984
-0.2148 -0.3716 -0.0005965 -0.0999 0.208 -0.1353 -0.0334 -0.10675
0.7793 0.528 -0.1084 -0.621 -0.4973 -0.1455 0.294 -0.551
-0.3655 -0.2426 -0.4253 0.03049 -0.1603 -0.2444 0.1827 0.4478
-0.3884 0.1934 -0.518 -0.2634 0.0491 0.0816 -0.1146 -0.1043
0.0705 0.02138 -0.2595 -0.0967 0.355 0.11444 0.4893 -0.3052
0.2433 -0.01487 0.2139 -0.6704 -0.1273 0.003157 0.1641 0.0488
0.06274 0.1273 0.1543 -0.06824 0.6816 0.1083 0.12134 0.1813
0.491 0.3096 -1.306 0.0286 0.95 0.3118 -0.323 -1.371
-0.3787 0.2294 -0.08386 0.89 0.3792 -0.145 -0.007412 -0.2411
1.444 1.172 0.05786 0.08276 0.3743 -0.3098 0.157 -0.6255
-0.533 -0.1121 0.618 0.458 -0.7188 0.981 -0.04153 1.5205
-0.308 2.1 0.8247 -0.9614 -0.0896 -0.5146 -0.6357 1.323
0.1627 0.2126 -0.3904 -0.2935 0.2333 -0.532 1.106 0.845
0.408 -0.8325 0.1721 -0.057 -0.1304 0.1051 -0.1985 0.527
-0.5444 -0.1035 0.7344 0.532 0.7524 0.02217 0.0975 0.02164
0.2432 0.2869 -0.593 0.243 0.1589 -1.142 -0.423 -0.2585
0.01866 0.07605 -0.0324 1.155 0.0769 0.1272 -0.10455 0.349
0.1565 0.3987 -0.42 0.282 1.171 -0.1713 0.601 -0.2673
-0.3938 0.9233 0.764 0.1747 -0.814 2.535 0.205 0.806
0.7246 0.6357 0.1018 -0.2522 -0.1997 -0.1792 -0.1493 1.081
0.0677 0.714 0.03598 0.1139 0.0887 -0.804 0.4155 -0.3455
1.214 -0.6143 0.1482 1.109 -0.4072 0.06445 -0.4707 0.02527
-0.3164 0.1015 0.5166 0.1298 0.0456 0.1462 0.04916 -0.314
1.022 0.9014 0.877 0.503 -0.2198 2.715 -0.3584 0.3313
-0.1791 -0.6084 -0.02106 1.01 0.08563 0.03635 0.02232 0.3064
-0.04446 0.63 -0.08 0.2993 -0.2242 0.48 0.3596 -0.08527
-0.1842 -0.2908 -0.2257 -0.002447 -0.4321 0.2556 -0.566 0.6855
-0.1832 0.0818 -0.5884 -0.02043 -0.1527 -0.0687 0.3738 0.153
-0.03078 -0.2888 -0.694 -0.2115 0.4443 0.2144 -0.56 -0.331
0.07916 -0.3232 0.369 -0.1783 0.01598 0.2507 0.2434 0.6084
0.011406 0.02396 0.2695 0.3936 1.103 0.1775 -0.09735 0.276
00000000: 6e3c e4a2 153a e733 a0b8 5340 6e33 4cae
00000010: e0b2 f2b5 e390 65ae a832 54b0 46a8 d5ae
00000020: 3c3a 3938 f0ae f8b8 f5b7 a8b0 b434 68b8
00000030: d9b5 c3b3 ceb6 ce27 21b1 d2b3 d931 2a37
00000040: 37b6 3032 25b8 37b4 492a 392d 56af adae
00000050: 832c 7925 27b4 30ae ae35 532f d437 e2b4
00000060: c933 9da3 d832 5db9 13b0 771a 4031 3f2a
00000070: 042c 1330 f030 5eac 7439 ee2e c42f cd31
00000080: db37 f434 39bd 5227 9a3b fd34 2bb5 7cbd
00000090: 0fb6 5733 5ead 1f3b 1136 a4b0 979f b7b3
000000a0: c73d b03c 682b 4c2d fd35 f5b4 0631 01b9
000000b0: 44b8 2daf f238 5437 c0b9 d93b 51a9 153e
000000c0: eeb4 3340 993a b1bb bcad 1eb8 16b9 4b3d
000000d0: 3531 ce32 3fb6 b2b4 7733 42b8 6d3c c33a
000000e0: 8736 a9ba 8231 4cab 2cb0 ba2e 5ab2 3738
000000f0: 5bb8 a0ae e039 4238 053a ad25 3d2e 8a25
00000100: c833 9734 beb8 c733 1631 91bc c5b6 23b4
00000110: c724 de2c 26a8 9f3c ec2c 1230 b1ae 9635
00000120: 0231 6136 b8b6 8334 af3c 7bb1 cf38 47b4
00000130: 4db6 633b 1d3a 9731 83ba 1241 8f32 733a
00000140: cc39 1639 842e 09b4 64b2 bcb1 c7b0 533c
00000150: 552c b639 9b28 4a2f ad2d 6fba a636 87b5
00000160: db3c eab8 be30 703c 84b6 202c 88b7 7826
00000170: 10b5 7f2e 2238 2730 d629 ae30 4b2a 06b5
00000180: 173c 363b 043b 0638 09b3 6e41 bcb5 4d35
00000190: bbb1 deb8 64a5 0a3c 7b2d a728 b725 e734
000001a0: b1a9 0a39 1fad ca34 2db3 ae37 c135 75ad
000001b0: e5b1 a7b4 39b3 0399 eab6 1734 87b8 7c39
000001c0: ddb1 3c2d b5b8 3ba5 e3b0 66ac fb35 e530
000001d0: e1a7 9fb4 8db9 c5b2 1c37 dc32 7bb8 4cb5
000001e0: 112d 2cb5 e735 b5b1 1724 0334 ca33 de38
000001f0: d721 2226 5034 4c36 693c ae31 3bae 6a34
